{"modelTopology": {"node": [{"attr": {"dtype": {"type": "DT_UINT8"}, "shape": {"shape": {"dim": [{"size": "-1"}, {"size": "-1"}, {"size": "-1"}, {"size": "3"}]}}}, "name": "image_tensor", "op": "Placeholder"}, {"attr": {"dtype": {"type": "DT_INT32"}, "value": {"tensor": {"dtype": "DT_INT32", "tensorShape": {"dim": [{"size": "3"}]}}}}, "name": "Postprocessor/Slice/size", "op": "Const"}, {"attr": {"dtype": {"type": "DT_INT32"}, "value": {"tensor": {"dtype": "DT_INT32", "tensorShape": {"dim": [{"size": "3"}]}}}}, "name": "Postprocessor/Slice/begin", "op": "Const"}, {"attr": {"dtype": {"type": "DT_INT32"}, "value": {"tensor": {"dtype": "DT_INT32", "tensorShape": {}}}}, "name": "Postprocessor/Tile/multiples/1", "op": "Const"}, {"attr": {"dtype": {"type": "DT_INT32"}, "value": {"tensor": {"dtype": "DT_INT32", "tensorShape": {}}}}, "name": "BoxPredictor_0/stack_1/2", "op": "Const"}, {"attr": {"dtype": {"type": "DT_INT32"}, "value": {"tensor": {"dtype": "DT_INT32", "tensorShape": {}}}}, "name": "BoxPredictor_5/stack/1", "op": "Const"}, {"attr": {"dtype": {"type": "DT_INT32"}, "value": {"tensor": {"dtype": "DT_INT32", "tensorShape": {"dim": [{"size": "1"}]}}}}, "name": "Postprocessor/strided_slice/stack_1", "op": "Const"}, {"attr": {"dtype": {"type": "DT_INT32"}, "value": {"tensor": {"dtype": "DT_INT32", "tensorShape": {"dim": [{"size": "1"}]}}}}, "name": "Postprocessor/strided_slice/stack", "op": "Const"}, {"attr": {"dtype": {"type": "DT_FLOAT"}, "value": {"tensor": {"dtype": "DT_FLOAT", "tensorShape": {"dim": [{"size": "128"}]}}}}, "name": "FeatureExtractor/MobilenetV2/layer_19_2_Conv2d_5_3x3_s2_128/BatchNorm/batchnorm/sub", "op": "Const"}, {"attr": {"dtype": {"type": "DT_FLOAT"}, "value": {"tensor": {"dtype": "DT_FLOAT", "tensorShape": {"dim": [{"size": "1"}, {"size": "1"}, {"size": "64"}, {"size": "128"}]}}}}, "name": "FeatureExtractor/MobilenetV2/layer_19_2_Conv2d_5_3x3_s2_128/Conv2D/merged_input", "op": "Const"}, {"attr": {"dtype": {"type": "DT_FLOAT"}, "value": {"tensor": {"dtype": "DT_FLOAT", "tensorShape": {"dim": [{"size": "64"}]}}}}, "name": "FeatureExtractor/MobilenetV2/layer_19_2_Conv2d_5_3x3_s2_128_depthwise/BatchNorm/batchnorm/sub", "op": "Const"}, {"attr": {"dtype": {"type": "DT_FLOAT"}, "value": {"tensor": {"dtype": "DT_FLOAT", "tensorShape": {"dim": [{"size": "64"}]}}}}, "name": "FeatureExtractor/MobilenetV2/layer_19_2_Conv2d_5_3x3_s2_128_depthwise/BatchNorm/batchnorm/mul", "op": "Const"}, {"attr": {"dtype": {"type": "DT_FLOAT"}, "value": {"tensor": {"dtype": "DT_FLOAT", "tensorShape": {"dim": [{"size": "3"}, {"size": "3"}, {"size": "64"}, {"size": "1"}]}}}}, "name": "FeatureExtractor/MobilenetV2/layer_19_2_Conv2d_5_3x3_s2_128_depthwise/depthwise_weights", "op": "Const"}, {"attr": {"dtype": {"type": "DT_FLOAT"}, "value": {"tensor": {"dtype": "DT_FLOAT", "tensorShape": {"dim": [{"size": "64"}]}}}}, "name": "FeatureExtractor/MobilenetV2/layer_19_1_Conv2d_5_1x1_64/BatchNorm/batchnorm/sub", "op": "Const"}, {"attr": {"dtype": {"type": "DT_FLOAT"}, "value": {"tensor": {"dtype": "DT_FLOAT", "tensorShape": {"dim": [{"size": "1"}, {"size": "1"}, {"size": "256"}, {"size": "64"}]}}}}, "name": "FeatureExtractor/MobilenetV2/layer_19_1_Conv2d_5_1x1_64/Conv2D/merged_input", "op": "Const"}, {"attr": {"dtype": {"type": "DT_FLOAT"}, "value": {"tensor": {"dtype": "DT_FLOAT", "tensorShape": {"dim": [{"size": "256"}]}}}}, "name": "FeatureExtractor/MobilenetV2/layer_19_2_Conv2d_4_3x3_s2_256/BatchNorm/batchnorm/sub", "op": "Const"}, {"attr": {"dtype": {"type": "DT_FLOAT"}, "value": {"tensor": {"dtype": "DT_FLOAT", "tensorShape": {"dim": [{"size": "1"}, {"size": "1"}, {"size": "128"}, {"size": "256"}]}}}}, "name": "FeatureExtractor/MobilenetV2/layer_19_2_Conv2d_4_3x3_s2_256/Conv2D/merged_input", "op": "Const"}, {"attr": {"dtype": {"type": "DT_FLOAT"}, "value": {"tensor": {"dtype": "DT_FLOAT", "tensorShape": {"dim": [{"size": "128"}]}}}}, "name": "FeatureExtractor/MobilenetV2/layer_19_2_Conv2d_4_3x3_s2_256_depthwise/BatchNorm/batchnorm/sub", "op": "Const"}, {"attr": {"dtype": {"type": "DT_FLOAT"}, "value": {"tensor": {"dtype": "DT_FLOAT", "tensorShape": {"dim": [{"size": "128"}]}}}}, "name": "FeatureExtractor/MobilenetV2/layer_19_2_Conv2d_4_3x3_s2_256_depthwise/BatchNorm/batchnorm/mul", "op": "Const"}, {"attr": {"dtype": {"type": "DT_FLOAT"}, "value": {"tensor": {"dtype": "DT_FLOAT", "tensorShape": {"dim": [{"size": "3"}, {"size": "3"}, {"size": "128"}, {"size": "1"}]}}}}, "name": "FeatureExtractor/MobilenetV2/layer_19_2_Conv2d_4_3x3_s2_256_depthwise/depthwise_weights", "op": "Const"}, {"attr": {"dtype": {"type": "DT_FLOAT"}, "value": {"tensor": {"dtype": "DT_FLOAT", "tensorShape": {"dim": [{"size": "128"}]}}}}, "name": "FeatureExtractor/MobilenetV2/layer_19_1_Conv2d_4_1x1_128/BatchNorm/batchnorm/sub", "op": "Const"}, {"attr": {"dtype": {"type": "DT_FLOAT"}, "value": {"tensor": {"dtype": "DT_FLOAT", "tensorShape": {"dim": [{"size": "1"}, {"size": "1"}, {"size": "256"}, {"size": "128"}]}}}}, "name": "FeatureExtractor/MobilenetV2/layer_19_1_Conv2d_4_1x1_128/Conv2D/merged_input", "op": "Const"}, {"attr": {"dtype": {"type": "DT_FLOAT"}, "value": {"tensor": {"dtype": "DT_FLOAT", "tensorShape": {"dim": [{"size": "256"}]}}}}, "name": "FeatureExtractor/MobilenetV2/layer_19_2_Conv2d_3_3x3_s2_256/BatchNorm/batchnorm/sub", "op": "Const"}, {"attr": {"dtype": {"type": "DT_FLOAT"}, "value": {"tensor": {"dtype": "DT_FLOAT", "tensorShape": {"dim": [{"size": "1"}, {"size": "1"}, {"size": "128"}, {"size": "256"}]}}}}, "name": "FeatureExtractor/MobilenetV2/layer_19_2_Conv2d_3_3x3_s2_256/Conv2D/merged_input", "op": "Const"}, {"attr": {"dtype": {"type": "DT_FLOAT"}, "value": {"tensor": {"dtype": "DT_FLOAT", "tensorShape": {"dim": [{"size": "128"}]}}}}, "name": "FeatureExtractor/MobilenetV2/layer_19_2_Conv2d_3_3x3_s2_256_depthwise/BatchNorm/batchnorm/sub", "op": "Const"}, {"attr": {"dtype": {"type": "DT_FLOAT"}, "value": {"tensor": {"dtype": "DT_FLOAT", "tensorShape": {"dim": [{"size": "128"}]}}}}, "name": "FeatureExtractor/MobilenetV2/layer_19_2_Conv2d_3_3x3_s2_256_depthwise/BatchNorm/batchnorm/mul", "op": "Const"}, {"attr": {"dtype": {"type": "DT_FLOAT"}, "value": {"tensor": {"dtype": "DT_FLOAT", "tensorShape": {"dim": [{"size": "3"}, {"size": "3"}, {"size": "128"}, {"size": "1"}]}}}}, "name": "FeatureExtractor/MobilenetV2/layer_19_2_Conv2d_3_3x3_s2_256_depthwise/depthwise_weights", "op": "Const"}, {"attr": {"dtype": {"type": "DT_FLOAT"}, "value": {"tensor": {"dtype": "DT_FLOAT", "tensorShape": {"dim": [{"size": "128"}]}}}}, "name": "FeatureExtractor/MobilenetV2/layer_19_1_Conv2d_3_1x1_128/BatchNorm/batchnorm/sub", "op": "Const"}, {"attr": {"dtype": {"type": "DT_FLOAT"}, "value": {"tensor": {"dtype": "DT_FLOAT", "tensorShape": {"dim": [{"size": "1"}, {"size": "1"}, {"size": "512"}, {"size": "128"}]}}}}, "name": "FeatureExtractor/MobilenetV2/layer_19_1_Conv2d_3_1x1_128/Conv2D/merged_input", "op": "Const"}, {"attr": {"dtype": {"type": "DT_FLOAT"}, "value": {"tensor": {"dtype": "DT_FLOAT", "tensorShape": {"dim": [{"size": "512"}]}}}}, "name": "FeatureExtractor/MobilenetV2/layer_19_2_Conv2d_2_3x3_s2_512/BatchNorm/batchnorm/sub", "op": "Const"}, {"attr": {"dtype": {"type": "DT_FLOAT"}, "value": {"tensor": {"dtype": "DT_FLOAT", "tensorShape": {"dim": [{"size": "1"}, {"size": "1"}, {"size": "256"}, {"size": "512"}]}}}}, "name": "FeatureExtractor/MobilenetV2/layer_19_2_Conv2d_2_3x3_s2_512/Conv2D/merged_input", "op": "Const"}, {"attr": {"dtype": {"type": "DT_FLOAT"}, "value": {"tensor": {"dtype": "DT_FLOAT", "tensorShape": {"dim": [{"size": "256"}]}}}}, "name": "FeatureExtractor/MobilenetV2/layer_19_2_Conv2d_2_3x3_s2_512_depthwise/BatchNorm/batchnorm/sub", "op": "Const"}, {"attr": {"dtype": {"type": "DT_FLOAT"}, "value": {"tensor": {"dtype": "DT_FLOAT", "tensorShape": {"dim": [{"size": "256"}]}}}}, "name": "FeatureExtractor/MobilenetV2/layer_19_2_Conv2d_2_3x3_s2_512_depthwise/BatchNorm/batchnorm/mul", "op": "Const"}, {"attr": {"dtype": {"type": "DT_FLOAT"}, "value": {"tensor": {"dtype": "DT_FLOAT", "tensorShape": {"dim": [{"size": "3"}, {"size": "3"}, {"size": "256"}, {"size": "1"}]}}}}, "name": "FeatureExtractor/MobilenetV2/layer_19_2_Conv2d_2_3x3_s2_512_depthwise/depthwise_weights", "op": "Const"}, {"attr": {"dtype": {"type": "DT_FLOAT"}, "value": {"tensor": {"dtype": "DT_FLOAT", "tensorShape": {"dim": [{"size": "256"}]}}}}, "name": "FeatureExtractor/MobilenetV2/layer_19_1_Conv2d_2_1x1_256/BatchNorm/batchnorm/sub", "op": "Const"}, {"attr": {"dtype": {"type": "DT_FLOAT"}, "value": {"tensor": {"dtype": "DT_FLOAT", "tensorShape": {"dim": [{"size": "1"}, {"size": "1"}, {"size": "1280"}, {"size": "256"}]}}}}, "name": "FeatureExtractor/MobilenetV2/layer_19_1_Conv2d_2_1x1_256/Conv2D/merged_input", "op": "Const"}, {"attr": {"dtype": {"type": "DT_FLOAT"}, "value": {"tensor": {"dtype": "DT_FLOAT", "tensorShape": {"dim": [{"size": "1280"}]}}}}, "name": "FeatureExtractor/MobilenetV2/Conv_1/BatchNorm/batchnorm/sub", "op": "Const"}, {"attr": {"dtype": {"type": "DT_FLOAT"}, "value": {"tensor": {"dtype": "DT_FLOAT", "tensorShape": {"dim": [{"size": "1"}, {"size": "1"}, {"size": "320"}, {"size": "1280"}]}}}}, "name": "FeatureExtractor/MobilenetV2/Conv_1/Conv2D/merged_input", "op": "Const"}, {"attr": {"dtype": {"type": "DT_FLOAT"}, "value": {"tensor": {"dtype": "DT_FLOAT", "tensorShape": {"dim": [{"size": "320"}]}}}}, "name": "FeatureExtractor/MobilenetV2/expanded_conv_16/project/BatchNorm/batchnorm/sub", "op": "Const"}, {"attr": {"dtype": {"type": "DT_FLOAT"}, "value": {"tensor": {"dtype": "DT_FLOAT", "tensorShape": {"dim": [{"size": "1"}, {"size": "1"}, {"size": "960"}, {"size": "320"}]}}}}, "name": "FeatureExtractor/MobilenetV2/expanded_conv_16/project/Conv2D/merged_input", "op": "Const"}, {"attr": {"dtype": {"type": "DT_FLOAT"}, "value": {"tensor": {"dtype": "DT_FLOAT", "tensorShape": {"dim": [{"size": "960"}]}}}}, "name": "FeatureExtractor/MobilenetV2/expanded_conv_16/depthwise/BatchNorm/batchnorm/sub", "op": "Const"}, {"attr": {"dtype": {"type": "DT_FLOAT"}, "value": {"tensor": {"dtype": "DT_FLOAT", "tensorShape": {"dim": [{"size": "960"}]}}}}, "name": "FeatureExtractor/MobilenetV2/expanded_conv_16/depthwise/BatchNorm/batchnorm/mul", "op": "Const"}, {"attr": {"dtype": {"type": "DT_FLOAT"}, "value": {"tensor": {"dtype": "DT_FLOAT", "tensorShape": {"dim": [{"size": "3"}, {"size": "3"}, {"size": "960"}, {"size": "1"}]}}}}, "name": "FeatureExtractor/MobilenetV2/expanded_conv_16/depthwise/depthwise_weights", "op": "Const"}, {"attr": {"dtype": {"type": "DT_FLOAT"}, "value": {"tensor": {"dtype": "DT_FLOAT", "tensorShape": {"dim": [{"size": "960"}]}}}}, "name": "FeatureExtractor/MobilenetV2/expanded_conv_16/expand/BatchNorm/batchnorm/sub", "op": "Const"}, {"attr": {"dtype": {"type": "DT_FLOAT"}, "value": {"tensor": {"dtype": "DT_FLOAT", "tensorShape": {"dim": [{"size": "1"}, {"size": "1"}, {"size": "160"}, {"size": "960"}]}}}}, "name": "FeatureExtractor/MobilenetV2/expanded_conv_16/expand/Conv2D/merged_input", "op": "Const"}, {"attr": {"dtype": {"type": "DT_FLOAT"}, "value": {"tensor": {"dtype": "DT_FLOAT", "tensorShape": {"dim": [{"size": "160"}]}}}}, "name": "FeatureExtractor/MobilenetV2/expanded_conv_13/project/BatchNorm/batchnorm/sub", "op": "Const"}, {"attr": {"dtype": {"type": "DT_FLOAT"}, "value": {"tensor": {"dtype": "DT_FLOAT", "tensorShape": {"dim": [{"size": "1"}, {"size": "1"}, {"size": "576"}, {"size": "160"}]}}}}, "name": "FeatureExtractor/MobilenetV2/expanded_conv_13/project/Conv2D/merged_input", "op": "Const"}, {"attr": {"dtype": {"type": "DT_FLOAT"}, "value": {"tensor": {"dtype": "DT_FLOAT", "tensorShape": {"dim": [{"size": "576"}]}}}}, "name": "FeatureExtractor/MobilenetV2/expanded_conv_13/depthwise/BatchNorm/batchnorm/sub", "op": "Const"}, {"attr": {"dtype": {"type": "DT_FLOAT"}, "value": {"tensor": {"dtype": "DT_FLOAT", "tensorShape": {"dim": [{"size": "576"}]}}}}, "name": "FeatureExtractor/MobilenetV2/expanded_conv_13/depthwise/BatchNorm/batchnorm/mul", "op": "Const"}, {"attr": {"dtype": {"type": "DT_FLOAT"}, "value": {"tensor": {"dtype": "DT_FLOAT", "tensorShape": {"dim": [{"size": "3"}, {"size": "3"}, {"size": "576"}, {"size": "1"}]}}}}, "name": "FeatureExtractor/MobilenetV2/expanded_conv_13/depthwise/depthwise_weights", "op": "Const"}, {"attr": {"dtype": {"type": "DT_FLOAT"}, "value": {"tensor": {"dtype": "DT_FLOAT", "tensorShape": {"dim": [{"size": "576"}]}}}}, "name": "FeatureExtractor/MobilenetV2/expanded_conv_13/expand/BatchNorm/batchnorm/sub", "op": "Const"}, {"attr": {"dtype": {"type": "DT_FLOAT"}, "value": {"tensor": {"dtype": "DT_FLOAT", "tensorShape": {"dim": [{"size": "1"}, {"size": "1"}, {"size": "96"}, {"size": "576"}]}}}}, "name": "FeatureExtractor/MobilenetV2/expanded_conv_13/expand/Conv2D/merged_input", "op": "Const"}, {"attr": {"dtype": {"type": "DT_FLOAT"}, "value": {"tensor": {"dtype": "DT_FLOAT", "tensorShape": {"dim": [{"size": "96"}]}}}}, "name": "FeatureExtractor/MobilenetV2/expanded_conv_10/project/BatchNorm/batchnorm/sub", "op": "Const"}, {"attr": {"dtype": {"type": "DT_FLOAT"}, "value": {"tensor": {"dtype": "DT_FLOAT", "tensorShape": {"dim": [{"size": "1"}, {"size": "1"}, {"size": "384"}, {"size": "96"}]}}}}, "name": "FeatureExtractor/MobilenetV2/expanded_conv_10/project/Conv2D/merged_input", "op": "Const"}, {"attr": {"dtype": {"type": "DT_FLOAT"}, "value": {"tensor": {"dtype": "DT_FLOAT", "tensorShape": {"dim": [{"size": "384"}]}}}}, "name": "FeatureExtractor/MobilenetV2/expanded_conv_10/depthwise/BatchNorm/batchnorm/sub", "op": "Const"}, {"attr": {"dtype": {"type": "DT_FLOAT"}, "value": {"tensor": {"dtype": "DT_FLOAT", "tensorShape": {"dim": [{"size": "384"}]}}}}, "name": "FeatureExtractor/MobilenetV2/expanded_conv_10/depthwise/BatchNorm/batchnorm/mul", "op": "Const"}, {"attr": {"dtype": {"type": "DT_FLOAT"}, "value": {"tensor": {"dtype": "DT_FLOAT", "tensorShape": {"dim": [{"size": "3"}, {"size": "3"}, {"size": "384"}, {"size": "1"}]}}}}, "name": "FeatureExtractor/MobilenetV2/expanded_conv_10/depthwise/depthwise_weights", "op": "Const"}, {"attr": {"dtype": {"type": "DT_FLOAT"}, "value": {"tensor": {"dtype": "DT_FLOAT", "tensorShape": {"dim": [{"size": "384"}]}}}}, "name": "FeatureExtractor/MobilenetV2/expanded_conv_10/expand/BatchNorm/batchnorm/sub", "op": "Const"}, {"attr": {"dtype": {"type": "DT_FLOAT"}, "value": {"tensor": {"dtype": "DT_FLOAT", "tensorShape": {"dim": [{"size": "1"}, {"size": "1"}, {"size": "64"}, {"size": "384"}]}}}}, "name": "FeatureExtractor/MobilenetV2/expanded_conv_10/expand/Conv2D/merged_input", "op": "Const"}, {"attr": {"dtype": {"type": "DT_FLOAT"}, "value": {"tensor": {"dtype": "DT_FLOAT", "tensorShape": {"dim": [{"size": "64"}]}}}}, "name": "FeatureExtractor/MobilenetV2/expanded_conv_6/project/BatchNorm/batchnorm/sub", "op": "Const"}, {"attr": {"dtype": {"type": "DT_FLOAT"}, "value": {"tensor": {"dtype": "DT_FLOAT", "tensorShape": {"dim": [{"size": "1"}, {"size": "1"}, {"size": "192"}, {"size": "64"}]}}}}, "name": "FeatureExtractor/MobilenetV2/expanded_conv_6/project/Conv2D/merged_input", "op": "Const"}, {"attr": {"dtype": {"type": "DT_FLOAT"}, "value": {"tensor": {"dtype": "DT_FLOAT", "tensorShape": {"dim": [{"size": "192"}]}}}}, "name": "FeatureExtractor/MobilenetV2/expanded_conv_6/depthwise/BatchNorm/batchnorm/sub", "op": "Const"}, {"attr": {"dtype": {"type": "DT_FLOAT"}, "value": {"tensor": {"dtype": "DT_FLOAT", "tensorShape": {"dim": [{"size": "192"}]}}}}, "name": "FeatureExtractor/MobilenetV2/expanded_conv_6/depthwise/BatchNorm/batchnorm/mul", "op": "Const"}, {"attr": {"dtype": {"type": "DT_FLOAT"}, "value": {"tensor": {"dtype": "DT_FLOAT", "tensorShape": {"dim": [{"size": "3"}, {"size": "3"}, {"size": "192"}, {"size": "1"}]}}}}, "name": "FeatureExtractor/MobilenetV2/expanded_conv_6/depthwise/depthwise_weights", "op": "Const"}, {"attr": {"dtype": {"type": "DT_FLOAT"}, "value": {"tensor": {"dtype": "DT_FLOAT", "tensorShape": {"dim": [{"size": "192"}]}}}}, "name": "FeatureExtractor/MobilenetV2/expanded_conv_6/expand/BatchNorm/batchnorm/sub", "op": "Const"}, {"attr": {"dtype": {"type": "DT_FLOAT"}, "value": {"tensor": {"dtype": "DT_FLOAT", "tensorShape": {"dim": [{"size": "1"}, {"size": "1"}, {"size": "32"}, {"size": "192"}]}}}}, "name": "FeatureExtractor/MobilenetV2/expanded_conv_6/expand/Conv2D/merged_input", "op": "Const"}, {"attr": {"dtype": {"type": "DT_FLOAT"}, "value": {"tensor": {"dtype": "DT_FLOAT", "tensorShape": {"dim": [{"size": "32"}]}}}}, "name": "FeatureExtractor/MobilenetV2/expanded_conv_3/project/BatchNorm/batchnorm/sub", "op": "Const"}, {"attr": {"dtype": {"type": "DT_FLOAT"}, "value": {"tensor": {"dtype": "DT_FLOAT", "tensorShape": {"dim": [{"size": "1"}, {"size": "1"}, {"size": "144"}, {"size": "32"}]}}}}, "name": "FeatureExtractor/MobilenetV2/expanded_conv_3/project/Conv2D/merged_input", "op": "Const"}, {"attr": {"dtype": {"type": "DT_FLOAT"}, "value": {"tensor": {"dtype": "DT_FLOAT", "tensorShape": {"dim": [{"size": "144"}]}}}}, "name": "FeatureExtractor/MobilenetV2/expanded_conv_3/depthwise/BatchNorm/batchnorm/sub", "op": "Const"}, {"attr": {"dtype": {"type": "DT_FLOAT"}, "value": {"tensor": {"dtype": "DT_FLOAT", "tensorShape": {"dim": [{"size": "144"}]}}}}, "name": "FeatureExtractor/MobilenetV2/expanded_conv_3/depthwise/BatchNorm/batchnorm/mul", "op": "Const"}, {"attr": {"dtype": {"type": "DT_FLOAT"}, "value": {"tensor": {"dtype": "DT_FLOAT", "tensorShape": {"dim": [{"size": "3"}, {"size": "3"}, {"size": "144"}, {"size": "1"}]}}}}, "name": "FeatureExtractor/MobilenetV2/expanded_conv_3/depthwise/depthwise_weights", "op": "Const"}, {"attr": {"dtype": {"type": "DT_FLOAT"}, "value": {"tensor": {"dtype": "DT_FLOAT", "tensorShape": {"dim": [{"size": "144"}]}}}}, "name": "FeatureExtractor/MobilenetV2/expanded_conv_3/expand/BatchNorm/batchnorm/sub", "op": "Const"}, {"attr": {"dtype": {"type": "DT_FLOAT"}, "value": {"tensor": {"dtype": "DT_FLOAT", "tensorShape": {"dim": [{"size": "1"}, {"size": "1"}, {"size": "24"}, {"size": "144"}]}}}}, "name": "FeatureExtractor/MobilenetV2/expanded_conv_3/expand/Conv2D/merged_input", "op": "Const"}, {"attr": {"dtype": {"type": "DT_FLOAT"}, "value": {"tensor": {"dtype": "DT_FLOAT", "tensorShape": {"dim": [{"size": "24"}]}}}}, "name": "FeatureExtractor/MobilenetV2/expanded_conv_1/project/BatchNorm/batchnorm/sub", "op": "Const"}, {"attr": {"dtype": {"type": "DT_FLOAT"}, "value": {"tensor": {"dtype": "DT_FLOAT", "tensorShape": {"dim": [{"size": "1"}, {"size": "1"}, {"size": "96"}, {"size": "24"}]}}}}, "name": "FeatureExtractor/MobilenetV2/expanded_conv_1/project/Conv2D/merged_input", "op": "Const"}, {"attr": {"dtype": {"type": "DT_FLOAT"}, "value": {"tensor": {"dtype": "DT_FLOAT", "tensorShape": {"dim": [{"size": "96"}]}}}}, "name": "FeatureExtractor/MobilenetV2/expanded_conv_1/depthwise/BatchNorm/batchnorm/sub", "op": "Const"}, {"attr": {"dtype": {"type": "DT_FLOAT"}, "value": {"tensor": {"dtype": "DT_FLOAT", "tensorShape": {"dim": [{"size": "96"}]}}}}, "name": "FeatureExtractor/MobilenetV2/expanded_conv_1/depthwise/BatchNorm/batchnorm/mul", "op": "Const"}, {"attr": {"dtype": {"type": "DT_FLOAT"}, "value": {"tensor": {"dtype": "DT_FLOAT", "tensorShape": {"dim": [{"size": "3"}, {"size": "3"}, {"size": "96"}, {"size": "1"}]}}}}, "name": "FeatureExtractor/MobilenetV2/expanded_conv_1/depthwise/depthwise_weights", "op": "Const"}, {"attr": {"dtype": {"type": "DT_FLOAT"}, "value": {"tensor": {"dtype": "DT_FLOAT", "tensorShape": {"dim": [{"size": "96"}]}}}}, "name": "FeatureExtractor/MobilenetV2/expanded_conv_1/expand/BatchNorm/batchnorm/sub", "op": "Const"}, {"attr": {"dtype": {"type": "DT_FLOAT"}, "value": {"tensor": {"dtype": "DT_FLOAT", "tensorShape": {"dim": [{"size": "1"}, {"size": "1"}, {"size": "16"}, {"size": "96"}]}}}}, "name": "FeatureExtractor/MobilenetV2/expanded_conv_1/expand/Conv2D/merged_input", "op": "Const"}, {"attr": {"dtype": {"type": "DT_FLOAT"}, "value": {"tensor": {"dtype": "DT_FLOAT", "tensorShape": {"dim": [{"size": "16"}]}}}}, "name": "FeatureExtractor/MobilenetV2/expanded_conv/project/BatchNorm/batchnorm/sub", "op": "Const"}, {"attr": {"dtype": {"type": "DT_FLOAT"}, "value": {"tensor": {"dtype": "DT_FLOAT", "tensorShape": {"dim": [{"size": "1"}, {"size": "1"}, {"size": "32"}, {"size": "16"}]}}}}, "name": "FeatureExtractor/MobilenetV2/expanded_conv/project/Conv2D/merged_input", "op": "Const"}, {"attr": {"dtype": {"type": "DT_FLOAT"}, "value": {"tensor": {"dtype": "DT_FLOAT", "tensorShape": {"dim": [{"size": "32"}]}}}}, "name": "FeatureExtractor/MobilenetV2/expanded_conv/depthwise/BatchNorm/batchnorm/sub", "op": "Const"}, {"attr": {"dtype": {"type": "DT_FLOAT"}, "value": {"tensor": {"dtype": "DT_FLOAT", "tensorShape": {"dim": [{"size": "32"}]}}}}, "name": "FeatureExtractor/MobilenetV2/expanded_conv/depthwise/BatchNorm/batchnorm/mul", "op": "Const"}, {"attr": {"dtype": {"type": "DT_FLOAT"}, "value": {"tensor": {"dtype": "DT_FLOAT", "tensorShape": {"dim": [{"size": "3"}, {"size": "3"}, {"size": "32"}, {"size": "1"}]}}}}, "name": "FeatureExtractor/MobilenetV2/expanded_conv/depthwise/depthwise_weights", "op": "Const"}, {"attr": {"dtype": {"type": "DT_FLOAT"}, "value": {"tensor": {"dtype": "DT_FLOAT", "tensorShape": {"dim": [{"size": "32"}]}}}}, "name": "FeatureExtractor/MobilenetV2/Conv/BatchNorm/batchnorm/sub", "op": "Const"}, {"attr": {"dtype": {"type": "DT_FLOAT"}, "value": {"tensor": {"dtype": "DT_FLOAT", "tensorShape": {"dim": [{"size": "3"}, {"size": "3"}, {"size": "3"}, {"size": "32"}]}}}}, "name": "FeatureExtractor/MobilenetV2/Conv/Conv2D/merged_input", "op": "Const"}, {"attr": {"dtype": {"type": "DT_FLOAT"}, "value": {"tensor": {"dtype": "DT_FLOAT", "tensorShape": {}}}}, "name": "Preprocessor/sub/y", "op": "Const"}, {"attr": {"dtype": {"type": "DT_INT32"}, "value": {"tensor": {"dtype": "DT_INT32", "tensorShape": {}}}}, "name": "Preprocessor/map/TensorArrayStack/range/start", "op": "Const"}, {"attr": {"dtype": {"type": "DT_FLOAT"}, "value": {"tensor": {"dtype": "DT_FLOAT", "tensorShape": {}}}}, "name": "Preprocessor/mul/x", "op": "Const"}, {"attr": {"dtype": {"type": "DT_FLOAT"}, "value": {"tensor": {"dtype": "DT_FLOAT", "tensorShape": {"dim": [{"size": "1"}, {"size": "1"}, {"size": "144"}, {"size": "24"}]}}}}, "name": "FeatureExtractor/MobilenetV2/expanded_conv_2/project/Conv2D/merged_input", "op": "Const"}, {"attr": {"dtype": {"type": "DT_FLOAT"}, "value": {"tensor": {"dtype": "DT_FLOAT", "tensorShape": {"dim": [{"size": "144"}]}}}}, "name": "FeatureExtractor/MobilenetV2/expanded_conv_2/depthwise/BatchNorm/batchnorm/sub", "op": "Const"}, {"attr": {"dtype": {"type": "DT_FLOAT"}, "value": {"tensor": {"dtype": "DT_FLOAT", "tensorShape": {"dim": [{"size": "144"}]}}}}, "name": "FeatureExtractor/MobilenetV2/expanded_conv_2/depthwise/BatchNorm/batchnorm/mul", "op": "Const"}, {"attr": {"dtype": {"type": "DT_FLOAT"}, "value": {"tensor": {"dtype": "DT_FLOAT", "tensorShape": {"dim": [{"size": "3"}, {"size": "3"}, {"size": "144"}, {"size": "1"}]}}}}, "name": "FeatureExtractor/MobilenetV2/expanded_conv_2/depthwise/depthwise_weights", "op": "Const"}, {"attr": {"dtype": {"type": "DT_FLOAT"}, "value": {"tensor": {"dtype": "DT_FLOAT", "tensorShape": {"dim": [{"size": "144"}]}}}}, "name": "FeatureExtractor/MobilenetV2/expanded_conv_2/expand/BatchNorm/batchnorm/sub", "op": "Const"}, {"attr": {"dtype": {"type": "DT_FLOAT"}, "value": {"tensor": {"dtype": "DT_FLOAT", "tensorShape": {"dim": [{"size": "1"}, {"size": "1"}, {"size": "24"}, {"size": "144"}]}}}}, "name": "FeatureExtractor/MobilenetV2/expanded_conv_2/expand/Conv2D/merged_input", "op": "Const"}, {"attr": {"dtype": {"type": "DT_FLOAT"}, "value": {"tensor": {"dtype": "DT_FLOAT", "tensorShape": {"dim": [{"size": "24"}]}}}}, "name": "FeatureExtractor/MobilenetV2/expanded_conv_2/project/BatchNorm/batchnorm/sub", "op": "Const"}, {"attr": {"dtype": {"type": "DT_FLOAT"}, "value": {"tensor": {"dtype": "DT_FLOAT", "tensorShape": {"dim": [{"size": "1"}, {"size": "1"}, {"size": "192"}, {"size": "32"}]}}}}, "name": "FeatureExtractor/MobilenetV2/expanded_conv_4/project/Conv2D/merged_input", "op": "Const"}, {"attr": {"dtype": {"type": "DT_FLOAT"}, "value": {"tensor": {"dtype": "DT_FLOAT", "tensorShape": {"dim": [{"size": "192"}]}}}}, "name": "FeatureExtractor/MobilenetV2/expanded_conv_4/depthwise/BatchNorm/batchnorm/sub", "op": "Const"}, {"attr": {"dtype": {"type": "DT_FLOAT"}, "value": {"tensor": {"dtype": "DT_FLOAT", "tensorShape": {"dim": [{"size": "192"}]}}}}, "name": "FeatureExtractor/MobilenetV2/expanded_conv_4/depthwise/BatchNorm/batchnorm/mul", "op": "Const"}, {"attr": {"dtype": {"type": "DT_FLOAT"}, "value": {"tensor": {"dtype": "DT_FLOAT", "tensorShape": {"dim": [{"size": "3"}, {"size": "3"}, {"size": "192"}, {"size": "1"}]}}}}, "name": "FeatureExtractor/MobilenetV2/expanded_conv_4/depthwise/depthwise_weights", "op": "Const"}, {"attr": {"dtype": {"type": "DT_FLOAT"}, "value": {"tensor": {"dtype": "DT_FLOAT", "tensorShape": {"dim": [{"size": "192"}]}}}}, "name": "FeatureExtractor/MobilenetV2/expanded_conv_4/expand/BatchNorm/batchnorm/sub", "op": "Const"}, {"attr": {"dtype": {"type": "DT_FLOAT"}, "value": {"tensor": {"dtype": "DT_FLOAT", "tensorShape": {"dim": [{"size": "1"}, {"size": "1"}, {"size": "32"}, {"size": "192"}]}}}}, "name": "FeatureExtractor/MobilenetV2/expanded_conv_4/expand/Conv2D/merged_input", "op": "Const"}, {"attr": {"dtype": {"type": "DT_FLOAT"}, "value": {"tensor": {"dtype": "DT_FLOAT", "tensorShape": {"dim": [{"size": "32"}]}}}}, "name": "FeatureExtractor/MobilenetV2/expanded_conv_4/project/BatchNorm/batchnorm/sub", "op": "Const"}, {"attr": {"dtype": {"type": "DT_FLOAT"}, "value": {"tensor": {"dtype": "DT_FLOAT", "tensorShape": {"dim": [{"size": "1"}, {"size": "1"}, {"size": "192"}, {"size": "32"}]}}}}, "name": "FeatureExtractor/MobilenetV2/expanded_conv_5/project/Conv2D/merged_input", "op": "Const"}, {"attr": {"dtype": {"type": "DT_FLOAT"}, "value": {"tensor": {"dtype": "DT_FLOAT", "tensorShape": {"dim": [{"size": "192"}]}}}}, "name": "FeatureExtractor/MobilenetV2/expanded_conv_5/depthwise/BatchNorm/batchnorm/sub", "op": "Const"}, {"attr": {"dtype": {"type": "DT_FLOAT"}, "value": {"tensor": {"dtype": "DT_FLOAT", "tensorShape": {"dim": [{"size": "192"}]}}}}, "name": "FeatureExtractor/MobilenetV2/expanded_conv_5/depthwise/BatchNorm/batchnorm/mul", "op": "Const"}, {"attr": {"dtype": {"type": "DT_FLOAT"}, "value": {"tensor": {"dtype": "DT_FLOAT", "tensorShape": {"dim": [{"size": "3"}, {"size": "3"}, {"size": "192"}, {"size": "1"}]}}}}, "name": "FeatureExtractor/MobilenetV2/expanded_conv_5/depthwise/depthwise_weights", "op": "Const"}, {"attr": {"dtype": {"type": "DT_FLOAT"}, "value": {"tensor": {"dtype": "DT_FLOAT", "tensorShape": {"dim": [{"size": "192"}]}}}}, "name": "FeatureExtractor/MobilenetV2/expanded_conv_5/expand/BatchNorm/batchnorm/sub", "op": "Const"}, {"attr": {"dtype": {"type": "DT_FLOAT"}, "value": {"tensor": {"dtype": "DT_FLOAT", "tensorShape": {"dim": [{"size": "1"}, {"size": "1"}, {"size": "32"}, {"size": "192"}]}}}}, "name": "FeatureExtractor/MobilenetV2/expanded_conv_5/expand/Conv2D/merged_input", "op": "Const"}, {"attr": {"dtype": {"type": "DT_FLOAT"}, "value": {"tensor": {"dtype": "DT_FLOAT", "tensorShape": {"dim": [{"size": "32"}]}}}}, "name": "FeatureExtractor/MobilenetV2/expanded_conv_5/project/BatchNorm/batchnorm/sub", "op": "Const"}, {"attr": {"dtype": {"type": "DT_FLOAT"}, "value": {"tensor": {"dtype": "DT_FLOAT", "tensorShape": {"dim": [{"size": "1"}, {"size": "1"}, {"size": "384"}, {"size": "64"}]}}}}, "name": "FeatureExtractor/MobilenetV2/expanded_conv_7/project/Conv2D/merged_input", "op": "Const"}, {"attr": {"dtype": {"type": "DT_FLOAT"}, "value": {"tensor": {"dtype": "DT_FLOAT", "tensorShape": {"dim": [{"size": "384"}]}}}}, "name": "FeatureExtractor/MobilenetV2/expanded_conv_7/depthwise/BatchNorm/batchnorm/sub", "op": "Const"}, {"attr": {"dtype": {"type": "DT_FLOAT"}, "value": {"tensor": {"dtype": "DT_FLOAT", "tensorShape": {"dim": [{"size": "384"}]}}}}, "name": "FeatureExtractor/MobilenetV2/expanded_conv_7/depthwise/BatchNorm/batchnorm/mul", "op": "Const"}, {"attr": {"dtype": {"type": "DT_FLOAT"}, "value": {"tensor": {"dtype": "DT_FLOAT", "tensorShape": {"dim": [{"size": "3"}, {"size": "3"}, {"size": "384"}, {"size": "1"}]}}}}, "name": "FeatureExtractor/MobilenetV2/expanded_conv_7/depthwise/depthwise_weights", "op": "Const"}, {"attr": {"dtype": {"type": "DT_FLOAT"}, "value": {"tensor": {"dtype": "DT_FLOAT", "tensorShape": {"dim": [{"size": "384"}]}}}}, "name": "FeatureExtractor/MobilenetV2/expanded_conv_7/expand/BatchNorm/batchnorm/sub", "op": "Const"}, {"attr": {"dtype": {"type": "DT_FLOAT"}, "value": {"tensor": {"dtype": "DT_FLOAT", "tensorShape": {"dim": [{"size": "1"}, {"size": "1"}, {"size": "64"}, {"size": "384"}]}}}}, "name": "FeatureExtractor/MobilenetV2/expanded_conv_7/expand/Conv2D/merged_input", "op": "Const"}, {"attr": {"dtype": {"type": "DT_FLOAT"}, "value": {"tensor": {"dtype": "DT_FLOAT", "tensorShape": {"dim": [{"size": "64"}]}}}}, "name": "FeatureExtractor/MobilenetV2/expanded_conv_7/project/BatchNorm/batchnorm/sub", "op": "Const"}, {"attr": {"dtype": {"type": "DT_FLOAT"}, "value": {"tensor": {"dtype": "DT_FLOAT", "tensorShape": {"dim": [{"size": "1"}, {"size": "1"}, {"size": "384"}, {"size": "64"}]}}}}, "name": "FeatureExtractor/MobilenetV2/expanded_conv_8/project/Conv2D/merged_input", "op": "Const"}, {"attr": {"dtype": {"type": "DT_FLOAT"}, "value": {"tensor": {"dtype": "DT_FLOAT", "tensorShape": {"dim": [{"size": "384"}]}}}}, "name": "FeatureExtractor/MobilenetV2/expanded_conv_8/depthwise/BatchNorm/batchnorm/sub", "op": "Const"}, {"attr": {"dtype": {"type": "DT_FLOAT"}, "value": {"tensor": {"dtype": "DT_FLOAT", "tensorShape": {"dim": [{"size": "384"}]}}}}, "name": "FeatureExtractor/MobilenetV2/expanded_conv_8/depthwise/BatchNorm/batchnorm/mul", "op": "Const"}, {"attr": {"dtype": {"type": "DT_FLOAT"}, "value": {"tensor": {"dtype": "DT_FLOAT", "tensorShape": {"dim": [{"size": "3"}, {"size": "3"}, {"size": "384"}, {"size": "1"}]}}}}, "name": "FeatureExtractor/MobilenetV2/expanded_conv_8/depthwise/depthwise_weights", "op": "Const"}, {"attr": {"dtype": {"type": "DT_FLOAT"}, "value": {"tensor": {"dtype": "DT_FLOAT", "tensorShape": {"dim": [{"size": "384"}]}}}}, "name": "FeatureExtractor/MobilenetV2/expanded_conv_8/expand/BatchNorm/batchnorm/sub", "op": "Const"}, {"attr": {"dtype": {"type": "DT_FLOAT"}, "value": {"tensor": {"dtype": "DT_FLOAT", "tensorShape": {"dim": [{"size": "1"}, {"size": "1"}, {"size": "64"}, {"size": "384"}]}}}}, "name": "FeatureExtractor/MobilenetV2/expanded_conv_8/expand/Conv2D/merged_input", "op": "Const"}, {"attr": {"dtype": {"type": "DT_FLOAT"}, "value": {"tensor": {"dtype": "DT_FLOAT", "tensorShape": {"dim": [{"size": "64"}]}}}}, "name": "FeatureExtractor/MobilenetV2/expanded_conv_8/project/BatchNorm/batchnorm/sub", "op": "Const"}, {"attr": {"dtype": {"type": "DT_FLOAT"}, "value": {"tensor": {"dtype": "DT_FLOAT", "tensorShape": {"dim": [{"size": "1"}, {"size": "1"}, {"size": "384"}, {"size": "64"}]}}}}, "name": "FeatureExtractor/MobilenetV2/expanded_conv_9/project/Conv2D/merged_input", "op": "Const"}, {"attr": {"dtype": {"type": "DT_FLOAT"}, "value": {"tensor": {"dtype": "DT_FLOAT", "tensorShape": {"dim": [{"size": "384"}]}}}}, "name": "FeatureExtractor/MobilenetV2/expanded_conv_9/depthwise/BatchNorm/batchnorm/sub", "op": "Const"}, {"attr": {"dtype": {"type": "DT_FLOAT"}, "value": {"tensor": {"dtype": "DT_FLOAT", "tensorShape": {"dim": [{"size": "384"}]}}}}, "name": "FeatureExtractor/MobilenetV2/expanded_conv_9/depthwise/BatchNorm/batchnorm/mul", "op": "Const"}, {"attr": {"dtype": {"type": "DT_FLOAT"}, "value": {"tensor": {"dtype": "DT_FLOAT", "tensorShape": {"dim": [{"size": "3"}, {"size": "3"}, {"size": "384"}, {"size": "1"}]}}}}, "name": "FeatureExtractor/MobilenetV2/expanded_conv_9/depthwise/depthwise_weights", "op": "Const"}, {"attr": {"dtype": {"type": "DT_FLOAT"}, "value": {"tensor": {"dtype": "DT_FLOAT", "tensorShape": {"dim": [{"size": "384"}]}}}}, "name": "FeatureExtractor/MobilenetV2/expanded_conv_9/expand/BatchNorm/batchnorm/sub", "op": "Const"}, {"attr": {"dtype": {"type": "DT_FLOAT"}, "value": {"tensor": {"dtype": "DT_FLOAT", "tensorShape": {"dim": [{"size": "1"}, {"size": "1"}, {"size": "64"}, {"size": "384"}]}}}}, "name": "FeatureExtractor/MobilenetV2/expanded_conv_9/expand/Conv2D/merged_input", "op": "Const"}, {"attr": {"dtype": {"type": "DT_FLOAT"}, "value": {"tensor": {"dtype": "DT_FLOAT", "tensorShape": {"dim": [{"size": "64"}]}}}}, "name": "FeatureExtractor/MobilenetV2/expanded_conv_9/project/BatchNorm/batchnorm/sub", "op": "Const"}, {"attr": {"dtype": {"type": "DT_FLOAT"}, "value": {"tensor": {"dtype": "DT_FLOAT", "tensorShape": {"dim": [{"size": "1"}, {"size": "1"}, {"size": "576"}, {"size": "96"}]}}}}, "name": "FeatureExtractor/MobilenetV2/expanded_conv_11/project/Conv2D/merged_input", "op": "Const"}, {"attr": {"dtype": {"type": "DT_FLOAT"}, "value": {"tensor": {"dtype": "DT_FLOAT", "tensorShape": {"dim": [{"size": "576"}]}}}}, "name": "FeatureExtractor/MobilenetV2/expanded_conv_11/depthwise/BatchNorm/batchnorm/sub", "op": "Const"}, {"attr": {"dtype": {"type": "DT_FLOAT"}, "value": {"tensor": {"dtype": "DT_FLOAT", "tensorShape": {"dim": [{"size": "576"}]}}}}, "name": "FeatureExtractor/MobilenetV2/expanded_conv_11/depthwise/BatchNorm/batchnorm/mul", "op": "Const"}, {"attr": {"dtype": {"type": "DT_FLOAT"}, "value": {"tensor": {"dtype": "DT_FLOAT", "tensorShape": {"dim": [{"size": "3"}, {"size": "3"}, {"size": "576"}, {"size": "1"}]}}}}, "name": "FeatureExtractor/MobilenetV2/expanded_conv_11/depthwise/depthwise_weights", "op": "Const"}, {"attr": {"dtype": {"type": "DT_FLOAT"}, "value": {"tensor": {"dtype": "DT_FLOAT", "tensorShape": {"dim": [{"size": "576"}]}}}}, "name": "FeatureExtractor/MobilenetV2/expanded_conv_11/expand/BatchNorm/batchnorm/sub", "op": "Const"}, {"attr": {"dtype": {"type": "DT_FLOAT"}, "value": {"tensor": {"dtype": "DT_FLOAT", "tensorShape": {"dim": [{"size": "1"}, {"size": "1"}, {"size": "96"}, {"size": "576"}]}}}}, "name": "FeatureExtractor/MobilenetV2/expanded_conv_11/expand/Conv2D/merged_input", "op": "Const"}, {"attr": {"dtype": {"type": "DT_FLOAT"}, "value": {"tensor": {"dtype": "DT_FLOAT", "tensorShape": {"dim": [{"size": "96"}]}}}}, "name": "FeatureExtractor/MobilenetV2/expanded_conv_11/project/BatchNorm/batchnorm/sub", "op": "Const"}, {"attr": {"dtype": {"type": "DT_FLOAT"}, "value": {"tensor": {"dtype": "DT_FLOAT", "tensorShape": {"dim": [{"size": "1"}, {"size": "1"}, {"size": "576"}, {"size": "96"}]}}}}, "name": "FeatureExtractor/MobilenetV2/expanded_conv_12/project/Conv2D/merged_input", "op": "Const"}, {"attr": {"dtype": {"type": "DT_FLOAT"}, "value": {"tensor": {"dtype": "DT_FLOAT", "tensorShape": {"dim": [{"size": "576"}]}}}}, "name": "FeatureExtractor/MobilenetV2/expanded_conv_12/depthwise/BatchNorm/batchnorm/sub", "op": "Const"}, {"attr": {"dtype": {"type": "DT_FLOAT"}, "value": {"tensor": {"dtype": "DT_FLOAT", "tensorShape": {"dim": [{"size": "576"}]}}}}, "name": "FeatureExtractor/MobilenetV2/expanded_conv_12/depthwise/BatchNorm/batchnorm/mul", "op": "Const"}, {"attr": {"dtype": {"type": "DT_FLOAT"}, "value": {"tensor": {"dtype": "DT_FLOAT", "tensorShape": {"dim": [{"size": "3"}, {"size": "3"}, {"size": "576"}, {"size": "1"}]}}}}, "name": "FeatureExtractor/MobilenetV2/expanded_conv_12/depthwise/depthwise_weights", "op": "Const"}, {"attr": {"dtype": {"type": "DT_FLOAT"}, "value": {"tensor": {"dtype": "DT_FLOAT", "tensorShape": {"dim": [{"size": "576"}]}}}}, "name": "FeatureExtractor/MobilenetV2/expanded_conv_12/expand/BatchNorm/batchnorm/sub", "op": "Const"}, {"attr": {"dtype": {"type": "DT_FLOAT"}, "value": {"tensor": {"dtype": "DT_FLOAT", "tensorShape": {"dim": [{"size": "1"}, {"size": "1"}, {"size": "96"}, {"size": "576"}]}}}}, "name": "FeatureExtractor/MobilenetV2/expanded_conv_12/expand/Conv2D/merged_input", "op": "Const"}, {"attr": {"dtype": {"type": "DT_FLOAT"}, "value": {"tensor": {"dtype": "DT_FLOAT", "tensorShape": {"dim": [{"size": "96"}]}}}}, "name": "FeatureExtractor/MobilenetV2/expanded_conv_12/project/BatchNorm/batchnorm/sub", "op": "Const"}, {"attr": {"dtype": {"type": "DT_FLOAT"}, "value": {"tensor": {"dtype": "DT_FLOAT", "tensorShape": {"dim": [{"size": "1"}, {"size": "1"}, {"size": "960"}, {"size": "160"}]}}}}, "name": "FeatureExtractor/MobilenetV2/expanded_conv_14/project/Conv2D/merged_input", "op": "Const"}, {"attr": {"dtype": {"type": "DT_FLOAT"}, "value": {"tensor": {"dtype": "DT_FLOAT", "tensorShape": {"dim": [{"size": "960"}]}}}}, "name": "FeatureExtractor/MobilenetV2/expanded_conv_14/depthwise/BatchNorm/batchnorm/sub", "op": "Const"}, {"attr": {"dtype": {"type": "DT_FLOAT"}, "value": {"tensor": {"dtype": "DT_FLOAT", "tensorShape": {"dim": [{"size": "960"}]}}}}, "name": "FeatureExtractor/MobilenetV2/expanded_conv_14/depthwise/BatchNorm/batchnorm/mul", "op": "Const"}, {"attr": {"dtype": {"type": "DT_FLOAT"}, "value": {"tensor": {"dtype": "DT_FLOAT", "tensorShape": {"dim": [{"size": "3"}, {"size": "3"}, {"size": "960"}, {"size": "1"}]}}}}, "name": "FeatureExtractor/MobilenetV2/expanded_conv_14/depthwise/depthwise_weights", "op": "Const"}, {"attr": {"dtype": {"type": "DT_FLOAT"}, "value": {"tensor": {"dtype": "DT_FLOAT", "tensorShape": {"dim": [{"size": "960"}]}}}}, "name": "FeatureExtractor/MobilenetV2/expanded_conv_14/expand/BatchNorm/batchnorm/sub", "op": "Const"}, {"attr": {"dtype": {"type": "DT_FLOAT"}, "value": {"tensor": {"dtype": "DT_FLOAT", "tensorShape": {"dim": [{"size": "1"}, {"size": "1"}, {"size": "160"}, {"size": "960"}]}}}}, "name": "FeatureExtractor/MobilenetV2/expanded_conv_14/expand/Conv2D/merged_input", "op": "Const"}, {"attr": {"dtype": {"type": "DT_FLOAT"}, "value": {"tensor": {"dtype": "DT_FLOAT", "tensorShape": {"dim": [{"size": "160"}]}}}}, "name": "FeatureExtractor/MobilenetV2/expanded_conv_14/project/BatchNorm/batchnorm/sub", "op": "Const"}, {"attr": {"dtype": {"type": "DT_FLOAT"}, "value": {"tensor": {"dtype": "DT_FLOAT", "tensorShape": {"dim": [{"size": "1"}, {"size": "1"}, {"size": "960"}, {"size": "160"}]}}}}, "name": "FeatureExtractor/MobilenetV2/expanded_conv_15/project/Conv2D/merged_input", "op": "Const"}, {"attr": {"dtype": {"type": "DT_FLOAT"}, "value": {"tensor": {"dtype": "DT_FLOAT", "tensorShape": {"dim": [{"size": "960"}]}}}}, "name": "FeatureExtractor/MobilenetV2/expanded_conv_15/depthwise/BatchNorm/batchnorm/sub", "op": "Const"}, {"attr": {"dtype": {"type": "DT_FLOAT"}, "value": {"tensor": {"dtype": "DT_FLOAT", "tensorShape": {"dim": [{"size": "960"}]}}}}, "name": "FeatureExtractor/MobilenetV2/expanded_conv_15/depthwise/BatchNorm/batchnorm/mul", "op": "Const"}, {"attr": {"dtype": {"type": "DT_FLOAT"}, "value": {"tensor": {"dtype": "DT_FLOAT", "tensorShape": {"dim": [{"size": "3"}, {"size": "3"}, {"size": "960"}, {"size": "1"}]}}}}, "name": "FeatureExtractor/MobilenetV2/expanded_conv_15/depthwise/depthwise_weights", "op": "Const"}, {"attr": {"dtype": {"type": "DT_FLOAT"}, "value": {"tensor": {"dtype": "DT_FLOAT", "tensorShape": {"dim": [{"size": "960"}]}}}}, "name": "FeatureExtractor/MobilenetV2/expanded_conv_15/expand/BatchNorm/batchnorm/sub", "op": "Const"}, {"attr": {"dtype": {"type": "DT_FLOAT"}, "value": {"tensor": {"dtype": "DT_FLOAT", "tensorShape": {"dim": [{"size": "1"}, {"size": "1"}, {"size": "160"}, {"size": "960"}]}}}}, "name": "FeatureExtractor/MobilenetV2/expanded_conv_15/expand/Conv2D/merged_input", "op": "Const"}, {"attr": {"dtype": {"type": "DT_FLOAT"}, "value": {"tensor": {"dtype": "DT_FLOAT", "tensorShape": {"dim": [{"size": "160"}]}}}}, "name": "FeatureExtractor/MobilenetV2/expanded_conv_15/project/BatchNorm/batchnorm/sub", "op": "Const"}, {"attr": {"dtype": {"type": "DT_FLOAT"}, "value": {"tensor": {"dtype": "DT_FLOAT", "tensorShape": {"dim": [{"size": "546"}]}}}}, "name": "BoxPredictor_5/ClassPredictor/biases", "op": "Const"}, {"attr": {"dtype": {"type": "DT_FLOAT"}, "value": {"tensor": {"dtype": "DT_FLOAT", "tensorShape": {"dim": [{"size": "1"}, {"size": "1"}, {"size": "128"}, {"size": "546"}]}}}}, "name": "BoxPredictor_5/ClassPredictor/weights", "op": "Const"}, {"attr": {"dtype": {"type": "DT_FLOAT"}, "value": {"tensor": {"dtype": "DT_FLOAT", "tensorShape": {"dim": [{"size": "128"}]}}}}, "name": "BoxPredictor_5/ClassPredictor_depthwise/BatchNorm/FusedBatchNorm/Offset", "op": "Const"}, {"attr": {"dtype": {"type": "DT_FLOAT"}, "value": {"tensor": {"dtype": "DT_FLOAT", "tensorShape": {"dim": [{"size": "128"}]}}}}, "name": "BoxPredictor_5/ClassPredictor_depthwise/BatchNorm/FusedBatchNorm/Scaled", "op": "Const"}, {"attr": {"dtype": {"type": "DT_FLOAT"}, "value": {"tensor": {"dtype": "DT_FLOAT", "tensorShape": {"dim": [{"size": "3"}, {"size": "3"}, {"size": "128"}, {"size": "1"}]}}}}, "name": "BoxPredictor_5/ClassPredictor_depthwise/depthwise_weights", "op": "Const"}, {"attr": {"dtype": {"type": "DT_INT32"}, "value": {"tensor": {"dtype": "DT_INT32", "tensorShape": {}}}}, "name": "BoxPredictor_4/stack/1", "op": "Const"}, {"attr": {"dtype": {"type": "DT_FLOAT"}, "value": {"tensor": {"dtype": "DT_FLOAT", "tensorShape": {"dim": [{"size": "546"}]}}}}, "name": "BoxPredictor_4/ClassPredictor/biases", "op": "Const"}, {"attr": {"dtype": {"type": "DT_FLOAT"}, "value": {"tensor": {"dtype": "DT_FLOAT", "tensorShape": {"dim": [{"size": "1"}, {"size": "1"}, {"size": "256"}, {"size": "546"}]}}}}, "name": "BoxPredictor_4/ClassPredictor/weights", "op": "Const"}, {"attr": {"dtype": {"type": "DT_FLOAT"}, "value": {"tensor": {"dtype": "DT_FLOAT", "tensorShape": {"dim": [{"size": "256"}]}}}}, "name": "BoxPredictor_4/ClassPredictor_depthwise/BatchNorm/FusedBatchNorm/Offset", "op": "Const"}, {"attr": {"dtype": {"type": "DT_FLOAT"}, "value": {"tensor": {"dtype": "DT_FLOAT", "tensorShape": {"dim": [{"size": "256"}]}}}}, "name": "BoxPredictor_4/ClassPredictor_depthwise/BatchNorm/FusedBatchNorm/Scaled", "op": "Const"}, {"attr": {"dtype": {"type": "DT_FLOAT"}, "value": {"tensor": {"dtype": "DT_FLOAT", "tensorShape": {"dim": [{"size": "3"}, {"size": "3"}, {"size": "256"}, {"size": "1"}]}}}}, "name": "BoxPredictor_4/ClassPredictor_depthwise/depthwise_weights", "op": "Const"}, {"attr": {"dtype": {"type": "DT_INT32"}, "value": {"tensor": {"dtype": "DT_INT32", "tensorShape": {}}}}, "name": "BoxPredictor_3/stack/1", "op": "Const"}, {"attr": {"dtype": {"type": "DT_FLOAT"}, "value": {"tensor": {"dtype": "DT_FLOAT", "tensorShape": {"dim": [{"size": "546"}]}}}}, "name": "BoxPredictor_3/ClassPredictor/biases", "op": "Const"}, {"attr": {"dtype": {"type": "DT_FLOAT"}, "value": {"tensor": {"dtype": "DT_FLOAT", "tensorShape": {"dim": [{"size": "1"}, {"size": "1"}, {"size": "256"}, {"size": "546"}]}}}}, "name": "BoxPredictor_3/ClassPredictor/weights", "op": "Const"}, {"attr": {"dtype": {"type": "DT_FLOAT"}, "value": {"tensor": {"dtype": "DT_FLOAT", "tensorShape": {"dim": [{"size": "256"}]}}}}, "name": "BoxPredictor_3/ClassPredictor_depthwise/BatchNorm/FusedBatchNorm/Offset", "op": "Const"}, {"attr": {"dtype": {"type": "DT_FLOAT"}, "value": {"tensor": {"dtype": "DT_FLOAT", "tensorShape": {"dim": [{"size": "256"}]}}}}, "name": "BoxPredictor_3/ClassPredictor_depthwise/BatchNorm/FusedBatchNorm/Scaled", "op": "Const"}, {"attr": {"dtype": {"type": "DT_FLOAT"}, "value": {"tensor": {"dtype": "DT_FLOAT", "tensorShape": {"dim": [{"size": "3"}, {"size": "3"}, {"size": "256"}, {"size": "1"}]}}}}, "name": "BoxPredictor_3/ClassPredictor_depthwise/depthwise_weights", "op": "Const"}, {"attr": {"dtype": {"type": "DT_INT32"}, "value": {"tensor": {"dtype": "DT_INT32", "tensorShape": {}}}}, "name": "BoxPredictor_2/stack/1", "op": "Const"}, {"attr": {"dtype": {"type": "DT_FLOAT"}, "value": {"tensor": {"dtype": "DT_FLOAT", "tensorShape": {"dim": [{"size": "546"}]}}}}, "name": "BoxPredictor_2/ClassPredictor/biases", "op": "Const"}, {"attr": {"dtype": {"type": "DT_FLOAT"}, "value": {"tensor": {"dtype": "DT_FLOAT", "tensorShape": {"dim": [{"size": "1"}, {"size": "1"}, {"size": "512"}, {"size": "546"}]}}}}, "name": "BoxPredictor_2/ClassPredictor/weights", "op": "Const"}, {"attr": {"dtype": {"type": "DT_FLOAT"}, "value": {"tensor": {"dtype": "DT_FLOAT", "tensorShape": {"dim": [{"size": "512"}]}}}}, "name": "BoxPredictor_2/ClassPredictor_depthwise/BatchNorm/FusedBatchNorm/Offset", "op": "Const"}, {"attr": {"dtype": {"type": "DT_FLOAT"}, "value": {"tensor": {"dtype": "DT_FLOAT", "tensorShape": {"dim": [{"size": "512"}]}}}}, "name": "BoxPredictor_2/ClassPredictor_depthwise/BatchNorm/FusedBatchNorm/Scaled", "op": "Const"}, {"attr": {"dtype": {"type": "DT_FLOAT"}, "value": {"tensor": {"dtype": "DT_FLOAT", "tensorShape": {"dim": [{"size": "3"}, {"size": "3"}, {"size": "512"}, {"size": "1"}]}}}}, "name": "BoxPredictor_2/ClassPredictor_depthwise/depthwise_weights", "op": "Const"}, {"attr": {"dtype": {"type": "DT_INT32"}, "value": {"tensor": {"dtype": "DT_INT32", "tensorShape": {}}}}, "name": "BoxPredictor_1/stack/1", "op": "Const"}, {"attr": {"dtype": {"type": "DT_FLOAT"}, "value": {"tensor": {"dtype": "DT_FLOAT", "tensorShape": {"dim": [{"size": "546"}]}}}}, "name": "BoxPredictor_1/ClassPredictor/biases", "op": "Const"}, {"attr": {"dtype": {"type": "DT_FLOAT"}, "value": {"tensor": {"dtype": "DT_FLOAT", "tensorShape": {"dim": [{"size": "1"}, {"size": "1"}, {"size": "1280"}, {"size": "546"}]}}}}, "name": "BoxPredictor_1/ClassPredictor/weights", "op": "Const"}, {"attr": {"dtype": {"type": "DT_FLOAT"}, "value": {"tensor": {"dtype": "DT_FLOAT", "tensorShape": {"dim": [{"size": "1280"}]}}}}, "name": "BoxPredictor_1/ClassPredictor_depthwise/BatchNorm/FusedBatchNorm/Offset", "op": "Const"}, {"attr": {"dtype": {"type": "DT_FLOAT"}, "value": {"tensor": {"dtype": "DT_FLOAT", "tensorShape": {"dim": [{"size": "1280"}]}}}}, "name": "BoxPredictor_1/ClassPredictor_depthwise/BatchNorm/FusedBatchNorm/Scaled", "op": "Const"}, {"attr": {"dtype": {"type": "DT_FLOAT"}, "value": {"tensor": {"dtype": "DT_FLOAT", "tensorShape": {"dim": [{"size": "3"}, {"size": "3"}, {"size": "1280"}, {"size": "1"}]}}}}, "name": "BoxPredictor_1/ClassPredictor_depthwise/depthwise_weights", "op": "Const"}, {"attr": {"dtype": {"type": "DT_INT32"}, "value": {"tensor": {"dtype": "DT_INT32", "tensorShape": {}}}}, "name": "BoxPredictor_0/stack/1", "op": "Const"}, {"attr": {"dtype": {"type": "DT_FLOAT"}, "value": {"tensor": {"dtype": "DT_FLOAT", "tensorShape": {"dim": [{"size": "273"}]}}}}, "name": "BoxPredictor_0/ClassPredictor/biases", "op": "Const"}, {"attr": {"dtype": {"type": "DT_FLOAT"}, "value": {"tensor": {"dtype": "DT_FLOAT", "tensorShape": {"dim": [{"size": "1"}, {"size": "1"}, {"size": "576"}, {"size": "273"}]}}}}, "name": "BoxPredictor_0/ClassPredictor/weights", "op": "Const"}, {"attr": {"dtype": {"type": "DT_FLOAT"}, "value": {"tensor": {"dtype": "DT_FLOAT", "tensorShape": {"dim": [{"size": "576"}]}}}}, "name": "BoxPredictor_0/ClassPredictor_depthwise/BatchNorm/FusedBatchNorm/Offset", "op": "Const"}, {"attr": {"dtype": {"type": "DT_FLOAT"}, "value": {"tensor": {"dtype": "DT_FLOAT", "tensorShape": {"dim": [{"size": "576"}]}}}}, "name": "BoxPredictor_0/ClassPredictor_depthwise/BatchNorm/FusedBatchNorm/Scaled", "op": "Const"}, {"attr": {"dtype": {"type": "DT_FLOAT"}, "value": {"tensor": {"dtype": "DT_FLOAT", "tensorShape": {"dim": [{"size": "3"}, {"size": "3"}, {"size": "576"}, {"size": "1"}]}}}}, "name": "BoxPredictor_0/ClassPredictor_depthwise/depthwise_weights", "op": "Const"}, {"attr": {"dtype": {"type": "DT_INT32"}, "value": {"tensor": {"dtype": "DT_INT32", "tensorShape": {}}}}, "name": "Postprocessor/ExpandDims_1/dim", "op": "Const"}, {"attr": {"dtype": {"type": "DT_INT32"}, "value": {"tensor": {"dtype": "DT_INT32", "tensorShape": {}}}}, "name": "BoxPredictor_0/stack/3", "op": "Const"}, {"attr": {"dtype": {"type": "DT_INT32"}, "value": {"tensor": {"dtype": "DT_INT32", "tensorShape": {}}}}, "name": "MultipleGridAnchorGenerator/assert_equal/x", "op": "Const"}, {"attr": {"dtype": {"type": "DT_FLOAT"}, "value": {"tensor": {"dtype": "DT_FLOAT", "tensorShape": {"dim": [{"size": "24"}]}}}}, "name": "BoxPredictor_5/BoxEncodingPredictor/biases", "op": "Const"}, {"attr": {"dtype": {"type": "DT_FLOAT"}, "value": {"tensor": {"dtype": "DT_FLOAT", "tensorShape": {"dim": [{"size": "1"}, {"size": "1"}, {"size": "128"}, {"size": "24"}]}}}}, "name": "BoxPredictor_5/BoxEncodingPredictor/weights", "op": "Const"}, {"attr": {"dtype": {"type": "DT_FLOAT"}, "value": {"tensor": {"dtype": "DT_FLOAT", "tensorShape": {"dim": [{"size": "128"}]}}}}, "name": "BoxPredictor_5/BoxEncodingPredictor_depthwise/BatchNorm/FusedBatchNorm/Offset", "op": "Const"}, {"attr": {"dtype": {"type": "DT_FLOAT"}, "value": {"tensor": {"dtype": "DT_FLOAT", "tensorShape": {"dim": [{"size": "128"}]}}}}, "name": "BoxPredictor_5/BoxEncodingPredictor_depthwise/BatchNorm/FusedBatchNorm/Scaled", "op": "Const"}, {"attr": {"dtype": {"type": "DT_FLOAT"}, "value": {"tensor": {"dtype": "DT_FLOAT", "tensorShape": {"dim": [{"size": "3"}, {"size": "3"}, {"size": "128"}, {"size": "1"}]}}}}, "name": "BoxPredictor_5/BoxEncodingPredictor_depthwise/depthwise_weights", "op": "Const"}, {"attr": {"dtype": {"type": "DT_FLOAT"}, "value": {"tensor": {"dtype": "DT_FLOAT", "tensorShape": {"dim": [{"size": "24"}]}}}}, "name": "BoxPredictor_4/BoxEncodingPredictor/biases", "op": "Const"}, {"attr": {"dtype": {"type": "DT_FLOAT"}, "value": {"tensor": {"dtype": "DT_FLOAT", "tensorShape": {"dim": [{"size": "1"}, {"size": "1"}, {"size": "256"}, {"size": "24"}]}}}}, "name": "BoxPredictor_4/BoxEncodingPredictor/weights", "op": "Const"}, {"attr": {"dtype": {"type": "DT_FLOAT"}, "value": {"tensor": {"dtype": "DT_FLOAT", "tensorShape": {"dim": [{"size": "256"}]}}}}, "name": "BoxPredictor_4/BoxEncodingPredictor_depthwise/BatchNorm/FusedBatchNorm/Offset", "op": "Const"}, {"attr": {"dtype": {"type": "DT_FLOAT"}, "value": {"tensor": {"dtype": "DT_FLOAT", "tensorShape": {"dim": [{"size": "256"}]}}}}, "name": "BoxPredictor_4/BoxEncodingPredictor_depthwise/BatchNorm/FusedBatchNorm/Scaled", "op": "Const"}, {"attr": {"dtype": {"type": "DT_FLOAT"}, "value": {"tensor": {"dtype": "DT_FLOAT", "tensorShape": {"dim": [{"size": "3"}, {"size": "3"}, {"size": "256"}, {"size": "1"}]}}}}, "name": "BoxPredictor_4/BoxEncodingPredictor_depthwise/depthwise_weights", "op": "Const"}, {"attr": {"dtype": {"type": "DT_FLOAT"}, "value": {"tensor": {"dtype": "DT_FLOAT", "tensorShape": {"dim": [{"size": "24"}]}}}}, "name": "BoxPredictor_3/BoxEncodingPredictor/biases", "op": "Const"}, {"attr": {"dtype": {"type": "DT_FLOAT"}, "value": {"tensor": {"dtype": "DT_FLOAT", "tensorShape": {"dim": [{"size": "1"}, {"size": "1"}, {"size": "256"}, {"size": "24"}]}}}}, "name": "BoxPredictor_3/BoxEncodingPredictor/weights", "op": "Const"}, {"attr": {"dtype": {"type": "DT_FLOAT"}, "value": {"tensor": {"dtype": "DT_FLOAT", "tensorShape": {"dim": [{"size": "256"}]}}}}, "name": "BoxPredictor_3/BoxEncodingPredictor_depthwise/BatchNorm/FusedBatchNorm/Offset", "op": "Const"}, {"attr": {"dtype": {"type": "DT_FLOAT"}, "value": {"tensor": {"dtype": "DT_FLOAT", "tensorShape": {"dim": [{"size": "256"}]}}}}, "name": "BoxPredictor_3/BoxEncodingPredictor_depthwise/BatchNorm/FusedBatchNorm/Scaled", "op": "Const"}, {"attr": {"dtype": {"type": "DT_FLOAT"}, "value": {"tensor": {"dtype": "DT_FLOAT", "tensorShape": {"dim": [{"size": "3"}, {"size": "3"}, {"size": "256"}, {"size": "1"}]}}}}, "name": "BoxPredictor_3/BoxEncodingPredictor_depthwise/depthwise_weights", "op": "Const"}, {"attr": {"dtype": {"type": "DT_FLOAT"}, "value": {"tensor": {"dtype": "DT_FLOAT", "tensorShape": {"dim": [{"size": "24"}]}}}}, "name": "BoxPredictor_2/BoxEncodingPredictor/biases", "op": "Const"}, {"attr": {"dtype": {"type": "DT_FLOAT"}, "value": {"tensor": {"dtype": "DT_FLOAT", "tensorShape": {"dim": [{"size": "1"}, {"size": "1"}, {"size": "512"}, {"size": "24"}]}}}}, "name": "BoxPredictor_2/BoxEncodingPredictor/weights", "op": "Const"}, {"attr": {"dtype": {"type": "DT_FLOAT"}, "value": {"tensor": {"dtype": "DT_FLOAT", "tensorShape": {"dim": [{"size": "512"}]}}}}, "name": "BoxPredictor_2/BoxEncodingPredictor_depthwise/BatchNorm/FusedBatchNorm/Offset", "op": "Const"}, {"attr": {"dtype": {"type": "DT_FLOAT"}, "value": {"tensor": {"dtype": "DT_FLOAT", "tensorShape": {"dim": [{"size": "512"}]}}}}, "name": "BoxPredictor_2/BoxEncodingPredictor_depthwise/BatchNorm/FusedBatchNorm/Scaled", "op": "Const"}, {"attr": {"dtype": {"type": "DT_FLOAT"}, "value": {"tensor": {"dtype": "DT_FLOAT", "tensorShape": {"dim": [{"size": "3"}, {"size": "3"}, {"size": "512"}, {"size": "1"}]}}}}, "name": "BoxPredictor_2/BoxEncodingPredictor_depthwise/depthwise_weights", "op": "Const"}, {"attr": {"dtype": {"type": "DT_FLOAT"}, "value": {"tensor": {"dtype": "DT_FLOAT", "tensorShape": {"dim": [{"size": "24"}]}}}}, "name": "BoxPredictor_1/BoxEncodingPredictor/biases", "op": "Const"}, {"attr": {"dtype": {"type": "DT_FLOAT"}, "value": {"tensor": {"dtype": "DT_FLOAT", "tensorShape": {"dim": [{"size": "1"}, {"size": "1"}, {"size": "1280"}, {"size": "24"}]}}}}, "name": "BoxPredictor_1/BoxEncodingPredictor/weights", "op": "Const"}, {"attr": {"dtype": {"type": "DT_FLOAT"}, "value": {"tensor": {"dtype": "DT_FLOAT", "tensorShape": {"dim": [{"size": "1280"}]}}}}, "name": "BoxPredictor_1/BoxEncodingPredictor_depthwise/BatchNorm/FusedBatchNorm/Offset", "op": "Const"}, {"attr": {"dtype": {"type": "DT_FLOAT"}, "value": {"tensor": {"dtype": "DT_FLOAT", "tensorShape": {"dim": [{"size": "1280"}]}}}}, "name": "BoxPredictor_1/BoxEncodingPredictor_depthwise/BatchNorm/FusedBatchNorm/Scaled", "op": "Const"}, {"attr": {"dtype": {"type": "DT_FLOAT"}, "value": {"tensor": {"dtype": "DT_FLOAT", "tensorShape": {"dim": [{"size": "3"}, {"size": "3"}, {"size": "1280"}, {"size": "1"}]}}}}, "name": "BoxPredictor_1/BoxEncodingPredictor_depthwise/depthwise_weights", "op": "Const"}, {"attr": {"dtype": {"type": "DT_FLOAT"}, "value": {"tensor": {"dtype": "DT_FLOAT", "tensorShape": {"dim": [{"size": "12"}]}}}}, "name": "BoxPredictor_0/BoxEncodingPredictor/biases", "op": "Const"}, {"attr": {"dtype": {"type": "DT_FLOAT"}, "value": {"tensor": {"dtype": "DT_FLOAT", "tensorShape": {"dim": [{"size": "1"}, {"size": "1"}, {"size": "576"}, {"size": "12"}]}}}}, "name": "BoxPredictor_0/BoxEncodingPredictor/weights", "op": "Const"}, {"attr": {"dtype": {"type": "DT_FLOAT"}, "value": {"tensor": {"dtype": "DT_FLOAT", "tensorShape": {"dim": [{"size": "576"}]}}}}, "name": "BoxPredictor_0/BoxEncodingPredictor_depthwise/BatchNorm/FusedBatchNorm/Offset", "op": "Const"}, {"attr": {"dtype": {"type": "DT_FLOAT"}, "value": {"tensor": {"dtype": "DT_FLOAT", "tensorShape": {"dim": [{"size": "576"}]}}}}, "name": "BoxPredictor_0/BoxEncodingPredictor_depthwise/BatchNorm/FusedBatchNorm/Scaled", "op": "Const"}, {"attr": {"dtype": {"type": "DT_FLOAT"}, "value": {"tensor": {"dtype": "DT_FLOAT", "tensorShape": {"dim": [{"size": "3"}, {"size": "3"}, {"size": "576"}, {"size": "1"}]}}}}, "name": "BoxPredictor_0/BoxEncodingPredictor_depthwise/depthwise_weights", "op": "Const"}, {"attr": {"dtype": {"type": "DT_FLOAT"}, "value": {"tensor": {"dtype": "DT_FLOAT", "tensorShape": {}}}}, "name": "ConstantFolding/Postprocessor/Decode/div_2_recip", "op": "Const"}, {"attr": {"dtype": {"type": "DT_INT32"}, "value": {"tensor": {"dtype": "DT_INT32", "tensorShape": {"dim": [{"size": "2"}]}}}}, "name": "Postprocessor/Reshape_1/shape", "op": "Const"}, {"attr": {"dtype": {"type": "DT_FLOAT"}, "value": {"tensor": {"dtype": "DT_FLOAT", "tensorShape": {"dim": [{"size": "1"}, {"size": "1917"}, {"size": "4"}]}}}}, "name": "Postprocessor/ExpandDims", "op": "Const"}, {"attr": {"dtype": {"type": "DT_FLOAT"}, "value": {"tensor": {"dtype": "DT_FLOAT", "tensorShape": {}}}}, "name": "ConstantFolding/Postprocessor/Decode/div_4_recip", "op": "Const"}, {"attr": {"dtype": {"type": "DT_FLOAT"}, "value": {"tensor": {"dtype": "DT_FLOAT", "tensorShape": {}}}}, "name": "ConstantFolding/Postprocessor/Decode/div_recip", "op": "Const"}, {"input": ["image_tensor"], "attr": {"DstT": {"type": "DT_FLOAT"}, "Truncate": {"b": false}, "SrcT": {"type": "DT_UINT8"}}, "name": "ToFloat", "op": "Cast"}, {"input": ["Preprocessor/map/TensorArrayStack/range/start"], "attr": {"is_constant": {"b": false}, "T": {"type": "DT_INT32"}, "frame_name": {"s": "UHJlcHJvY2Vzc29yL21hcC93aGlsZS93aGlsZV9jb250ZXh0"}, "parallel_iterations": {"i": "32"}}, "name": "Preprocessor/map/while/Enter", "op": "Enter"}, {"input": ["ToFloat"], "attr": {"out_type": {"type": "DT_INT32"}, "T": {"type": "DT_FLOAT"}}, "name": "Preprocessor/map/TensorArrayUnstack/Shape", "op": "Shape"}, {"input": ["Preprocessor/map/while/Enter", "Preprocessor/map/while/NextIteration"], "attr": {"T": {"type": "DT_INT32"}, "N": {"i": "2"}}, "name": "Preprocessor/map/while/Merge", "op": "Merge"}, {"input": ["Preprocessor/map/TensorArrayUnstack/Shape", "Postprocessor/strided_slice/stack", "Postprocessor/strided_slice/stack_1", "Postprocessor/strided_slice/stack_1"], "attr": {"new_axis_mask": {"i": "0"}, "Index": {"type": "DT_INT32"}, "begin_mask": {"i": "0"}, "ellipsis_mask": {"i": "0"}, "end_mask": {"i": "0"}, "T": {"type": "DT_INT32"}, "shrink_axis_mask": {"i": "1"}}, "name": "Preprocessor/map/TensorArrayUnstack/strided_slice", "op": "StridedSlice"}, {"input": ["Preprocessor/map/TensorArrayUnstack/strided_slice"], "attr": {"is_constant": {"b": true}, "T": {"type": "DT_INT32"}, "frame_name": {"s": "UHJlcHJvY2Vzc29yL21hcC93aGlsZS93aGlsZV9jb250ZXh0"}, "parallel_iterations": {"i": "32"}}, "name": "Preprocessor/map/while/Less/Enter", "op": "Enter"}, {"input": ["Preprocessor/map/TensorArrayUnstack/strided_slice"], "attr": {"identical_element_shapes": {"b": false}, "dynamic_size": {"b": false}, "clear_after_read": {"b": true}, "tensor_array_name": {"s": ""}, "dtype": {"type": "DT_FLOAT"}, "element_shape": {"shape": {"unknownRank": true}}}, "name": "Preprocessor/map/TensorArray", "op": "TensorArrayV3"}, {"input": ["Preprocessor/map/TensorArrayStack/range/start", "Preprocessor/map/TensorArrayUnstack/strided_slice", "Postprocessor/Tile/multiples/1"], "attr": {"Tidx": {"type": "DT_INT32"}}, "name": "Preprocessor/map/TensorArrayUnstack/range", "op": "Range"}, {"input": ["Preprocessor/map/TensorArrayUnstack/strided_slice"], "attr": {"dtype": {"type": "DT_FLOAT"}, "dynamic_size": {"b": false}, "clear_after_read": {"b": true}, "tensor_array_name": {"s": ""}, "identical_element_shapes": {"b": false}, "element_shape": {"shape": {"unknownRank": true}}}, "name": "Preprocessor/map/TensorArray_1", "op": "TensorArrayV3"}, {"input": ["Preprocessor/map/while/Merge", "Preprocessor/map/while/Less/Enter"], "attr": {"T": {"type": "DT_INT32"}}, "name": "Preprocessor/map/while/Less", "op": "Less"}, {"input": ["Preprocessor/map/TensorArray"], "attr": {"is_constant": {"b": true}, "T": {"type": "DT_RESOURCE"}, "frame_name": {"s": "UHJlcHJvY2Vzc29yL21hcC93aGlsZS93aGlsZV9jb250ZXh0"}, "parallel_iterations": {"i": "32"}}, "name": "Preprocessor/map/while/TensorArrayReadV3/Enter", "op": "Enter"}, {"input": ["Preprocessor/map/TensorArray", "Preprocessor/map/TensorArrayUnstack/range", "ToFloat", "Preprocessor/map/TensorArray:1"], "attr": {"T": {"type": "DT_FLOAT"}}, "name": "Preprocessor/map/TensorArrayUnstack/TensorArrayScatter/TensorArrayScatterV3", "op": "TensorArrayScatterV3"}, {"input": ["Preprocessor/map/TensorArray_1"], "attr": {"is_constant": {"b": true}, "T": {"type": "DT_RESOURCE"}, "frame_name": {"s": "UHJlcHJvY2Vzc29yL21hcC93aGlsZS93aGlsZV9jb250ZXh0"}, "parallel_iterations": {"i": "32"}}, "name": "Preprocessor/map/while/TensorArrayWrite/TensorArrayWriteV3/Enter", "op": "Enter"}, {"input": ["Preprocessor/map/TensorArray_1:1"], "attr": {"is_constant": {"b": false}, "frame_name": {"s": "UHJlcHJvY2Vzc29yL21hcC93aGlsZS93aGlsZV9jb250ZXh0"}, "T": {"type": "DT_FLOAT"}, "parallel_iterations": {"i": "32"}}, "name": "Preprocessor/map/while/Enter_1", "op": "Enter"}, {"input": ["Preprocessor/map/while/Less"], "name": "Preprocessor/map/while/LoopCond", "op": "LoopCond"}, {"input": ["Preprocessor/map/TensorArrayUnstack/TensorArrayScatter/TensorArrayScatterV3"], "attr": {"is_constant": {"b": true}, "T": {"type": "DT_FLOAT"}, "frame_name": {"s": "UHJlcHJvY2Vzc29yL21hcC93aGlsZS93aGlsZV9jb250ZXh0"}, "parallel_iterations": {"i": "32"}}, "name": "Preprocessor/map/while/TensorArrayReadV3/Enter_1", "op": "Enter"}, {"input": ["Preprocessor/map/while/Enter_1", "Preprocessor/map/while/NextIteration_1"], "attr": {"T": {"type": "DT_FLOAT"}, "N": {"i": "2"}}, "name": "Preprocessor/map/while/Merge_1", "op": "Merge"}, {"input": ["Preprocessor/map/while/Merge", "Preprocessor/map/while/LoopCond"], "attr": {"T": {"type": "DT_INT32"}}, "name": "Preprocessor/map/while/Switch", "op": "Switch"}, {"input": ["Preprocessor/map/while/Merge_1", "Preprocessor/map/while/LoopCond"], "attr": {"T": {"type": "DT_FLOAT"}}, "name": "Preprocessor/map/while/Switch_1", "op": "Switch"}, {"input": ["Preprocessor/map/while/Switch:1"], "attr": {"T": {"type": "DT_INT32"}}, "name": "Preprocessor/map/while/Identity", "op": "Identity"}, {"input": ["Preprocessor/map/while/Switch_1"], "attr": {"T": {"type": "DT_FLOAT"}}, "name": "Preprocessor/map/while/Exit_1", "op": "Exit"}, {"input": ["^Preprocessor/map/while/Identity"], "attr": {"dtype": {"type": "DT_INT32"}, "value": {"tensor": {"dtype": "DT_INT32", "tensorShape": {}}}}, "name": "Preprocessor/map/while/add/y", "op": "Const"}, {"input": ["^Preprocessor/map/while/Identity"], "attr": {"dtype": {"type": "DT_INT32"}, "value": {"tensor": {"dtype": "DT_INT32", "tensorShape": {"dim": [{"size": "2"}]}}}}, "name": "Preprocessor/map/while/ResizeImage/stack", "op": "Const"}, {"input": ["^Preprocessor/map/while/Identity"], "attr": {"dtype": {"type": "DT_INT32"}, "value": {"tensor": {"dtype": "DT_INT32", "tensorShape": {}}}}, "name": "Preprocessor/map/while/ResizeImage/ExpandDims/dim", "op": "Const"}, {"input": ["Preprocessor/map/while/TensorArrayReadV3/Enter", "Preprocessor/map/while/Identity", "Preprocessor/map/while/TensorArrayReadV3/Enter_1"], "attr": {"dtype": {"type": "DT_FLOAT"}}, "name": "Preprocessor/map/while/TensorArrayReadV3", "op": "TensorArrayReadV3"}, {"input": ["Preprocessor/map/TensorArray_1", "Preprocessor/map/while/Exit_1"], "name": "Preprocessor/map/TensorArrayStack/TensorArraySizeV3", "op": "TensorArraySizeV3"}, {"input": ["Preprocessor/map/while/Identity", "Preprocessor/map/while/add/y"], "attr": {"T": {"type": "DT_INT32"}}, "name": "Preprocessor/map/while/add", "op": "Add"}, {"input": ["Preprocessor/map/while/TensorArrayReadV3", "Preprocessor/map/while/ResizeImage/ExpandDims/dim"], "attr": {"Tdim": {"type": "DT_INT32"}, "T": {"type": "DT_FLOAT"}}, "name": "Preprocessor/map/while/ResizeImage/ExpandDims", "op": "ExpandDims"}, {"input": ["Preprocessor/map/TensorArrayStack/range/start", "Preprocessor/map/TensorArrayStack/TensorArraySizeV3", "Postprocessor/Tile/multiples/1"], "attr": {"Tidx": {"type": "DT_INT32"}}, "name": "Preprocessor/map/TensorArrayStack/range", "op": "Range"}, {"input": ["Preprocessor/map/while/add"], "attr": {"T": {"type": "DT_INT32"}}, "name": "Preprocessor/map/while/NextIteration", "op": "NextIteration"}, {"input": ["Preprocessor/map/while/ResizeImage/ExpandDims", "Preprocessor/map/while/ResizeImage/stack"], "attr": {"align_corners": {"b": false}, "T": {"type": "DT_FLOAT"}}, "name": "Preprocessor/map/while/ResizeImage/ResizeBilinear", "op": "ResizeBilinear"}, {"input": ["Preprocessor/map/TensorArray_1", "Preprocessor/map/TensorArrayStack/range", "Preprocessor/map/while/Exit_1"], "attr": {"dtype": {"type": "DT_FLOAT"}, "element_shape": {"shape": {"dim": [{"size": "300"}, {"size": "300"}, {"size": "3"}]}}}, "name": "Preprocessor/map/TensorArrayStack/TensorArrayGatherV3", "op": "TensorArrayGatherV3"}, {"input": ["Preprocessor/map/while/ResizeImage/ResizeBilinear"], "attr": {"squeeze_dims": {"list": {"i": ["0"]}}, "T": {"type": "DT_FLOAT"}}, "name": "Preprocessor/map/while/ResizeImage/Squeeze", "op": "Squeeze"}, {"input": ["Preprocessor/mul/x", "Preprocessor/map/TensorArrayStack/TensorArrayGatherV3"], "attr": {"T": {"type": "DT_FLOAT"}}, "name": "Preprocessor/mul", "op": "Mul"}, {"input": ["Preprocessor/map/while/TensorArrayWrite/TensorArrayWriteV3/Enter", "Preprocessor/map/while/Identity", "Preprocessor/map/while/ResizeImage/Squeeze", "Preprocessor/map/while/Switch_1:1"], "attr": {"T": {"type": "DT_FLOAT"}}, "name": "Preprocessor/map/while/TensorArrayWrite/TensorArrayWriteV3", "op": "TensorArrayWriteV3"}, {"input": ["Preprocessor/mul", "Preprocessor/sub/y"], "attr": {"T": {"type": "DT_FLOAT"}}, "name": "Preprocessor/sub", "op": "Sub"}, {"input": ["Preprocessor/map/while/TensorArrayWrite/TensorArrayWriteV3"], "attr": {"T": {"type": "DT_FLOAT"}}, "name": "Preprocessor/map/while/NextIteration_1", "op": "NextIteration"}, {"input": ["Preprocessor/sub", "FeatureExtractor/MobilenetV2/Conv/Conv2D/merged_input"], "attr": {"data_format": {"s": "TkhXQw=="}, "use_cudnn_on_gpu": {"b": true}, "padding": {"s": "U0FNRQ=="}, "strides": {"list": {"i": ["1", "2", "2", "1"]}}, "T": {"type": "DT_FLOAT"}, "dilations": {"list": {"i": ["1", "1", "1", "1"]}}}, "name": "FeatureExtractor/MobilenetV2/Conv/BatchNorm/batchnorm/mul_1", "op": "Conv2D"}, {"input": ["FeatureExtractor/MobilenetV2/Conv/BatchNorm/batchnorm/mul_1", "FeatureExtractor/MobilenetV2/Conv/BatchNorm/batchnorm/sub"], "attr": {"T": {"type": "DT_FLOAT"}}, "name": "FeatureExtractor/MobilenetV2/Conv/BatchNorm/batchnorm/add_1", "op": "Add"}, {"input": ["FeatureExtractor/MobilenetV2/Conv/BatchNorm/batchnorm/add_1"], "attr": {"T": {"type": "DT_FLOAT"}}, "name": "FeatureExtractor/MobilenetV2/Conv/Relu6", "op": "Relu6"}, {"input": ["FeatureExtractor/MobilenetV2/Conv/Relu6", "FeatureExtractor/MobilenetV2/expanded_conv/depthwise/depthwise_weights"], "attr": {"dilations": {"list": {"i": ["1", "1", "1", "1"]}}, "padding": {"s": "U0FNRQ=="}, "data_format": {"s": "TkhXQw=="}, "T": {"type": "DT_FLOAT"}, "strides": {"list": {"i": ["1", "1", "1", "1"]}}}, "name": "FeatureExtractor/MobilenetV2/expanded_conv/depthwise/depthwise", "op": "DepthwiseConv2dNative"}, {"input": ["FeatureExtractor/MobilenetV2/expanded_conv/depthwise/depthwise", "FeatureExtractor/MobilenetV2/expanded_conv/depthwise/BatchNorm/batchnorm/mul"], "attr": {"T": {"type": "DT_FLOAT"}}, "name": "FeatureExtractor/MobilenetV2/expanded_conv/depthwise/BatchNorm/batchnorm/mul_1", "op": "Mul"}, {"input": ["FeatureExtractor/MobilenetV2/expanded_conv/depthwise/BatchNorm/batchnorm/mul_1", "FeatureExtractor/MobilenetV2/expanded_conv/depthwise/BatchNorm/batchnorm/sub"], "attr": {"T": {"type": "DT_FLOAT"}}, "name": "FeatureExtractor/MobilenetV2/expanded_conv/depthwise/BatchNorm/batchnorm/add_1", "op": "Add"}, {"input": ["FeatureExtractor/MobilenetV2/expanded_conv/depthwise/BatchNorm/batchnorm/add_1"], "attr": {"T": {"type": "DT_FLOAT"}}, "name": "FeatureExtractor/MobilenetV2/expanded_conv/depthwise/Relu6", "op": "Relu6"}, {"input": ["FeatureExtractor/MobilenetV2/expanded_conv/depthwise/Relu6", "FeatureExtractor/MobilenetV2/expanded_conv/project/Conv2D/merged_input"], "attr": {"data_format": {"s": "TkhXQw=="}, "use_cudnn_on_gpu": {"b": true}, "padding": {"s": "U0FNRQ=="}, "strides": {"list": {"i": ["1", "1", "1", "1"]}}, "T": {"type": "DT_FLOAT"}, "dilations": {"list": {"i": ["1", "1", "1", "1"]}}}, "name": "FeatureExtractor/MobilenetV2/expanded_conv/project/BatchNorm/batchnorm/mul_1", "op": "Conv2D"}, {"input": ["FeatureExtractor/MobilenetV2/expanded_conv/project/BatchNorm/batchnorm/mul_1", "FeatureExtractor/MobilenetV2/expanded_conv/project/BatchNorm/batchnorm/sub"], "attr": {"T": {"type": "DT_FLOAT"}}, "name": "FeatureExtractor/MobilenetV2/expanded_conv/project/BatchNorm/batchnorm/add_1", "op": "Add"}, {"input": ["FeatureExtractor/MobilenetV2/expanded_conv/project/BatchNorm/batchnorm/add_1", "FeatureExtractor/MobilenetV2/expanded_conv_1/expand/Conv2D/merged_input"], "attr": {"data_format": {"s": "TkhXQw=="}, "use_cudnn_on_gpu": {"b": true}, "padding": {"s": "U0FNRQ=="}, "strides": {"list": {"i": ["1", "1", "1", "1"]}}, "T": {"type": "DT_FLOAT"}, "dilations": {"list": {"i": ["1", "1", "1", "1"]}}}, "name": "FeatureExtractor/MobilenetV2/expanded_conv_1/expand/BatchNorm/batchnorm/mul_1", "op": "Conv2D"}, {"input": ["FeatureExtractor/MobilenetV2/expanded_conv_1/expand/BatchNorm/batchnorm/mul_1", "FeatureExtractor/MobilenetV2/expanded_conv_1/expand/BatchNorm/batchnorm/sub"], "attr": {"T": {"type": "DT_FLOAT"}}, "name": "FeatureExtractor/MobilenetV2/expanded_conv_1/expand/BatchNorm/batchnorm/add_1", "op": "Add"}, {"input": ["FeatureExtractor/MobilenetV2/expanded_conv_1/expand/BatchNorm/batchnorm/add_1"], "attr": {"T": {"type": "DT_FLOAT"}}, "name": "FeatureExtractor/MobilenetV2/expanded_conv_1/expand/Relu6", "op": "Relu6"}, {"input": ["FeatureExtractor/MobilenetV2/expanded_conv_1/expand/Relu6", "FeatureExtractor/MobilenetV2/expanded_conv_1/depthwise/depthwise_weights"], "attr": {"dilations": {"list": {"i": ["1", "1", "1", "1"]}}, "padding": {"s": "U0FNRQ=="}, "strides": {"list": {"i": ["1", "2", "2", "1"]}}, "T": {"type": "DT_FLOAT"}, "data_format": {"s": "TkhXQw=="}}, "name": "FeatureExtractor/MobilenetV2/expanded_conv_1/depthwise/depthwise", "op": "DepthwiseConv2dNative"}, {"input": ["FeatureExtractor/MobilenetV2/expanded_conv_1/depthwise/depthwise", "FeatureExtractor/MobilenetV2/expanded_conv_1/depthwise/BatchNorm/batchnorm/mul"], "attr": {"T": {"type": "DT_FLOAT"}}, "name": "FeatureExtractor/MobilenetV2/expanded_conv_1/depthwise/BatchNorm/batchnorm/mul_1", "op": "Mul"}, {"input": ["FeatureExtractor/MobilenetV2/expanded_conv_1/depthwise/BatchNorm/batchnorm/mul_1", "FeatureExtractor/MobilenetV2/expanded_conv_1/depthwise/BatchNorm/batchnorm/sub"], "attr": {"T": {"type": "DT_FLOAT"}}, "name": "FeatureExtractor/MobilenetV2/expanded_conv_1/depthwise/BatchNorm/batchnorm/add_1", "op": "Add"}, {"input": ["FeatureExtractor/MobilenetV2/expanded_conv_1/depthwise/BatchNorm/batchnorm/add_1"], "attr": {"T": {"type": "DT_FLOAT"}}, "name": "FeatureExtractor/MobilenetV2/expanded_conv_1/depthwise/Relu6", "op": "Relu6"}, {"input": ["FeatureExtractor/MobilenetV2/expanded_conv_1/depthwise/Relu6", "FeatureExtractor/MobilenetV2/expanded_conv_1/project/Conv2D/merged_input"], "attr": {"data_format": {"s": "TkhXQw=="}, "use_cudnn_on_gpu": {"b": true}, "padding": {"s": "U0FNRQ=="}, "strides": {"list": {"i": ["1", "1", "1", "1"]}}, "T": {"type": "DT_FLOAT"}, "dilations": {"list": {"i": ["1", "1", "1", "1"]}}}, "name": "FeatureExtractor/MobilenetV2/expanded_conv_1/project/BatchNorm/batchnorm/mul_1", "op": "Conv2D"}, {"input": ["FeatureExtractor/MobilenetV2/expanded_conv_1/project/BatchNorm/batchnorm/mul_1", "FeatureExtractor/MobilenetV2/expanded_conv_1/project/BatchNorm/batchnorm/sub"], "attr": {"T": {"type": "DT_FLOAT"}}, "name": "FeatureExtractor/MobilenetV2/expanded_conv_1/project/BatchNorm/batchnorm/add_1", "op": "Add"}, {"input": ["FeatureExtractor/MobilenetV2/expanded_conv_1/project/BatchNorm/batchnorm/add_1", "FeatureExtractor/MobilenetV2/expanded_conv_2/expand/Conv2D/merged_input"], "attr": {"data_format": {"s": "TkhXQw=="}, "use_cudnn_on_gpu": {"b": true}, "padding": {"s": "U0FNRQ=="}, "strides": {"list": {"i": ["1", "1", "1", "1"]}}, "T": {"type": "DT_FLOAT"}, "dilations": {"list": {"i": ["1", "1", "1", "1"]}}}, "name": "FeatureExtractor/MobilenetV2/expanded_conv_2/expand/BatchNorm/batchnorm/mul_1", "op": "Conv2D"}, {"input": ["FeatureExtractor/MobilenetV2/expanded_conv_2/expand/BatchNorm/batchnorm/mul_1", "FeatureExtractor/MobilenetV2/expanded_conv_2/expand/BatchNorm/batchnorm/sub"], "attr": {"T": {"type": "DT_FLOAT"}}, "name": "FeatureExtractor/MobilenetV2/expanded_conv_2/expand/BatchNorm/batchnorm/add_1", "op": "Add"}, {"input": ["FeatureExtractor/MobilenetV2/expanded_conv_2/expand/BatchNorm/batchnorm/add_1"], "attr": {"T": {"type": "DT_FLOAT"}}, "name": "FeatureExtractor/MobilenetV2/expanded_conv_2/expand/Relu6", "op": "Relu6"}, {"input": ["FeatureExtractor/MobilenetV2/expanded_conv_2/expand/Relu6", "FeatureExtractor/MobilenetV2/expanded_conv_2/depthwise/depthwise_weights"], "attr": {"padding": {"s": "U0FNRQ=="}, "dilations": {"list": {"i": ["1", "1", "1", "1"]}}, "strides": {"list": {"i": ["1", "1", "1", "1"]}}, "T": {"type": "DT_FLOAT"}, "data_format": {"s": "TkhXQw=="}}, "name": "FeatureExtractor/MobilenetV2/expanded_conv_2/depthwise/depthwise", "op": "DepthwiseConv2dNative"}, {"input": ["FeatureExtractor/MobilenetV2/expanded_conv_2/depthwise/depthwise", "FeatureExtractor/MobilenetV2/expanded_conv_2/depthwise/BatchNorm/batchnorm/mul"], "attr": {"T": {"type": "DT_FLOAT"}}, "name": "FeatureExtractor/MobilenetV2/expanded_conv_2/depthwise/BatchNorm/batchnorm/mul_1", "op": "Mul"}, {"input": ["FeatureExtractor/MobilenetV2/expanded_conv_2/depthwise/BatchNorm/batchnorm/mul_1", "FeatureExtractor/MobilenetV2/expanded_conv_2/depthwise/BatchNorm/batchnorm/sub"], "attr": {"T": {"type": "DT_FLOAT"}}, "name": "FeatureExtractor/MobilenetV2/expanded_conv_2/depthwise/BatchNorm/batchnorm/add_1", "op": "Add"}, {"input": ["FeatureExtractor/MobilenetV2/expanded_conv_2/depthwise/BatchNorm/batchnorm/add_1"], "attr": {"T": {"type": "DT_FLOAT"}}, "name": "FeatureExtractor/MobilenetV2/expanded_conv_2/depthwise/Relu6", "op": "Relu6"}, {"input": ["FeatureExtractor/MobilenetV2/expanded_conv_2/depthwise/Relu6", "FeatureExtractor/MobilenetV2/expanded_conv_2/project/Conv2D/merged_input"], "attr": {"data_format": {"s": "TkhXQw=="}, "use_cudnn_on_gpu": {"b": true}, "padding": {"s": "U0FNRQ=="}, "strides": {"list": {"i": ["1", "1", "1", "1"]}}, "T": {"type": "DT_FLOAT"}, "dilations": {"list": {"i": ["1", "1", "1", "1"]}}}, "name": "FeatureExtractor/MobilenetV2/expanded_conv_2/project/BatchNorm/batchnorm/mul_1", "op": "Conv2D"}, {"input": ["FeatureExtractor/MobilenetV2/expanded_conv_2/project/BatchNorm/batchnorm/mul_1", "FeatureExtractor/MobilenetV2/expanded_conv_1/project/BatchNorm/batchnorm/add_1"], "attr": {"_grappler:ArithmeticOptimizer:AddOpsRewriteStage": {"b": true}, "T": {"type": "DT_FLOAT"}, "N": {"i": "2"}}, "name": "FeatureExtractor/MobilenetV2/expanded_conv_2/ArithmeticOptimizer/AddOpsRewrite_Leaf_1_add", "op": "AddN"}, {"input": ["FeatureExtractor/MobilenetV2/expanded_conv_2/project/BatchNorm/batchnorm/sub", "FeatureExtractor/MobilenetV2/expanded_conv_2/ArithmeticOptimizer/AddOpsRewrite_Leaf_1_add"], "attr": {"_grappler:ArithmeticOptimizer:AddOpsRewriteStage": {"b": true}, "T": {"type": "DT_FLOAT"}}, "name": "FeatureExtractor/MobilenetV2/expanded_conv_2/ArithmeticOptimizer/AddOpsRewrite_add", "op": "Add"}, {"input": ["FeatureExtractor/MobilenetV2/expanded_conv_2/ArithmeticOptimizer/AddOpsRewrite_add", "FeatureExtractor/MobilenetV2/expanded_conv_3/expand/Conv2D/merged_input"], "attr": {"data_format": {"s": "TkhXQw=="}, "use_cudnn_on_gpu": {"b": true}, "padding": {"s": "U0FNRQ=="}, "strides": {"list": {"i": ["1", "1", "1", "1"]}}, "T": {"type": "DT_FLOAT"}, "dilations": {"list": {"i": ["1", "1", "1", "1"]}}}, "name": "FeatureExtractor/MobilenetV2/expanded_conv_3/expand/BatchNorm/batchnorm/mul_1", "op": "Conv2D"}, {"input": ["FeatureExtractor/MobilenetV2/expanded_conv_3/expand/BatchNorm/batchnorm/mul_1", "FeatureExtractor/MobilenetV2/expanded_conv_3/expand/BatchNorm/batchnorm/sub"], "attr": {"T": {"type": "DT_FLOAT"}}, "name": "FeatureExtractor/MobilenetV2/expanded_conv_3/expand/BatchNorm/batchnorm/add_1", "op": "Add"}, {"input": ["FeatureExtractor/MobilenetV2/expanded_conv_3/expand/BatchNorm/batchnorm/add_1"], "attr": {"T": {"type": "DT_FLOAT"}}, "name": "FeatureExtractor/MobilenetV2/expanded_conv_3/expand/Relu6", "op": "Relu6"}, {"input": ["FeatureExtractor/MobilenetV2/expanded_conv_3/expand/Relu6", "FeatureExtractor/MobilenetV2/expanded_conv_3/depthwise/depthwise_weights"], "attr": {"padding": {"s": "U0FNRQ=="}, "strides": {"list": {"i": ["1", "2", "2", "1"]}}, "dilations": {"list": {"i": ["1", "1", "1", "1"]}}, "T": {"type": "DT_FLOAT"}, "data_format": {"s": "TkhXQw=="}}, "name": "FeatureExtractor/MobilenetV2/expanded_conv_3/depthwise/depthwise", "op": "DepthwiseConv2dNative"}, {"input": ["FeatureExtractor/MobilenetV2/expanded_conv_3/depthwise/depthwise", "FeatureExtractor/MobilenetV2/expanded_conv_3/depthwise/BatchNorm/batchnorm/mul"], "attr": {"T": {"type": "DT_FLOAT"}}, "name": "FeatureExtractor/MobilenetV2/expanded_conv_3/depthwise/BatchNorm/batchnorm/mul_1", "op": "Mul"}, {"input": ["FeatureExtractor/MobilenetV2/expanded_conv_3/depthwise/BatchNorm/batchnorm/mul_1", "FeatureExtractor/MobilenetV2/expanded_conv_3/depthwise/BatchNorm/batchnorm/sub"], "attr": {"T": {"type": "DT_FLOAT"}}, "name": "FeatureExtractor/MobilenetV2/expanded_conv_3/depthwise/BatchNorm/batchnorm/add_1", "op": "Add"}, {"input": ["FeatureExtractor/MobilenetV2/expanded_conv_3/depthwise/BatchNorm/batchnorm/add_1"], "attr": {"T": {"type": "DT_FLOAT"}}, "name": "FeatureExtractor/MobilenetV2/expanded_conv_3/depthwise/Relu6", "op": "Relu6"}, {"input": ["FeatureExtractor/MobilenetV2/expanded_conv_3/depthwise/Relu6", "FeatureExtractor/MobilenetV2/expanded_conv_3/project/Conv2D/merged_input"], "attr": {"data_format": {"s": "TkhXQw=="}, "use_cudnn_on_gpu": {"b": true}, "padding": {"s": "U0FNRQ=="}, "strides": {"list": {"i": ["1", "1", "1", "1"]}}, "T": {"type": "DT_FLOAT"}, "dilations": {"list": {"i": ["1", "1", "1", "1"]}}}, "name": "FeatureExtractor/MobilenetV2/expanded_conv_3/project/BatchNorm/batchnorm/mul_1", "op": "Conv2D"}, {"input": ["FeatureExtractor/MobilenetV2/expanded_conv_3/project/BatchNorm/batchnorm/mul_1", "FeatureExtractor/MobilenetV2/expanded_conv_3/project/BatchNorm/batchnorm/sub"], "attr": {"T": {"type": "DT_FLOAT"}}, "name": "FeatureExtractor/MobilenetV2/expanded_conv_3/project/BatchNorm/batchnorm/add_1", "op": "Add"}, {"input": ["FeatureExtractor/MobilenetV2/expanded_conv_3/project/BatchNorm/batchnorm/add_1", "FeatureExtractor/MobilenetV2/expanded_conv_4/expand/Conv2D/merged_input"], "attr": {"data_format": {"s": "TkhXQw=="}, "use_cudnn_on_gpu": {"b": true}, "padding": {"s": "U0FNRQ=="}, "strides": {"list": {"i": ["1", "1", "1", "1"]}}, "T": {"type": "DT_FLOAT"}, "dilations": {"list": {"i": ["1", "1", "1", "1"]}}}, "name": "FeatureExtractor/MobilenetV2/expanded_conv_4/expand/BatchNorm/batchnorm/mul_1", "op": "Conv2D"}, {"input": ["FeatureExtractor/MobilenetV2/expanded_conv_4/expand/BatchNorm/batchnorm/mul_1", "FeatureExtractor/MobilenetV2/expanded_conv_4/expand/BatchNorm/batchnorm/sub"], "attr": {"T": {"type": "DT_FLOAT"}}, "name": "FeatureExtractor/MobilenetV2/expanded_conv_4/expand/BatchNorm/batchnorm/add_1", "op": "Add"}, {"input": ["FeatureExtractor/MobilenetV2/expanded_conv_4/expand/BatchNorm/batchnorm/add_1"], "attr": {"T": {"type": "DT_FLOAT"}}, "name": "FeatureExtractor/MobilenetV2/expanded_conv_4/expand/Relu6", "op": "Relu6"}, {"input": ["FeatureExtractor/MobilenetV2/expanded_conv_4/expand/Relu6", "FeatureExtractor/MobilenetV2/expanded_conv_4/depthwise/depthwise_weights"], "attr": {"padding": {"s": "U0FNRQ=="}, "dilations": {"list": {"i": ["1", "1", "1", "1"]}}, "strides": {"list": {"i": ["1", "1", "1", "1"]}}, "T": {"type": "DT_FLOAT"}, "data_format": {"s": "TkhXQw=="}}, "name": "FeatureExtractor/MobilenetV2/expanded_conv_4/depthwise/depthwise", "op": "DepthwiseConv2dNative"}, {"input": ["FeatureExtractor/MobilenetV2/expanded_conv_4/depthwise/depthwise", "FeatureExtractor/MobilenetV2/expanded_conv_4/depthwise/BatchNorm/batchnorm/mul"], "attr": {"T": {"type": "DT_FLOAT"}}, "name": "FeatureExtractor/MobilenetV2/expanded_conv_4/depthwise/BatchNorm/batchnorm/mul_1", "op": "Mul"}, {"input": ["FeatureExtractor/MobilenetV2/expanded_conv_4/depthwise/BatchNorm/batchnorm/mul_1", "FeatureExtractor/MobilenetV2/expanded_conv_4/depthwise/BatchNorm/batchnorm/sub"], "attr": {"T": {"type": "DT_FLOAT"}}, "name": "FeatureExtractor/MobilenetV2/expanded_conv_4/depthwise/BatchNorm/batchnorm/add_1", "op": "Add"}, {"input": ["FeatureExtractor/MobilenetV2/expanded_conv_4/depthwise/BatchNorm/batchnorm/add_1"], "attr": {"T": {"type": "DT_FLOAT"}}, "name": "FeatureExtractor/MobilenetV2/expanded_conv_4/depthwise/Relu6", "op": "Relu6"}, {"input": ["FeatureExtractor/MobilenetV2/expanded_conv_4/depthwise/Relu6", "FeatureExtractor/MobilenetV2/expanded_conv_4/project/Conv2D/merged_input"], "attr": {"data_format": {"s": "TkhXQw=="}, "use_cudnn_on_gpu": {"b": true}, "padding": {"s": "U0FNRQ=="}, "strides": {"list": {"i": ["1", "1", "1", "1"]}}, "T": {"type": "DT_FLOAT"}, "dilations": {"list": {"i": ["1", "1", "1", "1"]}}}, "name": "FeatureExtractor/MobilenetV2/expanded_conv_4/project/BatchNorm/batchnorm/mul_1", "op": "Conv2D"}, {"input": ["FeatureExtractor/MobilenetV2/expanded_conv_4/project/BatchNorm/batchnorm/mul_1", "FeatureExtractor/MobilenetV2/expanded_conv_3/project/BatchNorm/batchnorm/add_1"], "attr": {"_grappler:ArithmeticOptimizer:AddOpsRewriteStage": {"b": true}, "T": {"type": "DT_FLOAT"}, "N": {"i": "2"}}, "name": "FeatureExtractor/MobilenetV2/expanded_conv_4/ArithmeticOptimizer/AddOpsRewrite_Leaf_1_add", "op": "AddN"}, {"input": ["FeatureExtractor/MobilenetV2/expanded_conv_4/project/BatchNorm/batchnorm/sub", "FeatureExtractor/MobilenetV2/expanded_conv_4/ArithmeticOptimizer/AddOpsRewrite_Leaf_1_add"], "attr": {"_grappler:ArithmeticOptimizer:AddOpsRewriteStage": {"b": true}, "T": {"type": "DT_FLOAT"}}, "name": "FeatureExtractor/MobilenetV2/expanded_conv_4/ArithmeticOptimizer/AddOpsRewrite_add", "op": "Add"}, {"input": ["FeatureExtractor/MobilenetV2/expanded_conv_4/ArithmeticOptimizer/AddOpsRewrite_add", "FeatureExtractor/MobilenetV2/expanded_conv_5/expand/Conv2D/merged_input"], "attr": {"data_format": {"s": "TkhXQw=="}, "use_cudnn_on_gpu": {"b": true}, "padding": {"s": "U0FNRQ=="}, "strides": {"list": {"i": ["1", "1", "1", "1"]}}, "T": {"type": "DT_FLOAT"}, "dilations": {"list": {"i": ["1", "1", "1", "1"]}}}, "name": "FeatureExtractor/MobilenetV2/expanded_conv_5/expand/BatchNorm/batchnorm/mul_1", "op": "Conv2D"}, {"input": ["FeatureExtractor/MobilenetV2/expanded_conv_5/expand/BatchNorm/batchnorm/mul_1", "FeatureExtractor/MobilenetV2/expanded_conv_5/expand/BatchNorm/batchnorm/sub"], "attr": {"T": {"type": "DT_FLOAT"}}, "name": "FeatureExtractor/MobilenetV2/expanded_conv_5/expand/BatchNorm/batchnorm/add_1", "op": "Add"}, {"input": ["FeatureExtractor/MobilenetV2/expanded_conv_5/expand/BatchNorm/batchnorm/add_1"], "attr": {"T": {"type": "DT_FLOAT"}}, "name": "FeatureExtractor/MobilenetV2/expanded_conv_5/expand/Relu6", "op": "Relu6"}, {"input": ["FeatureExtractor/MobilenetV2/expanded_conv_5/expand/Relu6", "FeatureExtractor/MobilenetV2/expanded_conv_5/depthwise/depthwise_weights"], "attr": {"padding": {"s": "U0FNRQ=="}, "dilations": {"list": {"i": ["1", "1", "1", "1"]}}, "data_format": {"s": "TkhXQw=="}, "T": {"type": "DT_FLOAT"}, "strides": {"list": {"i": ["1", "1", "1", "1"]}}}, "name": "FeatureExtractor/MobilenetV2/expanded_conv_5/depthwise/depthwise", "op": "DepthwiseConv2dNative"}, {"input": ["FeatureExtractor/MobilenetV2/expanded_conv_5/depthwise/depthwise", "FeatureExtractor/MobilenetV2/expanded_conv_5/depthwise/BatchNorm/batchnorm/mul"], "attr": {"T": {"type": "DT_FLOAT"}}, "name": "FeatureExtractor/MobilenetV2/expanded_conv_5/depthwise/BatchNorm/batchnorm/mul_1", "op": "Mul"}, {"input": ["FeatureExtractor/MobilenetV2/expanded_conv_5/depthwise/BatchNorm/batchnorm/mul_1", "FeatureExtractor/MobilenetV2/expanded_conv_5/depthwise/BatchNorm/batchnorm/sub"], "attr": {"T": {"type": "DT_FLOAT"}}, "name": "FeatureExtractor/MobilenetV2/expanded_conv_5/depthwise/BatchNorm/batchnorm/add_1", "op": "Add"}, {"input": ["FeatureExtractor/MobilenetV2/expanded_conv_5/depthwise/BatchNorm/batchnorm/add_1"], "attr": {"T": {"type": "DT_FLOAT"}}, "name": "FeatureExtractor/MobilenetV2/expanded_conv_5/depthwise/Relu6", "op": "Relu6"}, {"input": ["FeatureExtractor/MobilenetV2/expanded_conv_5/depthwise/Relu6", "FeatureExtractor/MobilenetV2/expanded_conv_5/project/Conv2D/merged_input"], "attr": {"data_format": {"s": "TkhXQw=="}, "use_cudnn_on_gpu": {"b": true}, "padding": {"s": "U0FNRQ=="}, "strides": {"list": {"i": ["1", "1", "1", "1"]}}, "T": {"type": "DT_FLOAT"}, "dilations": {"list": {"i": ["1", "1", "1", "1"]}}}, "name": "FeatureExtractor/MobilenetV2/expanded_conv_5/project/BatchNorm/batchnorm/mul_1", "op": "Conv2D"}, {"input": ["FeatureExtractor/MobilenetV2/expanded_conv_5/project/BatchNorm/batchnorm/mul_1", "FeatureExtractor/MobilenetV2/expanded_conv_4/ArithmeticOptimizer/AddOpsRewrite_add"], "attr": {"_grappler:ArithmeticOptimizer:AddOpsRewriteStage": {"b": true}, "T": {"type": "DT_FLOAT"}, "N": {"i": "2"}}, "name": "FeatureExtractor/MobilenetV2/expanded_conv_5/ArithmeticOptimizer/AddOpsRewrite_Leaf_1_add", "op": "AddN"}, {"input": ["FeatureExtractor/MobilenetV2/expanded_conv_5/project/BatchNorm/batchnorm/sub", "FeatureExtractor/MobilenetV2/expanded_conv_5/ArithmeticOptimizer/AddOpsRewrite_Leaf_1_add"], "attr": {"_grappler:ArithmeticOptimizer:AddOpsRewriteStage": {"b": true}, "T": {"type": "DT_FLOAT"}}, "name": "FeatureExtractor/MobilenetV2/expanded_conv_5/ArithmeticOptimizer/AddOpsRewrite_add", "op": "Add"}, {"input": ["FeatureExtractor/MobilenetV2/expanded_conv_5/ArithmeticOptimizer/AddOpsRewrite_add", "FeatureExtractor/MobilenetV2/expanded_conv_6/expand/Conv2D/merged_input"], "attr": {"data_format": {"s": "TkhXQw=="}, "use_cudnn_on_gpu": {"b": true}, "padding": {"s": "U0FNRQ=="}, "strides": {"list": {"i": ["1", "1", "1", "1"]}}, "T": {"type": "DT_FLOAT"}, "dilations": {"list": {"i": ["1", "1", "1", "1"]}}}, "name": "FeatureExtractor/MobilenetV2/expanded_conv_6/expand/BatchNorm/batchnorm/mul_1", "op": "Conv2D"}, {"input": ["FeatureExtractor/MobilenetV2/expanded_conv_6/expand/BatchNorm/batchnorm/mul_1", "FeatureExtractor/MobilenetV2/expanded_conv_6/expand/BatchNorm/batchnorm/sub"], "attr": {"T": {"type": "DT_FLOAT"}}, "name": "FeatureExtractor/MobilenetV2/expanded_conv_6/expand/BatchNorm/batchnorm/add_1", "op": "Add"}, {"input": ["FeatureExtractor/MobilenetV2/expanded_conv_6/expand/BatchNorm/batchnorm/add_1"], "attr": {"T": {"type": "DT_FLOAT"}}, "name": "FeatureExtractor/MobilenetV2/expanded_conv_6/expand/Relu6", "op": "Relu6"}, {"input": ["FeatureExtractor/MobilenetV2/expanded_conv_6/expand/Relu6", "FeatureExtractor/MobilenetV2/expanded_conv_6/depthwise/depthwise_weights"], "attr": {"padding": {"s": "U0FNRQ=="}, "dilations": {"list": {"i": ["1", "1", "1", "1"]}}, "data_format": {"s": "TkhXQw=="}, "T": {"type": "DT_FLOAT"}, "strides": {"list": {"i": ["1", "2", "2", "1"]}}}, "name": "FeatureExtractor/MobilenetV2/expanded_conv_6/depthwise/depthwise", "op": "DepthwiseConv2dNative"}, {"input": ["FeatureExtractor/MobilenetV2/expanded_conv_6/depthwise/depthwise", "FeatureExtractor/MobilenetV2/expanded_conv_6/depthwise/BatchNorm/batchnorm/mul"], "attr": {"T": {"type": "DT_FLOAT"}}, "name": "FeatureExtractor/MobilenetV2/expanded_conv_6/depthwise/BatchNorm/batchnorm/mul_1", "op": "Mul"}, {"input": ["FeatureExtractor/MobilenetV2/expanded_conv_6/depthwise/BatchNorm/batchnorm/mul_1", "FeatureExtractor/MobilenetV2/expanded_conv_6/depthwise/BatchNorm/batchnorm/sub"], "attr": {"T": {"type": "DT_FLOAT"}}, "name": "FeatureExtractor/MobilenetV2/expanded_conv_6/depthwise/BatchNorm/batchnorm/add_1", "op": "Add"}, {"input": ["FeatureExtractor/MobilenetV2/expanded_conv_6/depthwise/BatchNorm/batchnorm/add_1"], "attr": {"T": {"type": "DT_FLOAT"}}, "name": "FeatureExtractor/MobilenetV2/expanded_conv_6/depthwise/Relu6", "op": "Relu6"}, {"input": ["FeatureExtractor/MobilenetV2/expanded_conv_6/depthwise/Relu6", "FeatureExtractor/MobilenetV2/expanded_conv_6/project/Conv2D/merged_input"], "attr": {"data_format": {"s": "TkhXQw=="}, "use_cudnn_on_gpu": {"b": true}, "padding": {"s": "U0FNRQ=="}, "strides": {"list": {"i": ["1", "1", "1", "1"]}}, "T": {"type": "DT_FLOAT"}, "dilations": {"list": {"i": ["1", "1", "1", "1"]}}}, "name": "FeatureExtractor/MobilenetV2/expanded_conv_6/project/BatchNorm/batchnorm/mul_1", "op": "Conv2D"}, {"input": ["FeatureExtractor/MobilenetV2/expanded_conv_6/project/BatchNorm/batchnorm/mul_1", "FeatureExtractor/MobilenetV2/expanded_conv_6/project/BatchNorm/batchnorm/sub"], "attr": {"T": {"type": "DT_FLOAT"}}, "name": "FeatureExtractor/MobilenetV2/expanded_conv_6/project/BatchNorm/batchnorm/add_1", "op": "Add"}, {"input": ["FeatureExtractor/MobilenetV2/expanded_conv_6/project/BatchNorm/batchnorm/add_1", "FeatureExtractor/MobilenetV2/expanded_conv_7/expand/Conv2D/merged_input"], "attr": {"data_format": {"s": "TkhXQw=="}, "use_cudnn_on_gpu": {"b": true}, "padding": {"s": "U0FNRQ=="}, "strides": {"list": {"i": ["1", "1", "1", "1"]}}, "T": {"type": "DT_FLOAT"}, "dilations": {"list": {"i": ["1", "1", "1", "1"]}}}, "name": "FeatureExtractor/MobilenetV2/expanded_conv_7/expand/BatchNorm/batchnorm/mul_1", "op": "Conv2D"}, {"input": ["FeatureExtractor/MobilenetV2/expanded_conv_7/expand/BatchNorm/batchnorm/mul_1", "FeatureExtractor/MobilenetV2/expanded_conv_7/expand/BatchNorm/batchnorm/sub"], "attr": {"T": {"type": "DT_FLOAT"}}, "name": "FeatureExtractor/MobilenetV2/expanded_conv_7/expand/BatchNorm/batchnorm/add_1", "op": "Add"}, {"input": ["FeatureExtractor/MobilenetV2/expanded_conv_7/expand/BatchNorm/batchnorm/add_1"], "attr": {"T": {"type": "DT_FLOAT"}}, "name": "FeatureExtractor/MobilenetV2/expanded_conv_7/expand/Relu6", "op": "Relu6"}, {"input": ["FeatureExtractor/MobilenetV2/expanded_conv_7/expand/Relu6", "FeatureExtractor/MobilenetV2/expanded_conv_7/depthwise/depthwise_weights"], "attr": {"dilations": {"list": {"i": ["1", "1", "1", "1"]}}, "strides": {"list": {"i": ["1", "1", "1", "1"]}}, "padding": {"s": "U0FNRQ=="}, "data_format": {"s": "TkhXQw=="}, "T": {"type": "DT_FLOAT"}}, "name": "FeatureExtractor/MobilenetV2/expanded_conv_7/depthwise/depthwise", "op": "DepthwiseConv2dNative"}, {"input": ["FeatureExtractor/MobilenetV2/expanded_conv_7/depthwise/depthwise", "FeatureExtractor/MobilenetV2/expanded_conv_7/depthwise/BatchNorm/batchnorm/mul"], "attr": {"T": {"type": "DT_FLOAT"}}, "name": "FeatureExtractor/MobilenetV2/expanded_conv_7/depthwise/BatchNorm/batchnorm/mul_1", "op": "Mul"}, {"input": ["FeatureExtractor/MobilenetV2/expanded_conv_7/depthwise/BatchNorm/batchnorm/mul_1", "FeatureExtractor/MobilenetV2/expanded_conv_7/depthwise/BatchNorm/batchnorm/sub"], "attr": {"T": {"type": "DT_FLOAT"}}, "name": "FeatureExtractor/MobilenetV2/expanded_conv_7/depthwise/BatchNorm/batchnorm/add_1", "op": "Add"}, {"input": ["FeatureExtractor/MobilenetV2/expanded_conv_7/depthwise/BatchNorm/batchnorm/add_1"], "attr": {"T": {"type": "DT_FLOAT"}}, "name": "FeatureExtractor/MobilenetV2/expanded_conv_7/depthwise/Relu6", "op": "Relu6"}, {"input": ["FeatureExtractor/MobilenetV2/expanded_conv_7/depthwise/Relu6", "FeatureExtractor/MobilenetV2/expanded_conv_7/project/Conv2D/merged_input"], "attr": {"data_format": {"s": "TkhXQw=="}, "use_cudnn_on_gpu": {"b": true}, "padding": {"s": "U0FNRQ=="}, "strides": {"list": {"i": ["1", "1", "1", "1"]}}, "T": {"type": "DT_FLOAT"}, "dilations": {"list": {"i": ["1", "1", "1", "1"]}}}, "name": "FeatureExtractor/MobilenetV2/expanded_conv_7/project/BatchNorm/batchnorm/mul_1", "op": "Conv2D"}, {"input": ["FeatureExtractor/MobilenetV2/expanded_conv_7/project/BatchNorm/batchnorm/mul_1", "FeatureExtractor/MobilenetV2/expanded_conv_6/project/BatchNorm/batchnorm/add_1"], "attr": {"_grappler:ArithmeticOptimizer:AddOpsRewriteStage": {"b": true}, "T": {"type": "DT_FLOAT"}, "N": {"i": "2"}}, "name": "FeatureExtractor/MobilenetV2/expanded_conv_7/ArithmeticOptimizer/AddOpsRewrite_Leaf_1_add", "op": "AddN"}, {"input": ["FeatureExtractor/MobilenetV2/expanded_conv_7/project/BatchNorm/batchnorm/sub", "FeatureExtractor/MobilenetV2/expanded_conv_7/ArithmeticOptimizer/AddOpsRewrite_Leaf_1_add"], "attr": {"_grappler:ArithmeticOptimizer:AddOpsRewriteStage": {"b": true}, "T": {"type": "DT_FLOAT"}}, "name": "FeatureExtractor/MobilenetV2/expanded_conv_7/ArithmeticOptimizer/AddOpsRewrite_add", "op": "Add"}, {"input": ["FeatureExtractor/MobilenetV2/expanded_conv_7/ArithmeticOptimizer/AddOpsRewrite_add", "FeatureExtractor/MobilenetV2/expanded_conv_8/expand/Conv2D/merged_input"], "attr": {"data_format": {"s": "TkhXQw=="}, "use_cudnn_on_gpu": {"b": true}, "padding": {"s": "U0FNRQ=="}, "strides": {"list": {"i": ["1", "1", "1", "1"]}}, "T": {"type": "DT_FLOAT"}, "dilations": {"list": {"i": ["1", "1", "1", "1"]}}}, "name": "FeatureExtractor/MobilenetV2/expanded_conv_8/expand/BatchNorm/batchnorm/mul_1", "op": "Conv2D"}, {"input": ["FeatureExtractor/MobilenetV2/expanded_conv_8/expand/BatchNorm/batchnorm/mul_1", "FeatureExtractor/MobilenetV2/expanded_conv_8/expand/BatchNorm/batchnorm/sub"], "attr": {"T": {"type": "DT_FLOAT"}}, "name": "FeatureExtractor/MobilenetV2/expanded_conv_8/expand/BatchNorm/batchnorm/add_1", "op": "Add"}, {"input": ["FeatureExtractor/MobilenetV2/expanded_conv_8/expand/BatchNorm/batchnorm/add_1"], "attr": {"T": {"type": "DT_FLOAT"}}, "name": "FeatureExtractor/MobilenetV2/expanded_conv_8/expand/Relu6", "op": "Relu6"}, {"input": ["FeatureExtractor/MobilenetV2/expanded_conv_8/expand/Relu6", "FeatureExtractor/MobilenetV2/expanded_conv_8/depthwise/depthwise_weights"], "attr": {"padding": {"s": "U0FNRQ=="}, "dilations": {"list": {"i": ["1", "1", "1", "1"]}}, "data_format": {"s": "TkhXQw=="}, "T": {"type": "DT_FLOAT"}, "strides": {"list": {"i": ["1", "1", "1", "1"]}}}, "name": "FeatureExtractor/MobilenetV2/expanded_conv_8/depthwise/depthwise", "op": "DepthwiseConv2dNative"}, {"input": ["FeatureExtractor/MobilenetV2/expanded_conv_8/depthwise/depthwise", "FeatureExtractor/MobilenetV2/expanded_conv_8/depthwise/BatchNorm/batchnorm/mul"], "attr": {"T": {"type": "DT_FLOAT"}}, "name": "FeatureExtractor/MobilenetV2/expanded_conv_8/depthwise/BatchNorm/batchnorm/mul_1", "op": "Mul"}, {"input": ["FeatureExtractor/MobilenetV2/expanded_conv_8/depthwise/BatchNorm/batchnorm/mul_1", "FeatureExtractor/MobilenetV2/expanded_conv_8/depthwise/BatchNorm/batchnorm/sub"], "attr": {"T": {"type": "DT_FLOAT"}}, "name": "FeatureExtractor/MobilenetV2/expanded_conv_8/depthwise/BatchNorm/batchnorm/add_1", "op": "Add"}, {"input": ["FeatureExtractor/MobilenetV2/expanded_conv_8/depthwise/BatchNorm/batchnorm/add_1"], "attr": {"T": {"type": "DT_FLOAT"}}, "name": "FeatureExtractor/MobilenetV2/expanded_conv_8/depthwise/Relu6", "op": "Relu6"}, {"input": ["FeatureExtractor/MobilenetV2/expanded_conv_8/depthwise/Relu6", "FeatureExtractor/MobilenetV2/expanded_conv_8/project/Conv2D/merged_input"], "attr": {"data_format": {"s": "TkhXQw=="}, "use_cudnn_on_gpu": {"b": true}, "padding": {"s": "U0FNRQ=="}, "strides": {"list": {"i": ["1", "1", "1", "1"]}}, "T": {"type": "DT_FLOAT"}, "dilations": {"list": {"i": ["1", "1", "1", "1"]}}}, "name": "FeatureExtractor/MobilenetV2/expanded_conv_8/project/BatchNorm/batchnorm/mul_1", "op": "Conv2D"}, {"input": ["FeatureExtractor/MobilenetV2/expanded_conv_8/project/BatchNorm/batchnorm/mul_1", "FeatureExtractor/MobilenetV2/expanded_conv_7/ArithmeticOptimizer/AddOpsRewrite_add"], "attr": {"_grappler:ArithmeticOptimizer:AddOpsRewriteStage": {"b": true}, "T": {"type": "DT_FLOAT"}, "N": {"i": "2"}}, "name": "FeatureExtractor/MobilenetV2/expanded_conv_8/ArithmeticOptimizer/AddOpsRewrite_Leaf_1_add", "op": "AddN"}, {"input": ["FeatureExtractor/MobilenetV2/expanded_conv_8/project/BatchNorm/batchnorm/sub", "FeatureExtractor/MobilenetV2/expanded_conv_8/ArithmeticOptimizer/AddOpsRewrite_Leaf_1_add"], "attr": {"_grappler:ArithmeticOptimizer:AddOpsRewriteStage": {"b": true}, "T": {"type": "DT_FLOAT"}}, "name": "FeatureExtractor/MobilenetV2/expanded_conv_8/ArithmeticOptimizer/AddOpsRewrite_add", "op": "Add"}, {"input": ["FeatureExtractor/MobilenetV2/expanded_conv_8/ArithmeticOptimizer/AddOpsRewrite_add", "FeatureExtractor/MobilenetV2/expanded_conv_9/expand/Conv2D/merged_input"], "attr": {"data_format": {"s": "TkhXQw=="}, "use_cudnn_on_gpu": {"b": true}, "padding": {"s": "U0FNRQ=="}, "strides": {"list": {"i": ["1", "1", "1", "1"]}}, "T": {"type": "DT_FLOAT"}, "dilations": {"list": {"i": ["1", "1", "1", "1"]}}}, "name": "FeatureExtractor/MobilenetV2/expanded_conv_9/expand/BatchNorm/batchnorm/mul_1", "op": "Conv2D"}, {"input": ["FeatureExtractor/MobilenetV2/expanded_conv_9/expand/BatchNorm/batchnorm/mul_1", "FeatureExtractor/MobilenetV2/expanded_conv_9/expand/BatchNorm/batchnorm/sub"], "attr": {"T": {"type": "DT_FLOAT"}}, "name": "FeatureExtractor/MobilenetV2/expanded_conv_9/expand/BatchNorm/batchnorm/add_1", "op": "Add"}, {"input": ["FeatureExtractor/MobilenetV2/expanded_conv_9/expand/BatchNorm/batchnorm/add_1"], "attr": {"T": {"type": "DT_FLOAT"}}, "name": "FeatureExtractor/MobilenetV2/expanded_conv_9/expand/Relu6", "op": "Relu6"}, {"input": ["FeatureExtractor/MobilenetV2/expanded_conv_9/expand/Relu6", "FeatureExtractor/MobilenetV2/expanded_conv_9/depthwise/depthwise_weights"], "attr": {"padding": {"s": "U0FNRQ=="}, "strides": {"list": {"i": ["1", "1", "1", "1"]}}, "dilations": {"list": {"i": ["1", "1", "1", "1"]}}, "T": {"type": "DT_FLOAT"}, "data_format": {"s": "TkhXQw=="}}, "name": "FeatureExtractor/MobilenetV2/expanded_conv_9/depthwise/depthwise", "op": "DepthwiseConv2dNative"}, {"input": ["FeatureExtractor/MobilenetV2/expanded_conv_9/depthwise/depthwise", "FeatureExtractor/MobilenetV2/expanded_conv_9/depthwise/BatchNorm/batchnorm/mul"], "attr": {"T": {"type": "DT_FLOAT"}}, "name": "FeatureExtractor/MobilenetV2/expanded_conv_9/depthwise/BatchNorm/batchnorm/mul_1", "op": "Mul"}, {"input": ["FeatureExtractor/MobilenetV2/expanded_conv_9/depthwise/BatchNorm/batchnorm/mul_1", "FeatureExtractor/MobilenetV2/expanded_conv_9/depthwise/BatchNorm/batchnorm/sub"], "attr": {"T": {"type": "DT_FLOAT"}}, "name": "FeatureExtractor/MobilenetV2/expanded_conv_9/depthwise/BatchNorm/batchnorm/add_1", "op": "Add"}, {"input": ["FeatureExtractor/MobilenetV2/expanded_conv_9/depthwise/BatchNorm/batchnorm/add_1"], "attr": {"T": {"type": "DT_FLOAT"}}, "name": "FeatureExtractor/MobilenetV2/expanded_conv_9/depthwise/Relu6", "op": "Relu6"}, {"input": ["FeatureExtractor/MobilenetV2/expanded_conv_9/depthwise/Relu6", "FeatureExtractor/MobilenetV2/expanded_conv_9/project/Conv2D/merged_input"], "attr": {"data_format": {"s": "TkhXQw=="}, "use_cudnn_on_gpu": {"b": true}, "padding": {"s": "U0FNRQ=="}, "strides": {"list": {"i": ["1", "1", "1", "1"]}}, "T": {"type": "DT_FLOAT"}, "dilations": {"list": {"i": ["1", "1", "1", "1"]}}}, "name": "FeatureExtractor/MobilenetV2/expanded_conv_9/project/BatchNorm/batchnorm/mul_1", "op": "Conv2D"}, {"input": ["FeatureExtractor/MobilenetV2/expanded_conv_9/project/BatchNorm/batchnorm/mul_1", "FeatureExtractor/MobilenetV2/expanded_conv_8/ArithmeticOptimizer/AddOpsRewrite_add"], "attr": {"_grappler:ArithmeticOptimizer:AddOpsRewriteStage": {"b": true}, "T": {"type": "DT_FLOAT"}, "N": {"i": "2"}}, "name": "FeatureExtractor/MobilenetV2/expanded_conv_9/ArithmeticOptimizer/AddOpsRewrite_Leaf_1_add", "op": "AddN"}, {"input": ["FeatureExtractor/MobilenetV2/expanded_conv_9/project/BatchNorm/batchnorm/sub", "FeatureExtractor/MobilenetV2/expanded_conv_9/ArithmeticOptimizer/AddOpsRewrite_Leaf_1_add"], "attr": {"_grappler:ArithmeticOptimizer:AddOpsRewriteStage": {"b": true}, "T": {"type": "DT_FLOAT"}}, "name": "FeatureExtractor/MobilenetV2/expanded_conv_9/ArithmeticOptimizer/AddOpsRewrite_add", "op": "Add"}, {"input": ["FeatureExtractor/MobilenetV2/expanded_conv_9/ArithmeticOptimizer/AddOpsRewrite_add", "FeatureExtractor/MobilenetV2/expanded_conv_10/expand/Conv2D/merged_input"], "attr": {"data_format": {"s": "TkhXQw=="}, "use_cudnn_on_gpu": {"b": true}, "padding": {"s": "U0FNRQ=="}, "strides": {"list": {"i": ["1", "1", "1", "1"]}}, "T": {"type": "DT_FLOAT"}, "dilations": {"list": {"i": ["1", "1", "1", "1"]}}}, "name": "FeatureExtractor/MobilenetV2/expanded_conv_10/expand/BatchNorm/batchnorm/mul_1", "op": "Conv2D"}, {"input": ["FeatureExtractor/MobilenetV2/expanded_conv_10/expand/BatchNorm/batchnorm/mul_1", "FeatureExtractor/MobilenetV2/expanded_conv_10/expand/BatchNorm/batchnorm/sub"], "attr": {"T": {"type": "DT_FLOAT"}}, "name": "FeatureExtractor/MobilenetV2/expanded_conv_10/expand/BatchNorm/batchnorm/add_1", "op": "Add"}, {"input": ["FeatureExtractor/MobilenetV2/expanded_conv_10/expand/BatchNorm/batchnorm/add_1"], "attr": {"T": {"type": "DT_FLOAT"}}, "name": "FeatureExtractor/MobilenetV2/expanded_conv_10/expand/Relu6", "op": "Relu6"}, {"input": ["FeatureExtractor/MobilenetV2/expanded_conv_10/expand/Relu6", "FeatureExtractor/MobilenetV2/expanded_conv_10/depthwise/depthwise_weights"], "attr": {"padding": {"s": "U0FNRQ=="}, "dilations": {"list": {"i": ["1", "1", "1", "1"]}}, "strides": {"list": {"i": ["1", "1", "1", "1"]}}, "T": {"type": "DT_FLOAT"}, "data_format": {"s": "TkhXQw=="}}, "name": "FeatureExtractor/MobilenetV2/expanded_conv_10/depthwise/depthwise", "op": "DepthwiseConv2dNative"}, {"input": ["FeatureExtractor/MobilenetV2/expanded_conv_10/depthwise/depthwise", "FeatureExtractor/MobilenetV2/expanded_conv_10/depthwise/BatchNorm/batchnorm/mul"], "attr": {"T": {"type": "DT_FLOAT"}}, "name": "FeatureExtractor/MobilenetV2/expanded_conv_10/depthwise/BatchNorm/batchnorm/mul_1", "op": "Mul"}, {"input": ["FeatureExtractor/MobilenetV2/expanded_conv_10/depthwise/BatchNorm/batchnorm/mul_1", "FeatureExtractor/MobilenetV2/expanded_conv_10/depthwise/BatchNorm/batchnorm/sub"], "attr": {"T": {"type": "DT_FLOAT"}}, "name": "FeatureExtractor/MobilenetV2/expanded_conv_10/depthwise/BatchNorm/batchnorm/add_1", "op": "Add"}, {"input": ["FeatureExtractor/MobilenetV2/expanded_conv_10/depthwise/BatchNorm/batchnorm/add_1"], "attr": {"T": {"type": "DT_FLOAT"}}, "name": "FeatureExtractor/MobilenetV2/expanded_conv_10/depthwise/Relu6", "op": "Relu6"}, {"input": ["FeatureExtractor/MobilenetV2/expanded_conv_10/depthwise/Relu6", "FeatureExtractor/MobilenetV2/expanded_conv_10/project/Conv2D/merged_input"], "attr": {"data_format": {"s": "TkhXQw=="}, "use_cudnn_on_gpu": {"b": true}, "padding": {"s": "U0FNRQ=="}, "strides": {"list": {"i": ["1", "1", "1", "1"]}}, "T": {"type": "DT_FLOAT"}, "dilations": {"list": {"i": ["1", "1", "1", "1"]}}}, "name": "FeatureExtractor/MobilenetV2/expanded_conv_10/project/BatchNorm/batchnorm/mul_1", "op": "Conv2D"}, {"input": ["FeatureExtractor/MobilenetV2/expanded_conv_10/project/BatchNorm/batchnorm/mul_1", "FeatureExtractor/MobilenetV2/expanded_conv_10/project/BatchNorm/batchnorm/sub"], "attr": {"T": {"type": "DT_FLOAT"}}, "name": "FeatureExtractor/MobilenetV2/expanded_conv_10/project/BatchNorm/batchnorm/add_1", "op": "Add"}, {"input": ["FeatureExtractor/MobilenetV2/expanded_conv_10/project/BatchNorm/batchnorm/add_1", "FeatureExtractor/MobilenetV2/expanded_conv_11/expand/Conv2D/merged_input"], "attr": {"data_format": {"s": "TkhXQw=="}, "use_cudnn_on_gpu": {"b": true}, "padding": {"s": "U0FNRQ=="}, "strides": {"list": {"i": ["1", "1", "1", "1"]}}, "T": {"type": "DT_FLOAT"}, "dilations": {"list": {"i": ["1", "1", "1", "1"]}}}, "name": "FeatureExtractor/MobilenetV2/expanded_conv_11/expand/BatchNorm/batchnorm/mul_1", "op": "Conv2D"}, {"input": ["FeatureExtractor/MobilenetV2/expanded_conv_11/expand/BatchNorm/batchnorm/mul_1", "FeatureExtractor/MobilenetV2/expanded_conv_11/expand/BatchNorm/batchnorm/sub"], "attr": {"T": {"type": "DT_FLOAT"}}, "name": "FeatureExtractor/MobilenetV2/expanded_conv_11/expand/BatchNorm/batchnorm/add_1", "op": "Add"}, {"input": ["FeatureExtractor/MobilenetV2/expanded_conv_11/expand/BatchNorm/batchnorm/add_1"], "attr": {"T": {"type": "DT_FLOAT"}}, "name": "FeatureExtractor/MobilenetV2/expanded_conv_11/expand/Relu6", "op": "Relu6"}, {"input": ["FeatureExtractor/MobilenetV2/expanded_conv_11/expand/Relu6", "FeatureExtractor/MobilenetV2/expanded_conv_11/depthwise/depthwise_weights"], "attr": {"padding": {"s": "U0FNRQ=="}, "strides": {"list": {"i": ["1", "1", "1", "1"]}}, "dilations": {"list": {"i": ["1", "1", "1", "1"]}}, "T": {"type": "DT_FLOAT"}, "data_format": {"s": "TkhXQw=="}}, "name": "FeatureExtractor/MobilenetV2/expanded_conv_11/depthwise/depthwise", "op": "DepthwiseConv2dNative"}, {"input": ["FeatureExtractor/MobilenetV2/expanded_conv_11/depthwise/depthwise", "FeatureExtractor/MobilenetV2/expanded_conv_11/depthwise/BatchNorm/batchnorm/mul"], "attr": {"T": {"type": "DT_FLOAT"}}, "name": "FeatureExtractor/MobilenetV2/expanded_conv_11/depthwise/BatchNorm/batchnorm/mul_1", "op": "Mul"}, {"input": ["FeatureExtractor/MobilenetV2/expanded_conv_11/depthwise/BatchNorm/batchnorm/mul_1", "FeatureExtractor/MobilenetV2/expanded_conv_11/depthwise/BatchNorm/batchnorm/sub"], "attr": {"T": {"type": "DT_FLOAT"}}, "name": "FeatureExtractor/MobilenetV2/expanded_conv_11/depthwise/BatchNorm/batchnorm/add_1", "op": "Add"}, {"input": ["FeatureExtractor/MobilenetV2/expanded_conv_11/depthwise/BatchNorm/batchnorm/add_1"], "attr": {"T": {"type": "DT_FLOAT"}}, "name": "FeatureExtractor/MobilenetV2/expanded_conv_11/depthwise/Relu6", "op": "Relu6"}, {"input": ["FeatureExtractor/MobilenetV2/expanded_conv_11/depthwise/Relu6", "FeatureExtractor/MobilenetV2/expanded_conv_11/project/Conv2D/merged_input"], "attr": {"data_format": {"s": "TkhXQw=="}, "use_cudnn_on_gpu": {"b": true}, "padding": {"s": "U0FNRQ=="}, "strides": {"list": {"i": ["1", "1", "1", "1"]}}, "T": {"type": "DT_FLOAT"}, "dilations": {"list": {"i": ["1", "1", "1", "1"]}}}, "name": "FeatureExtractor/MobilenetV2/expanded_conv_11/project/BatchNorm/batchnorm/mul_1", "op": "Conv2D"}, {"input": ["FeatureExtractor/MobilenetV2/expanded_conv_11/project/BatchNorm/batchnorm/mul_1", "FeatureExtractor/MobilenetV2/expanded_conv_10/project/BatchNorm/batchnorm/add_1"], "attr": {"_grappler:ArithmeticOptimizer:AddOpsRewriteStage": {"b": true}, "T": {"type": "DT_FLOAT"}, "N": {"i": "2"}}, "name": "FeatureExtractor/MobilenetV2/expanded_conv_11/ArithmeticOptimizer/AddOpsRewrite_Leaf_1_add", "op": "AddN"}, {"input": ["FeatureExtractor/MobilenetV2/expanded_conv_11/project/BatchNorm/batchnorm/sub", "FeatureExtractor/MobilenetV2/expanded_conv_11/ArithmeticOptimizer/AddOpsRewrite_Leaf_1_add"], "attr": {"_grappler:ArithmeticOptimizer:AddOpsRewriteStage": {"b": true}, "T": {"type": "DT_FLOAT"}}, "name": "FeatureExtractor/MobilenetV2/expanded_conv_11/ArithmeticOptimizer/AddOpsRewrite_add", "op": "Add"}, {"input": ["FeatureExtractor/MobilenetV2/expanded_conv_11/ArithmeticOptimizer/AddOpsRewrite_add", "FeatureExtractor/MobilenetV2/expanded_conv_12/expand/Conv2D/merged_input"], "attr": {"data_format": {"s": "TkhXQw=="}, "use_cudnn_on_gpu": {"b": true}, "padding": {"s": "U0FNRQ=="}, "strides": {"list": {"i": ["1", "1", "1", "1"]}}, "T": {"type": "DT_FLOAT"}, "dilations": {"list": {"i": ["1", "1", "1", "1"]}}}, "name": "FeatureExtractor/MobilenetV2/expanded_conv_12/expand/BatchNorm/batchnorm/mul_1", "op": "Conv2D"}, {"input": ["FeatureExtractor/MobilenetV2/expanded_conv_12/expand/BatchNorm/batchnorm/mul_1", "FeatureExtractor/MobilenetV2/expanded_conv_12/expand/BatchNorm/batchnorm/sub"], "attr": {"T": {"type": "DT_FLOAT"}}, "name": "FeatureExtractor/MobilenetV2/expanded_conv_12/expand/BatchNorm/batchnorm/add_1", "op": "Add"}, {"input": ["FeatureExtractor/MobilenetV2/expanded_conv_12/expand/BatchNorm/batchnorm/add_1"], "attr": {"T": {"type": "DT_FLOAT"}}, "name": "FeatureExtractor/MobilenetV2/expanded_conv_12/expand/Relu6", "op": "Relu6"}, {"input": ["FeatureExtractor/MobilenetV2/expanded_conv_12/expand/Relu6", "FeatureExtractor/MobilenetV2/expanded_conv_12/depthwise/depthwise_weights"], "attr": {"dilations": {"list": {"i": ["1", "1", "1", "1"]}}, "padding": {"s": "U0FNRQ=="}, "data_format": {"s": "TkhXQw=="}, "T": {"type": "DT_FLOAT"}, "strides": {"list": {"i": ["1", "1", "1", "1"]}}}, "name": "FeatureExtractor/MobilenetV2/expanded_conv_12/depthwise/depthwise", "op": "DepthwiseConv2dNative"}, {"input": ["FeatureExtractor/MobilenetV2/expanded_conv_12/depthwise/depthwise", "FeatureExtractor/MobilenetV2/expanded_conv_12/depthwise/BatchNorm/batchnorm/mul"], "attr": {"T": {"type": "DT_FLOAT"}}, "name": "FeatureExtractor/MobilenetV2/expanded_conv_12/depthwise/BatchNorm/batchnorm/mul_1", "op": "Mul"}, {"input": ["FeatureExtractor/MobilenetV2/expanded_conv_12/depthwise/BatchNorm/batchnorm/mul_1", "FeatureExtractor/MobilenetV2/expanded_conv_12/depthwise/BatchNorm/batchnorm/sub"], "attr": {"T": {"type": "DT_FLOAT"}}, "name": "FeatureExtractor/MobilenetV2/expanded_conv_12/depthwise/BatchNorm/batchnorm/add_1", "op": "Add"}, {"input": ["FeatureExtractor/MobilenetV2/expanded_conv_12/depthwise/BatchNorm/batchnorm/add_1"], "attr": {"T": {"type": "DT_FLOAT"}}, "name": "FeatureExtractor/MobilenetV2/expanded_conv_12/depthwise/Relu6", "op": "Relu6"}, {"input": ["FeatureExtractor/MobilenetV2/expanded_conv_12/depthwise/Relu6", "FeatureExtractor/MobilenetV2/expanded_conv_12/project/Conv2D/merged_input"], "attr": {"data_format": {"s": "TkhXQw=="}, "use_cudnn_on_gpu": {"b": true}, "padding": {"s": "U0FNRQ=="}, "strides": {"list": {"i": ["1", "1", "1", "1"]}}, "T": {"type": "DT_FLOAT"}, "dilations": {"list": {"i": ["1", "1", "1", "1"]}}}, "name": "FeatureExtractor/MobilenetV2/expanded_conv_12/project/BatchNorm/batchnorm/mul_1", "op": "Conv2D"}, {"input": ["FeatureExtractor/MobilenetV2/expanded_conv_12/project/BatchNorm/batchnorm/mul_1", "FeatureExtractor/MobilenetV2/expanded_conv_11/ArithmeticOptimizer/AddOpsRewrite_add"], "attr": {"_grappler:ArithmeticOptimizer:AddOpsRewriteStage": {"b": true}, "T": {"type": "DT_FLOAT"}, "N": {"i": "2"}}, "name": "FeatureExtractor/MobilenetV2/expanded_conv_12/ArithmeticOptimizer/AddOpsRewrite_Leaf_1_add", "op": "AddN"}, {"input": ["FeatureExtractor/MobilenetV2/expanded_conv_12/project/BatchNorm/batchnorm/sub", "FeatureExtractor/MobilenetV2/expanded_conv_12/ArithmeticOptimizer/AddOpsRewrite_Leaf_1_add"], "attr": {"_grappler:ArithmeticOptimizer:AddOpsRewriteStage": {"b": true}, "T": {"type": "DT_FLOAT"}}, "name": "FeatureExtractor/MobilenetV2/expanded_conv_12/ArithmeticOptimizer/AddOpsRewrite_add", "op": "Add"}, {"input": ["FeatureExtractor/MobilenetV2/expanded_conv_12/ArithmeticOptimizer/AddOpsRewrite_add", "FeatureExtractor/MobilenetV2/expanded_conv_13/expand/Conv2D/merged_input"], "attr": {"data_format": {"s": "TkhXQw=="}, "use_cudnn_on_gpu": {"b": true}, "padding": {"s": "U0FNRQ=="}, "strides": {"list": {"i": ["1", "1", "1", "1"]}}, "T": {"type": "DT_FLOAT"}, "dilations": {"list": {"i": ["1", "1", "1", "1"]}}}, "name": "FeatureExtractor/MobilenetV2/expanded_conv_13/expand/BatchNorm/batchnorm/mul_1", "op": "Conv2D"}, {"input": ["FeatureExtractor/MobilenetV2/expanded_conv_13/expand/BatchNorm/batchnorm/mul_1", "FeatureExtractor/MobilenetV2/expanded_conv_13/expand/BatchNorm/batchnorm/sub"], "attr": {"T": {"type": "DT_FLOAT"}}, "name": "FeatureExtractor/MobilenetV2/expanded_conv_13/expand/BatchNorm/batchnorm/add_1", "op": "Add"}, {"input": ["FeatureExtractor/MobilenetV2/expanded_conv_13/expand/BatchNorm/batchnorm/add_1"], "attr": {"T": {"type": "DT_FLOAT"}}, "name": "FeatureExtractor/MobilenetV2/expanded_conv_13/expand/Relu6", "op": "Relu6"}, {"input": ["FeatureExtractor/MobilenetV2/expanded_conv_13/expand/Relu6", "FeatureExtractor/MobilenetV2/expanded_conv_13/depthwise/depthwise_weights"], "attr": {"dilations": {"list": {"i": ["1", "1", "1", "1"]}}, "padding": {"s": "U0FNRQ=="}, "strides": {"list": {"i": ["1", "2", "2", "1"]}}, "T": {"type": "DT_FLOAT"}, "data_format": {"s": "TkhXQw=="}}, "name": "FeatureExtractor/MobilenetV2/expanded_conv_13/depthwise/depthwise", "op": "DepthwiseConv2dNative"}, {"input": ["FeatureExtractor/MobilenetV2/expanded_conv_13/expand/Relu6"], "attr": {"out_type": {"type": "DT_INT32"}, "T": {"type": "DT_FLOAT"}}, "name": "BoxPredictor_0/Shape", "op": "Shape"}, {"input": ["FeatureExtractor/MobilenetV2/expanded_conv_13/expand/Relu6", "BoxPredictor_0/ClassPredictor_depthwise/depthwise_weights"], "attr": {"dilations": {"list": {"i": ["1", "1", "1", "1"]}}, "padding": {"s": "U0FNRQ=="}, "data_format": {"s": "TkhXQw=="}, "T": {"type": "DT_FLOAT"}, "strides": {"list": {"i": ["1", "1", "1", "1"]}}}, "name": "BoxPredictor_0/ClassPredictor_depthwise/depthwise", "op": "DepthwiseConv2dNative"}, {"input": ["FeatureExtractor/MobilenetV2/expanded_conv_13/expand/Relu6", "BoxPredictor_0/BoxEncodingPredictor_depthwise/depthwise_weights"], "attr": {"dilations": {"list": {"i": ["1", "1", "1", "1"]}}, "strides": {"list": {"i": ["1", "1", "1", "1"]}}, "padding": {"s": "U0FNRQ=="}, "data_format": {"s": "TkhXQw=="}, "T": {"type": "DT_FLOAT"}}, "name": "BoxPredictor_0/BoxEncodingPredictor_depthwise/depthwise", "op": "DepthwiseConv2dNative"}, {"input": ["FeatureExtractor/MobilenetV2/expanded_conv_13/depthwise/depthwise", "FeatureExtractor/MobilenetV2/expanded_conv_13/depthwise/BatchNorm/batchnorm/mul"], "attr": {"T": {"type": "DT_FLOAT"}}, "name": "FeatureExtractor/MobilenetV2/expanded_conv_13/depthwise/BatchNorm/batchnorm/mul_1", "op": "Mul"}, {"input": ["BoxPredictor_0/Shape", "Postprocessor/strided_slice/stack", "Postprocessor/strided_slice/stack_1", "Postprocessor/strided_slice/stack_1"], "attr": {"new_axis_mask": {"i": "0"}, "Index": {"type": "DT_INT32"}, "begin_mask": {"i": "0"}, "ellipsis_mask": {"i": "0"}, "end_mask": {"i": "0"}, "T": {"type": "DT_INT32"}, "shrink_axis_mask": {"i": "1"}}, "name": "BoxPredictor_0/strided_slice", "op": "StridedSlice"}, {"input": ["BoxPredictor_0/ClassPredictor_depthwise/depthwise", "BoxPredictor_0/ClassPredictor_depthwise/BatchNorm/FusedBatchNorm/Scaled"], "attr": {"T": {"type": "DT_FLOAT"}}, "name": "BoxPredictor_0/ClassPredictor_depthwise/BatchNorm/FusedBatchNorm/Mul", "op": "Mul"}, {"input": ["BoxPredictor_0/BoxEncodingPredictor_depthwise/depthwise", "BoxPredictor_0/BoxEncodingPredictor_depthwise/BatchNorm/FusedBatchNorm/Scaled"], "attr": {"T": {"type": "DT_FLOAT"}}, "name": "BoxPredictor_0/BoxEncodingPredictor_depthwise/BatchNorm/FusedBatchNorm/Mul", "op": "Mul"}, {"input": ["FeatureExtractor/MobilenetV2/expanded_conv_13/depthwise/BatchNorm/batchnorm/mul_1", "FeatureExtractor/MobilenetV2/expanded_conv_13/depthwise/BatchNorm/batchnorm/sub"], "attr": {"T": {"type": "DT_FLOAT"}}, "name": "FeatureExtractor/MobilenetV2/expanded_conv_13/depthwise/BatchNorm/batchnorm/add_1", "op": "Add"}, {"input": ["BoxPredictor_0/strided_slice", "BoxPredictor_0/stack/1", "BoxPredictor_0/stack_1/2"], "attr": {"axis": {"i": "0"}, "T": {"type": "DT_INT32"}, "N": {"i": "3"}}, "name": "BoxPredictor_0/stack_1", "op": "Pack"}, {"input": ["BoxPredictor_0/strided_slice", "BoxPredictor_0/stack/1", "Postprocessor/Tile/multiples/1", "BoxPredictor_0/stack/3"], "attr": {"N": {"i": "4"}, "T": {"type": "DT_INT32"}, "axis": {"i": "0"}}, "name": "BoxPredictor_0/stack", "op": "Pack"}, {"input": ["BoxPredictor_0/ClassPredictor_depthwise/BatchNorm/FusedBatchNorm/Mul", "BoxPredictor_0/ClassPredictor_depthwise/BatchNorm/FusedBatchNorm/Offset"], "attr": {"T": {"type": "DT_FLOAT"}}, "name": "BoxPredictor_0/ClassPredictor_depthwise/BatchNorm/FusedBatchNorm", "op": "Add"}, {"input": ["BoxPredictor_0/BoxEncodingPredictor_depthwise/BatchNorm/FusedBatchNorm/Mul", "BoxPredictor_0/BoxEncodingPredictor_depthwise/BatchNorm/FusedBatchNorm/Offset"], "attr": {"T": {"type": "DT_FLOAT"}}, "name": "BoxPredictor_0/BoxEncodingPredictor_depthwise/BatchNorm/FusedBatchNorm", "op": "Add"}, {"input": ["FeatureExtractor/MobilenetV2/expanded_conv_13/depthwise/BatchNorm/batchnorm/add_1"], "attr": {"T": {"type": "DT_FLOAT"}}, "name": "FeatureExtractor/MobilenetV2/expanded_conv_13/depthwise/Relu6", "op": "Relu6"}, {"input": ["BoxPredictor_0/ClassPredictor_depthwise/BatchNorm/FusedBatchNorm"], "attr": {"T": {"type": "DT_FLOAT"}}, "name": "BoxPredictor_0/ClassPredictor_depthwise/Relu6", "op": "Relu6"}, {"input": ["BoxPredictor_0/BoxEncodingPredictor_depthwise/BatchNorm/FusedBatchNorm"], "attr": {"T": {"type": "DT_FLOAT"}}, "name": "BoxPredictor_0/BoxEncodingPredictor_depthwise/Relu6", "op": "Relu6"}, {"input": ["FeatureExtractor/MobilenetV2/expanded_conv_13/depthwise/Relu6", "FeatureExtractor/MobilenetV2/expanded_conv_13/project/Conv2D/merged_input"], "attr": {"data_format": {"s": "TkhXQw=="}, "use_cudnn_on_gpu": {"b": true}, "padding": {"s": "U0FNRQ=="}, "strides": {"list": {"i": ["1", "1", "1", "1"]}}, "T": {"type": "DT_FLOAT"}, "dilations": {"list": {"i": ["1", "1", "1", "1"]}}}, "name": "FeatureExtractor/MobilenetV2/expanded_conv_13/project/BatchNorm/batchnorm/mul_1", "op": "Conv2D"}, {"input": ["BoxPredictor_0/ClassPredictor_depthwise/Relu6", "BoxPredictor_0/ClassPredictor/weights"], "attr": {"data_format": {"s": "TkhXQw=="}, "use_cudnn_on_gpu": {"b": true}, "padding": {"s": "U0FNRQ=="}, "strides": {"list": {"i": ["1", "1", "1", "1"]}}, "T": {"type": "DT_FLOAT"}, "dilations": {"list": {"i": ["1", "1", "1", "1"]}}}, "name": "BoxPredictor_0/ClassPredictor/Conv2D", "op": "Conv2D"}, {"input": ["BoxPredictor_0/BoxEncodingPredictor_depthwise/Relu6", "BoxPredictor_0/BoxEncodingPredictor/weights"], "attr": {"data_format": {"s": "TkhXQw=="}, "use_cudnn_on_gpu": {"b": true}, "padding": {"s": "U0FNRQ=="}, "strides": {"list": {"i": ["1", "1", "1", "1"]}}, "T": {"type": "DT_FLOAT"}, "dilations": {"list": {"i": ["1", "1", "1", "1"]}}}, "name": "BoxPredictor_0/BoxEncodingPredictor/Conv2D", "op": "Conv2D"}, {"input": ["FeatureExtractor/MobilenetV2/expanded_conv_13/project/BatchNorm/batchnorm/mul_1", "FeatureExtractor/MobilenetV2/expanded_conv_13/project/BatchNorm/batchnorm/sub"], "attr": {"T": {"type": "DT_FLOAT"}}, "name": "FeatureExtractor/MobilenetV2/expanded_conv_13/project/BatchNorm/batchnorm/add_1", "op": "Add"}, {"input": ["BoxPredictor_0/ClassPredictor/Conv2D", "BoxPredictor_0/ClassPredictor/biases"], "attr": {"T": {"type": "DT_FLOAT"}, "data_format": {"s": "TkhXQw=="}}, "name": "BoxPredictor_0/ClassPredictor/BiasAdd", "op": "BiasAdd"}, {"input": ["BoxPredictor_0/BoxEncodingPredictor/Conv2D", "BoxPredictor_0/BoxEncodingPredictor/biases"], "attr": {"T": {"type": "DT_FLOAT"}, "data_format": {"s": "TkhXQw=="}}, "name": "BoxPredictor_0/BoxEncodingPredictor/BiasAdd", "op": "BiasAdd"}, {"input": ["FeatureExtractor/MobilenetV2/expanded_conv_13/project/BatchNorm/batchnorm/add_1", "FeatureExtractor/MobilenetV2/expanded_conv_14/expand/Conv2D/merged_input"], "attr": {"data_format": {"s": "TkhXQw=="}, "use_cudnn_on_gpu": {"b": true}, "padding": {"s": "U0FNRQ=="}, "strides": {"list": {"i": ["1", "1", "1", "1"]}}, "T": {"type": "DT_FLOAT"}, "dilations": {"list": {"i": ["1", "1", "1", "1"]}}}, "name": "FeatureExtractor/MobilenetV2/expanded_conv_14/expand/BatchNorm/batchnorm/mul_1", "op": "Conv2D"}, {"input": ["BoxPredictor_0/ClassPredictor/BiasAdd", "BoxPredictor_0/stack_1"], "attr": {"T": {"type": "DT_FLOAT"}, "Tshape": {"type": "DT_INT32"}}, "name": "BoxPredictor_0/Reshape_1", "op": "Reshape"}, {"input": ["BoxPredictor_0/BoxEncodingPredictor/BiasAdd", "BoxPredictor_0/stack"], "attr": {"T": {"type": "DT_FLOAT"}, "Tshape": {"type": "DT_INT32"}}, "name": "BoxPredictor_0/Reshape", "op": "Reshape"}, {"input": ["FeatureExtractor/MobilenetV2/expanded_conv_14/expand/BatchNorm/batchnorm/mul_1", "FeatureExtractor/MobilenetV2/expanded_conv_14/expand/BatchNorm/batchnorm/sub"], "attr": {"T": {"type": "DT_FLOAT"}}, "name": "FeatureExtractor/MobilenetV2/expanded_conv_14/expand/BatchNorm/batchnorm/add_1", "op": "Add"}, {"input": ["FeatureExtractor/MobilenetV2/expanded_conv_14/expand/BatchNorm/batchnorm/add_1"], "attr": {"T": {"type": "DT_FLOAT"}}, "name": "FeatureExtractor/MobilenetV2/expanded_conv_14/expand/Relu6", "op": "Relu6"}, {"input": ["FeatureExtractor/MobilenetV2/expanded_conv_14/expand/Relu6", "FeatureExtractor/MobilenetV2/expanded_conv_14/depthwise/depthwise_weights"], "attr": {"dilations": {"list": {"i": ["1", "1", "1", "1"]}}, "padding": {"s": "U0FNRQ=="}, "strides": {"list": {"i": ["1", "1", "1", "1"]}}, "T": {"type": "DT_FLOAT"}, "data_format": {"s": "TkhXQw=="}}, "name": "FeatureExtractor/MobilenetV2/expanded_conv_14/depthwise/depthwise", "op": "DepthwiseConv2dNative"}, {"input": ["FeatureExtractor/MobilenetV2/expanded_conv_14/depthwise/depthwise", "FeatureExtractor/MobilenetV2/expanded_conv_14/depthwise/BatchNorm/batchnorm/mul"], "attr": {"T": {"type": "DT_FLOAT"}}, "name": "FeatureExtractor/MobilenetV2/expanded_conv_14/depthwise/BatchNorm/batchnorm/mul_1", "op": "Mul"}, {"input": ["FeatureExtractor/MobilenetV2/expanded_conv_14/depthwise/BatchNorm/batchnorm/mul_1", "FeatureExtractor/MobilenetV2/expanded_conv_14/depthwise/BatchNorm/batchnorm/sub"], "attr": {"T": {"type": "DT_FLOAT"}}, "name": "FeatureExtractor/MobilenetV2/expanded_conv_14/depthwise/BatchNorm/batchnorm/add_1", "op": "Add"}, {"input": ["FeatureExtractor/MobilenetV2/expanded_conv_14/depthwise/BatchNorm/batchnorm/add_1"], "attr": {"T": {"type": "DT_FLOAT"}}, "name": "FeatureExtractor/MobilenetV2/expanded_conv_14/depthwise/Relu6", "op": "Relu6"}, {"input": ["FeatureExtractor/MobilenetV2/expanded_conv_14/depthwise/Relu6", "FeatureExtractor/MobilenetV2/expanded_conv_14/project/Conv2D/merged_input"], "attr": {"data_format": {"s": "TkhXQw=="}, "use_cudnn_on_gpu": {"b": true}, "padding": {"s": "U0FNRQ=="}, "strides": {"list": {"i": ["1", "1", "1", "1"]}}, "T": {"type": "DT_FLOAT"}, "dilations": {"list": {"i": ["1", "1", "1", "1"]}}}, "name": "FeatureExtractor/MobilenetV2/expanded_conv_14/project/BatchNorm/batchnorm/mul_1", "op": "Conv2D"}, {"input": ["FeatureExtractor/MobilenetV2/expanded_conv_14/project/BatchNorm/batchnorm/mul_1", "FeatureExtractor/MobilenetV2/expanded_conv_13/project/BatchNorm/batchnorm/add_1"], "attr": {"_grappler:ArithmeticOptimizer:AddOpsRewriteStage": {"b": true}, "T": {"type": "DT_FLOAT"}, "N": {"i": "2"}}, "name": "FeatureExtractor/MobilenetV2/expanded_conv_14/ArithmeticOptimizer/AddOpsRewrite_Leaf_1_add", "op": "AddN"}, {"input": ["FeatureExtractor/MobilenetV2/expanded_conv_14/project/BatchNorm/batchnorm/sub", "FeatureExtractor/MobilenetV2/expanded_conv_14/ArithmeticOptimizer/AddOpsRewrite_Leaf_1_add"], "attr": {"_grappler:ArithmeticOptimizer:AddOpsRewriteStage": {"b": true}, "T": {"type": "DT_FLOAT"}}, "name": "FeatureExtractor/MobilenetV2/expanded_conv_14/ArithmeticOptimizer/AddOpsRewrite_add", "op": "Add"}, {"input": ["FeatureExtractor/MobilenetV2/expanded_conv_14/ArithmeticOptimizer/AddOpsRewrite_add", "FeatureExtractor/MobilenetV2/expanded_conv_15/expand/Conv2D/merged_input"], "attr": {"data_format": {"s": "TkhXQw=="}, "use_cudnn_on_gpu": {"b": true}, "padding": {"s": "U0FNRQ=="}, "strides": {"list": {"i": ["1", "1", "1", "1"]}}, "T": {"type": "DT_FLOAT"}, "dilations": {"list": {"i": ["1", "1", "1", "1"]}}}, "name": "FeatureExtractor/MobilenetV2/expanded_conv_15/expand/BatchNorm/batchnorm/mul_1", "op": "Conv2D"}, {"input": ["FeatureExtractor/MobilenetV2/expanded_conv_15/expand/BatchNorm/batchnorm/mul_1", "FeatureExtractor/MobilenetV2/expanded_conv_15/expand/BatchNorm/batchnorm/sub"], "attr": {"T": {"type": "DT_FLOAT"}}, "name": "FeatureExtractor/MobilenetV2/expanded_conv_15/expand/BatchNorm/batchnorm/add_1", "op": "Add"}, {"input": ["FeatureExtractor/MobilenetV2/expanded_conv_15/expand/BatchNorm/batchnorm/add_1"], "attr": {"T": {"type": "DT_FLOAT"}}, "name": "FeatureExtractor/MobilenetV2/expanded_conv_15/expand/Relu6", "op": "Relu6"}, {"input": ["FeatureExtractor/MobilenetV2/expanded_conv_15/expand/Relu6", "FeatureExtractor/MobilenetV2/expanded_conv_15/depthwise/depthwise_weights"], "attr": {"padding": {"s": "U0FNRQ=="}, "dilations": {"list": {"i": ["1", "1", "1", "1"]}}, "data_format": {"s": "TkhXQw=="}, "T": {"type": "DT_FLOAT"}, "strides": {"list": {"i": ["1", "1", "1", "1"]}}}, "name": "FeatureExtractor/MobilenetV2/expanded_conv_15/depthwise/depthwise", "op": "DepthwiseConv2dNative"}, {"input": ["FeatureExtractor/MobilenetV2/expanded_conv_15/depthwise/depthwise", "FeatureExtractor/MobilenetV2/expanded_conv_15/depthwise/BatchNorm/batchnorm/mul"], "attr": {"T": {"type": "DT_FLOAT"}}, "name": "FeatureExtractor/MobilenetV2/expanded_conv_15/depthwise/BatchNorm/batchnorm/mul_1", "op": "Mul"}, {"input": ["FeatureExtractor/MobilenetV2/expanded_conv_15/depthwise/BatchNorm/batchnorm/mul_1", "FeatureExtractor/MobilenetV2/expanded_conv_15/depthwise/BatchNorm/batchnorm/sub"], "attr": {"T": {"type": "DT_FLOAT"}}, "name": "FeatureExtractor/MobilenetV2/expanded_conv_15/depthwise/BatchNorm/batchnorm/add_1", "op": "Add"}, {"input": ["FeatureExtractor/MobilenetV2/expanded_conv_15/depthwise/BatchNorm/batchnorm/add_1"], "attr": {"T": {"type": "DT_FLOAT"}}, "name": "FeatureExtractor/MobilenetV2/expanded_conv_15/depthwise/Relu6", "op": "Relu6"}, {"input": ["FeatureExtractor/MobilenetV2/expanded_conv_15/depthwise/Relu6", "FeatureExtractor/MobilenetV2/expanded_conv_15/project/Conv2D/merged_input"], "attr": {"data_format": {"s": "TkhXQw=="}, "use_cudnn_on_gpu": {"b": true}, "padding": {"s": "U0FNRQ=="}, "strides": {"list": {"i": ["1", "1", "1", "1"]}}, "T": {"type": "DT_FLOAT"}, "dilations": {"list": {"i": ["1", "1", "1", "1"]}}}, "name": "FeatureExtractor/MobilenetV2/expanded_conv_15/project/BatchNorm/batchnorm/mul_1", "op": "Conv2D"}, {"input": ["FeatureExtractor/MobilenetV2/expanded_conv_15/project/BatchNorm/batchnorm/mul_1", "FeatureExtractor/MobilenetV2/expanded_conv_14/ArithmeticOptimizer/AddOpsRewrite_add"], "attr": {"_grappler:ArithmeticOptimizer:AddOpsRewriteStage": {"b": true}, "T": {"type": "DT_FLOAT"}, "N": {"i": "2"}}, "name": "FeatureExtractor/MobilenetV2/expanded_conv_15/ArithmeticOptimizer/AddOpsRewrite_Leaf_1_add", "op": "AddN"}, {"input": ["FeatureExtractor/MobilenetV2/expanded_conv_15/project/BatchNorm/batchnorm/sub", "FeatureExtractor/MobilenetV2/expanded_conv_15/ArithmeticOptimizer/AddOpsRewrite_Leaf_1_add"], "attr": {"_grappler:ArithmeticOptimizer:AddOpsRewriteStage": {"b": true}, "T": {"type": "DT_FLOAT"}}, "name": "FeatureExtractor/MobilenetV2/expanded_conv_15/ArithmeticOptimizer/AddOpsRewrite_add", "op": "Add"}, {"input": ["FeatureExtractor/MobilenetV2/expanded_conv_15/ArithmeticOptimizer/AddOpsRewrite_add", "FeatureExtractor/MobilenetV2/expanded_conv_16/expand/Conv2D/merged_input"], "attr": {"data_format": {"s": "TkhXQw=="}, "use_cudnn_on_gpu": {"b": true}, "padding": {"s": "U0FNRQ=="}, "strides": {"list": {"i": ["1", "1", "1", "1"]}}, "T": {"type": "DT_FLOAT"}, "dilations": {"list": {"i": ["1", "1", "1", "1"]}}}, "name": "FeatureExtractor/MobilenetV2/expanded_conv_16/expand/BatchNorm/batchnorm/mul_1", "op": "Conv2D"}, {"input": ["FeatureExtractor/MobilenetV2/expanded_conv_16/expand/BatchNorm/batchnorm/mul_1", "FeatureExtractor/MobilenetV2/expanded_conv_16/expand/BatchNorm/batchnorm/sub"], "attr": {"T": {"type": "DT_FLOAT"}}, "name": "FeatureExtractor/MobilenetV2/expanded_conv_16/expand/BatchNorm/batchnorm/add_1", "op": "Add"}, {"input": ["FeatureExtractor/MobilenetV2/expanded_conv_16/expand/BatchNorm/batchnorm/add_1"], "attr": {"T": {"type": "DT_FLOAT"}}, "name": "FeatureExtractor/MobilenetV2/expanded_conv_16/expand/Relu6", "op": "Relu6"}, {"input": ["FeatureExtractor/MobilenetV2/expanded_conv_16/expand/Relu6", "FeatureExtractor/MobilenetV2/expanded_conv_16/depthwise/depthwise_weights"], "attr": {"dilations": {"list": {"i": ["1", "1", "1", "1"]}}, "strides": {"list": {"i": ["1", "1", "1", "1"]}}, "padding": {"s": "U0FNRQ=="}, "T": {"type": "DT_FLOAT"}, "data_format": {"s": "TkhXQw=="}}, "name": "FeatureExtractor/MobilenetV2/expanded_conv_16/depthwise/depthwise", "op": "DepthwiseConv2dNative"}, {"input": ["FeatureExtractor/MobilenetV2/expanded_conv_16/depthwise/depthwise", "FeatureExtractor/MobilenetV2/expanded_conv_16/depthwise/BatchNorm/batchnorm/mul"], "attr": {"T": {"type": "DT_FLOAT"}}, "name": "FeatureExtractor/MobilenetV2/expanded_conv_16/depthwise/BatchNorm/batchnorm/mul_1", "op": "Mul"}, {"input": ["FeatureExtractor/MobilenetV2/expanded_conv_16/depthwise/BatchNorm/batchnorm/mul_1", "FeatureExtractor/MobilenetV2/expanded_conv_16/depthwise/BatchNorm/batchnorm/sub"], "attr": {"T": {"type": "DT_FLOAT"}}, "name": "FeatureExtractor/MobilenetV2/expanded_conv_16/depthwise/BatchNorm/batchnorm/add_1", "op": "Add"}, {"input": ["FeatureExtractor/MobilenetV2/expanded_conv_16/depthwise/BatchNorm/batchnorm/add_1"], "attr": {"T": {"type": "DT_FLOAT"}}, "name": "FeatureExtractor/MobilenetV2/expanded_conv_16/depthwise/Relu6", "op": "Relu6"}, {"input": ["FeatureExtractor/MobilenetV2/expanded_conv_16/depthwise/Relu6", "FeatureExtractor/MobilenetV2/expanded_conv_16/project/Conv2D/merged_input"], "attr": {"data_format": {"s": "TkhXQw=="}, "use_cudnn_on_gpu": {"b": true}, "padding": {"s": "U0FNRQ=="}, "strides": {"list": {"i": ["1", "1", "1", "1"]}}, "T": {"type": "DT_FLOAT"}, "dilations": {"list": {"i": ["1", "1", "1", "1"]}}}, "name": "FeatureExtractor/MobilenetV2/expanded_conv_16/project/BatchNorm/batchnorm/mul_1", "op": "Conv2D"}, {"input": ["FeatureExtractor/MobilenetV2/expanded_conv_16/project/BatchNorm/batchnorm/mul_1", "FeatureExtractor/MobilenetV2/expanded_conv_16/project/BatchNorm/batchnorm/sub"], "attr": {"T": {"type": "DT_FLOAT"}}, "name": "FeatureExtractor/MobilenetV2/expanded_conv_16/project/BatchNorm/batchnorm/add_1", "op": "Add"}, {"input": ["FeatureExtractor/MobilenetV2/expanded_conv_16/project/BatchNorm/batchnorm/add_1", "FeatureExtractor/MobilenetV2/Conv_1/Conv2D/merged_input"], "attr": {"data_format": {"s": "TkhXQw=="}, "use_cudnn_on_gpu": {"b": true}, "padding": {"s": "U0FNRQ=="}, "strides": {"list": {"i": ["1", "1", "1", "1"]}}, "T": {"type": "DT_FLOAT"}, "dilations": {"list": {"i": ["1", "1", "1", "1"]}}}, "name": "FeatureExtractor/MobilenetV2/Conv_1/BatchNorm/batchnorm/mul_1", "op": "Conv2D"}, {"input": ["FeatureExtractor/MobilenetV2/Conv_1/BatchNorm/batchnorm/mul_1", "FeatureExtractor/MobilenetV2/Conv_1/BatchNorm/batchnorm/sub"], "attr": {"T": {"type": "DT_FLOAT"}}, "name": "FeatureExtractor/MobilenetV2/Conv_1/BatchNorm/batchnorm/add_1", "op": "Add"}, {"input": ["FeatureExtractor/MobilenetV2/Conv_1/BatchNorm/batchnorm/add_1"], "attr": {"T": {"type": "DT_FLOAT"}}, "name": "FeatureExtractor/MobilenetV2/Conv_1/Relu6", "op": "Relu6"}, {"input": ["FeatureExtractor/MobilenetV2/Conv_1/Relu6", "FeatureExtractor/MobilenetV2/layer_19_1_Conv2d_2_1x1_256/Conv2D/merged_input"], "attr": {"data_format": {"s": "TkhXQw=="}, "use_cudnn_on_gpu": {"b": true}, "padding": {"s": "U0FNRQ=="}, "strides": {"list": {"i": ["1", "1", "1", "1"]}}, "T": {"type": "DT_FLOAT"}, "dilations": {"list": {"i": ["1", "1", "1", "1"]}}}, "name": "FeatureExtractor/MobilenetV2/layer_19_1_Conv2d_2_1x1_256/BatchNorm/batchnorm/mul_1", "op": "Conv2D"}, {"input": ["FeatureExtractor/MobilenetV2/Conv_1/Relu6"], "attr": {"out_type": {"type": "DT_INT32"}, "T": {"type": "DT_FLOAT"}}, "name": "BoxPredictor_1/Shape", "op": "Shape"}, {"input": ["FeatureExtractor/MobilenetV2/Conv_1/Relu6", "BoxPredictor_1/ClassPredictor_depthwise/depthwise_weights"], "attr": {"dilations": {"list": {"i": ["1", "1", "1", "1"]}}, "padding": {"s": "U0FNRQ=="}, "strides": {"list": {"i": ["1", "1", "1", "1"]}}, "T": {"type": "DT_FLOAT"}, "data_format": {"s": "TkhXQw=="}}, "name": "BoxPredictor_1/ClassPredictor_depthwise/depthwise", "op": "DepthwiseConv2dNative"}, {"input": ["FeatureExtractor/MobilenetV2/Conv_1/Relu6", "BoxPredictor_1/BoxEncodingPredictor_depthwise/depthwise_weights"], "attr": {"padding": {"s": "U0FNRQ=="}, "strides": {"list": {"i": ["1", "1", "1", "1"]}}, "dilations": {"list": {"i": ["1", "1", "1", "1"]}}, "T": {"type": "DT_FLOAT"}, "data_format": {"s": "TkhXQw=="}}, "name": "BoxPredictor_1/BoxEncodingPredictor_depthwise/depthwise", "op": "DepthwiseConv2dNative"}, {"input": ["FeatureExtractor/MobilenetV2/layer_19_1_Conv2d_2_1x1_256/BatchNorm/batchnorm/mul_1", "FeatureExtractor/MobilenetV2/layer_19_1_Conv2d_2_1x1_256/BatchNorm/batchnorm/sub"], "attr": {"T": {"type": "DT_FLOAT"}}, "name": "FeatureExtractor/MobilenetV2/layer_19_1_Conv2d_2_1x1_256/BatchNorm/batchnorm/add_1", "op": "Add"}, {"input": ["BoxPredictor_1/Shape", "Postprocessor/strided_slice/stack", "Postprocessor/strided_slice/stack_1", "Postprocessor/strided_slice/stack_1"], "attr": {"new_axis_mask": {"i": "0"}, "Index": {"type": "DT_INT32"}, "begin_mask": {"i": "0"}, "ellipsis_mask": {"i": "0"}, "end_mask": {"i": "0"}, "T": {"type": "DT_INT32"}, "shrink_axis_mask": {"i": "1"}}, "name": "BoxPredictor_1/strided_slice", "op": "StridedSlice"}, {"input": ["BoxPredictor_1/ClassPredictor_depthwise/depthwise", "BoxPredictor_1/ClassPredictor_depthwise/BatchNorm/FusedBatchNorm/Scaled"], "attr": {"T": {"type": "DT_FLOAT"}}, "name": "BoxPredictor_1/ClassPredictor_depthwise/BatchNorm/FusedBatchNorm/Mul", "op": "Mul"}, {"input": ["BoxPredictor_1/BoxEncodingPredictor_depthwise/depthwise", "BoxPredictor_1/BoxEncodingPredictor_depthwise/BatchNorm/FusedBatchNorm/Scaled"], "attr": {"T": {"type": "DT_FLOAT"}}, "name": "BoxPredictor_1/BoxEncodingPredictor_depthwise/BatchNorm/FusedBatchNorm/Mul", "op": "Mul"}, {"input": ["FeatureExtractor/MobilenetV2/layer_19_1_Conv2d_2_1x1_256/BatchNorm/batchnorm/add_1"], "attr": {"T": {"type": "DT_FLOAT"}}, "name": "FeatureExtractor/MobilenetV2/layer_19_1_Conv2d_2_1x1_256/Relu6", "op": "Relu6"}, {"input": ["BoxPredictor_1/strided_slice", "BoxPredictor_1/stack/1", "BoxPredictor_0/stack_1/2"], "attr": {"axis": {"i": "0"}, "T": {"type": "DT_INT32"}, "N": {"i": "3"}}, "name": "BoxPredictor_1/stack_1", "op": "Pack"}, {"input": ["BoxPredictor_1/strided_slice", "BoxPredictor_1/stack/1", "Postprocessor/Tile/multiples/1", "BoxPredictor_0/stack/3"], "attr": {"N": {"i": "4"}, "T": {"type": "DT_INT32"}, "axis": {"i": "0"}}, "name": "BoxPredictor_1/stack", "op": "Pack"}, {"input": ["BoxPredictor_1/ClassPredictor_depthwise/BatchNorm/FusedBatchNorm/Mul", "BoxPredictor_1/ClassPredictor_depthwise/BatchNorm/FusedBatchNorm/Offset"], "attr": {"T": {"type": "DT_FLOAT"}}, "name": "BoxPredictor_1/ClassPredictor_depthwise/BatchNorm/FusedBatchNorm", "op": "Add"}, {"input": ["BoxPredictor_1/BoxEncodingPredictor_depthwise/BatchNorm/FusedBatchNorm/Mul", "BoxPredictor_1/BoxEncodingPredictor_depthwise/BatchNorm/FusedBatchNorm/Offset"], "attr": {"T": {"type": "DT_FLOAT"}}, "name": "BoxPredictor_1/BoxEncodingPredictor_depthwise/BatchNorm/FusedBatchNorm", "op": "Add"}, {"input": ["FeatureExtractor/MobilenetV2/layer_19_1_Conv2d_2_1x1_256/Relu6", "FeatureExtractor/MobilenetV2/layer_19_2_Conv2d_2_3x3_s2_512_depthwise/depthwise_weights"], "attr": {"padding": {"s": "U0FNRQ=="}, "strides": {"list": {"i": ["1", "2", "2", "1"]}}, "dilations": {"list": {"i": ["1", "1", "1", "1"]}}, "T": {"type": "DT_FLOAT"}, "data_format": {"s": "TkhXQw=="}}, "name": "FeatureExtractor/MobilenetV2/layer_19_2_Conv2d_2_3x3_s2_512_depthwise/depthwise", "op": "DepthwiseConv2dNative"}, {"input": ["BoxPredictor_1/ClassPredictor_depthwise/BatchNorm/FusedBatchNorm"], "attr": {"T": {"type": "DT_FLOAT"}}, "name": "BoxPredictor_1/ClassPredictor_depthwise/Relu6", "op": "Relu6"}, {"input": ["BoxPredictor_1/BoxEncodingPredictor_depthwise/BatchNorm/FusedBatchNorm"], "attr": {"T": {"type": "DT_FLOAT"}}, "name": "BoxPredictor_1/BoxEncodingPredictor_depthwise/Relu6", "op": "Relu6"}, {"input": ["FeatureExtractor/MobilenetV2/layer_19_2_Conv2d_2_3x3_s2_512_depthwise/depthwise", "FeatureExtractor/MobilenetV2/layer_19_2_Conv2d_2_3x3_s2_512_depthwise/BatchNorm/batchnorm/mul"], "attr": {"T": {"type": "DT_FLOAT"}}, "name": "FeatureExtractor/MobilenetV2/layer_19_2_Conv2d_2_3x3_s2_512_depthwise/BatchNorm/batchnorm/mul_1", "op": "Mul"}, {"input": ["BoxPredictor_1/ClassPredictor_depthwise/Relu6", "BoxPredictor_1/ClassPredictor/weights"], "attr": {"data_format": {"s": "TkhXQw=="}, "use_cudnn_on_gpu": {"b": true}, "padding": {"s": "U0FNRQ=="}, "strides": {"list": {"i": ["1", "1", "1", "1"]}}, "T": {"type": "DT_FLOAT"}, "dilations": {"list": {"i": ["1", "1", "1", "1"]}}}, "name": "BoxPredictor_1/ClassPredictor/Conv2D", "op": "Conv2D"}, {"input": ["BoxPredictor_1/BoxEncodingPredictor_depthwise/Relu6", "BoxPredictor_1/BoxEncodingPredictor/weights"], "attr": {"data_format": {"s": "TkhXQw=="}, "use_cudnn_on_gpu": {"b": true}, "padding": {"s": "U0FNRQ=="}, "strides": {"list": {"i": ["1", "1", "1", "1"]}}, "T": {"type": "DT_FLOAT"}, "dilations": {"list": {"i": ["1", "1", "1", "1"]}}}, "name": "BoxPredictor_1/BoxEncodingPredictor/Conv2D", "op": "Conv2D"}, {"input": ["FeatureExtractor/MobilenetV2/layer_19_2_Conv2d_2_3x3_s2_512_depthwise/BatchNorm/batchnorm/mul_1", "FeatureExtractor/MobilenetV2/layer_19_2_Conv2d_2_3x3_s2_512_depthwise/BatchNorm/batchnorm/sub"], "attr": {"T": {"type": "DT_FLOAT"}}, "name": "FeatureExtractor/MobilenetV2/layer_19_2_Conv2d_2_3x3_s2_512_depthwise/BatchNorm/batchnorm/add_1", "op": "Add"}, {"input": ["BoxPredictor_1/ClassPredictor/Conv2D", "BoxPredictor_1/ClassPredictor/biases"], "attr": {"T": {"type": "DT_FLOAT"}, "data_format": {"s": "TkhXQw=="}}, "name": "BoxPredictor_1/ClassPredictor/BiasAdd", "op": "BiasAdd"}, {"input": ["BoxPredictor_1/BoxEncodingPredictor/Conv2D", "BoxPredictor_1/BoxEncodingPredictor/biases"], "attr": {"T": {"type": "DT_FLOAT"}, "data_format": {"s": "TkhXQw=="}}, "name": "BoxPredictor_1/BoxEncodingPredictor/BiasAdd", "op": "BiasAdd"}, {"input": ["FeatureExtractor/MobilenetV2/layer_19_2_Conv2d_2_3x3_s2_512_depthwise/BatchNorm/batchnorm/add_1"], "attr": {"T": {"type": "DT_FLOAT"}}, "name": "FeatureExtractor/MobilenetV2/layer_19_2_Conv2d_2_3x3_s2_512_depthwise/Relu6", "op": "Relu6"}, {"input": ["BoxPredictor_1/ClassPredictor/BiasAdd", "BoxPredictor_1/stack_1"], "attr": {"T": {"type": "DT_FLOAT"}, "Tshape": {"type": "DT_INT32"}}, "name": "BoxPredictor_1/Reshape_1", "op": "Reshape"}, {"input": ["BoxPredictor_1/BoxEncodingPredictor/BiasAdd", "BoxPredictor_1/stack"], "attr": {"T": {"type": "DT_FLOAT"}, "Tshape": {"type": "DT_INT32"}}, "name": "BoxPredictor_1/Reshape", "op": "Reshape"}, {"input": ["FeatureExtractor/MobilenetV2/layer_19_2_Conv2d_2_3x3_s2_512_depthwise/Relu6", "FeatureExtractor/MobilenetV2/layer_19_2_Conv2d_2_3x3_s2_512/Conv2D/merged_input"], "attr": {"data_format": {"s": "TkhXQw=="}, "use_cudnn_on_gpu": {"b": true}, "padding": {"s": "U0FNRQ=="}, "strides": {"list": {"i": ["1", "1", "1", "1"]}}, "T": {"type": "DT_FLOAT"}, "dilations": {"list": {"i": ["1", "1", "1", "1"]}}}, "name": "FeatureExtractor/MobilenetV2/layer_19_2_Conv2d_2_3x3_s2_512/BatchNorm/batchnorm/mul_1", "op": "Conv2D"}, {"input": ["FeatureExtractor/MobilenetV2/layer_19_2_Conv2d_2_3x3_s2_512/BatchNorm/batchnorm/mul_1", "FeatureExtractor/MobilenetV2/layer_19_2_Conv2d_2_3x3_s2_512/BatchNorm/batchnorm/sub"], "attr": {"T": {"type": "DT_FLOAT"}}, "name": "FeatureExtractor/MobilenetV2/layer_19_2_Conv2d_2_3x3_s2_512/BatchNorm/batchnorm/add_1", "op": "Add"}, {"input": ["FeatureExtractor/MobilenetV2/layer_19_2_Conv2d_2_3x3_s2_512/BatchNorm/batchnorm/add_1"], "attr": {"T": {"type": "DT_FLOAT"}}, "name": "FeatureExtractor/MobilenetV2/layer_19_2_Conv2d_2_3x3_s2_512/Relu6", "op": "Relu6"}, {"input": ["FeatureExtractor/MobilenetV2/layer_19_2_Conv2d_2_3x3_s2_512/Relu6", "FeatureExtractor/MobilenetV2/layer_19_1_Conv2d_3_1x1_128/Conv2D/merged_input"], "attr": {"data_format": {"s": "TkhXQw=="}, "use_cudnn_on_gpu": {"b": true}, "padding": {"s": "U0FNRQ=="}, "strides": {"list": {"i": ["1", "1", "1", "1"]}}, "T": {"type": "DT_FLOAT"}, "dilations": {"list": {"i": ["1", "1", "1", "1"]}}}, "name": "FeatureExtractor/MobilenetV2/layer_19_1_Conv2d_3_1x1_128/BatchNorm/batchnorm/mul_1", "op": "Conv2D"}, {"input": ["FeatureExtractor/MobilenetV2/layer_19_2_Conv2d_2_3x3_s2_512/Relu6"], "attr": {"out_type": {"type": "DT_INT32"}, "T": {"type": "DT_FLOAT"}}, "name": "BoxPredictor_2/Shape", "op": "Shape"}, {"input": ["FeatureExtractor/MobilenetV2/layer_19_2_Conv2d_2_3x3_s2_512/Relu6", "BoxPredictor_2/ClassPredictor_depthwise/depthwise_weights"], "attr": {"padding": {"s": "U0FNRQ=="}, "strides": {"list": {"i": ["1", "1", "1", "1"]}}, "dilations": {"list": {"i": ["1", "1", "1", "1"]}}, "T": {"type": "DT_FLOAT"}, "data_format": {"s": "TkhXQw=="}}, "name": "BoxPredictor_2/ClassPredictor_depthwise/depthwise", "op": "DepthwiseConv2dNative"}, {"input": ["FeatureExtractor/MobilenetV2/layer_19_2_Conv2d_2_3x3_s2_512/Relu6", "BoxPredictor_2/BoxEncodingPredictor_depthwise/depthwise_weights"], "attr": {"padding": {"s": "U0FNRQ=="}, "strides": {"list": {"i": ["1", "1", "1", "1"]}}, "dilations": {"list": {"i": ["1", "1", "1", "1"]}}, "T": {"type": "DT_FLOAT"}, "data_format": {"s": "TkhXQw=="}}, "name": "BoxPredictor_2/BoxEncodingPredictor_depthwise/depthwise", "op": "DepthwiseConv2dNative"}, {"input": ["FeatureExtractor/MobilenetV2/layer_19_1_Conv2d_3_1x1_128/BatchNorm/batchnorm/mul_1", "FeatureExtractor/MobilenetV2/layer_19_1_Conv2d_3_1x1_128/BatchNorm/batchnorm/sub"], "attr": {"T": {"type": "DT_FLOAT"}}, "name": "FeatureExtractor/MobilenetV2/layer_19_1_Conv2d_3_1x1_128/BatchNorm/batchnorm/add_1", "op": "Add"}, {"input": ["BoxPredictor_2/Shape", "Postprocessor/strided_slice/stack", "Postprocessor/strided_slice/stack_1", "Postprocessor/strided_slice/stack_1"], "attr": {"new_axis_mask": {"i": "0"}, "Index": {"type": "DT_INT32"}, "begin_mask": {"i": "0"}, "ellipsis_mask": {"i": "0"}, "end_mask": {"i": "0"}, "T": {"type": "DT_INT32"}, "shrink_axis_mask": {"i": "1"}}, "name": "BoxPredictor_2/strided_slice", "op": "StridedSlice"}, {"input": ["BoxPredictor_2/ClassPredictor_depthwise/depthwise", "BoxPredictor_2/ClassPredictor_depthwise/BatchNorm/FusedBatchNorm/Scaled"], "attr": {"T": {"type": "DT_FLOAT"}}, "name": "BoxPredictor_2/ClassPredictor_depthwise/BatchNorm/FusedBatchNorm/Mul", "op": "Mul"}, {"input": ["BoxPredictor_2/BoxEncodingPredictor_depthwise/depthwise", "BoxPredictor_2/BoxEncodingPredictor_depthwise/BatchNorm/FusedBatchNorm/Scaled"], "attr": {"T": {"type": "DT_FLOAT"}}, "name": "BoxPredictor_2/BoxEncodingPredictor_depthwise/BatchNorm/FusedBatchNorm/Mul", "op": "Mul"}, {"input": ["FeatureExtractor/MobilenetV2/layer_19_1_Conv2d_3_1x1_128/BatchNorm/batchnorm/add_1"], "attr": {"T": {"type": "DT_FLOAT"}}, "name": "FeatureExtractor/MobilenetV2/layer_19_1_Conv2d_3_1x1_128/Relu6", "op": "Relu6"}, {"input": ["BoxPredictor_2/strided_slice", "BoxPredictor_2/stack/1", "BoxPredictor_0/stack_1/2"], "attr": {"N": {"i": "3"}, "T": {"type": "DT_INT32"}, "axis": {"i": "0"}}, "name": "BoxPredictor_2/stack_1", "op": "Pack"}, {"input": ["BoxPredictor_2/strided_slice", "BoxPredictor_2/stack/1", "Postprocessor/Tile/multiples/1", "BoxPredictor_0/stack/3"], "attr": {"N": {"i": "4"}, "T": {"type": "DT_INT32"}, "axis": {"i": "0"}}, "name": "BoxPredictor_2/stack", "op": "Pack"}, {"input": ["BoxPredictor_2/ClassPredictor_depthwise/BatchNorm/FusedBatchNorm/Mul", "BoxPredictor_2/ClassPredictor_depthwise/BatchNorm/FusedBatchNorm/Offset"], "attr": {"T": {"type": "DT_FLOAT"}}, "name": "BoxPredictor_2/ClassPredictor_depthwise/BatchNorm/FusedBatchNorm", "op": "Add"}, {"input": ["BoxPredictor_2/BoxEncodingPredictor_depthwise/BatchNorm/FusedBatchNorm/Mul", "BoxPredictor_2/BoxEncodingPredictor_depthwise/BatchNorm/FusedBatchNorm/Offset"], "attr": {"T": {"type": "DT_FLOAT"}}, "name": "BoxPredictor_2/BoxEncodingPredictor_depthwise/BatchNorm/FusedBatchNorm", "op": "Add"}, {"input": ["FeatureExtractor/MobilenetV2/layer_19_1_Conv2d_3_1x1_128/Relu6", "FeatureExtractor/MobilenetV2/layer_19_2_Conv2d_3_3x3_s2_256_depthwise/depthwise_weights"], "attr": {"padding": {"s": "U0FNRQ=="}, "dilations": {"list": {"i": ["1", "1", "1", "1"]}}, "data_format": {"s": "TkhXQw=="}, "T": {"type": "DT_FLOAT"}, "strides": {"list": {"i": ["1", "2", "2", "1"]}}}, "name": "FeatureExtractor/MobilenetV2/layer_19_2_Conv2d_3_3x3_s2_256_depthwise/depthwise", "op": "DepthwiseConv2dNative"}, {"input": ["BoxPredictor_2/ClassPredictor_depthwise/BatchNorm/FusedBatchNorm"], "attr": {"T": {"type": "DT_FLOAT"}}, "name": "BoxPredictor_2/ClassPredictor_depthwise/Relu6", "op": "Relu6"}, {"input": ["BoxPredictor_2/BoxEncodingPredictor_depthwise/BatchNorm/FusedBatchNorm"], "attr": {"T": {"type": "DT_FLOAT"}}, "name": "BoxPredictor_2/BoxEncodingPredictor_depthwise/Relu6", "op": "Relu6"}, {"input": ["FeatureExtractor/MobilenetV2/layer_19_2_Conv2d_3_3x3_s2_256_depthwise/depthwise", "FeatureExtractor/MobilenetV2/layer_19_2_Conv2d_3_3x3_s2_256_depthwise/BatchNorm/batchnorm/mul"], "attr": {"T": {"type": "DT_FLOAT"}}, "name": "FeatureExtractor/MobilenetV2/layer_19_2_Conv2d_3_3x3_s2_256_depthwise/BatchNorm/batchnorm/mul_1", "op": "Mul"}, {"input": ["BoxPredictor_2/ClassPredictor_depthwise/Relu6", "BoxPredictor_2/ClassPredictor/weights"], "attr": {"data_format": {"s": "TkhXQw=="}, "use_cudnn_on_gpu": {"b": true}, "padding": {"s": "U0FNRQ=="}, "strides": {"list": {"i": ["1", "1", "1", "1"]}}, "T": {"type": "DT_FLOAT"}, "dilations": {"list": {"i": ["1", "1", "1", "1"]}}}, "name": "BoxPredictor_2/ClassPredictor/Conv2D", "op": "Conv2D"}, {"input": ["BoxPredictor_2/BoxEncodingPredictor_depthwise/Relu6", "BoxPredictor_2/BoxEncodingPredictor/weights"], "attr": {"data_format": {"s": "TkhXQw=="}, "use_cudnn_on_gpu": {"b": true}, "padding": {"s": "U0FNRQ=="}, "strides": {"list": {"i": ["1", "1", "1", "1"]}}, "T": {"type": "DT_FLOAT"}, "dilations": {"list": {"i": ["1", "1", "1", "1"]}}}, "name": "BoxPredictor_2/BoxEncodingPredictor/Conv2D", "op": "Conv2D"}, {"input": ["FeatureExtractor/MobilenetV2/layer_19_2_Conv2d_3_3x3_s2_256_depthwise/BatchNorm/batchnorm/mul_1", "FeatureExtractor/MobilenetV2/layer_19_2_Conv2d_3_3x3_s2_256_depthwise/BatchNorm/batchnorm/sub"], "attr": {"T": {"type": "DT_FLOAT"}}, "name": "FeatureExtractor/MobilenetV2/layer_19_2_Conv2d_3_3x3_s2_256_depthwise/BatchNorm/batchnorm/add_1", "op": "Add"}, {"input": ["BoxPredictor_2/ClassPredictor/Conv2D", "BoxPredictor_2/ClassPredictor/biases"], "attr": {"T": {"type": "DT_FLOAT"}, "data_format": {"s": "TkhXQw=="}}, "name": "BoxPredictor_2/ClassPredictor/BiasAdd", "op": "BiasAdd"}, {"input": ["BoxPredictor_2/BoxEncodingPredictor/Conv2D", "BoxPredictor_2/BoxEncodingPredictor/biases"], "attr": {"T": {"type": "DT_FLOAT"}, "data_format": {"s": "TkhXQw=="}}, "name": "BoxPredictor_2/BoxEncodingPredictor/BiasAdd", "op": "BiasAdd"}, {"input": ["FeatureExtractor/MobilenetV2/layer_19_2_Conv2d_3_3x3_s2_256_depthwise/BatchNorm/batchnorm/add_1"], "attr": {"T": {"type": "DT_FLOAT"}}, "name": "FeatureExtractor/MobilenetV2/layer_19_2_Conv2d_3_3x3_s2_256_depthwise/Relu6", "op": "Relu6"}, {"input": ["BoxPredictor_2/ClassPredictor/BiasAdd", "BoxPredictor_2/stack_1"], "attr": {"T": {"type": "DT_FLOAT"}, "Tshape": {"type": "DT_INT32"}}, "name": "BoxPredictor_2/Reshape_1", "op": "Reshape"}, {"input": ["BoxPredictor_2/BoxEncodingPredictor/BiasAdd", "BoxPredictor_2/stack"], "attr": {"T": {"type": "DT_FLOAT"}, "Tshape": {"type": "DT_INT32"}}, "name": "BoxPredictor_2/Reshape", "op": "Reshape"}, {"input": ["FeatureExtractor/MobilenetV2/layer_19_2_Conv2d_3_3x3_s2_256_depthwise/Relu6", "FeatureExtractor/MobilenetV2/layer_19_2_Conv2d_3_3x3_s2_256/Conv2D/merged_input"], "attr": {"data_format": {"s": "TkhXQw=="}, "use_cudnn_on_gpu": {"b": true}, "padding": {"s": "U0FNRQ=="}, "strides": {"list": {"i": ["1", "1", "1", "1"]}}, "T": {"type": "DT_FLOAT"}, "dilations": {"list": {"i": ["1", "1", "1", "1"]}}}, "name": "FeatureExtractor/MobilenetV2/layer_19_2_Conv2d_3_3x3_s2_256/BatchNorm/batchnorm/mul_1", "op": "Conv2D"}, {"input": ["FeatureExtractor/MobilenetV2/layer_19_2_Conv2d_3_3x3_s2_256/BatchNorm/batchnorm/mul_1", "FeatureExtractor/MobilenetV2/layer_19_2_Conv2d_3_3x3_s2_256/BatchNorm/batchnorm/sub"], "attr": {"T": {"type": "DT_FLOAT"}}, "name": "FeatureExtractor/MobilenetV2/layer_19_2_Conv2d_3_3x3_s2_256/BatchNorm/batchnorm/add_1", "op": "Add"}, {"input": ["FeatureExtractor/MobilenetV2/layer_19_2_Conv2d_3_3x3_s2_256/BatchNorm/batchnorm/add_1"], "attr": {"T": {"type": "DT_FLOAT"}}, "name": "FeatureExtractor/MobilenetV2/layer_19_2_Conv2d_3_3x3_s2_256/Relu6", "op": "Relu6"}, {"input": ["FeatureExtractor/MobilenetV2/layer_19_2_Conv2d_3_3x3_s2_256/Relu6", "FeatureExtractor/MobilenetV2/layer_19_1_Conv2d_4_1x1_128/Conv2D/merged_input"], "attr": {"data_format": {"s": "TkhXQw=="}, "use_cudnn_on_gpu": {"b": true}, "padding": {"s": "U0FNRQ=="}, "strides": {"list": {"i": ["1", "1", "1", "1"]}}, "T": {"type": "DT_FLOAT"}, "dilations": {"list": {"i": ["1", "1", "1", "1"]}}}, "name": "FeatureExtractor/MobilenetV2/layer_19_1_Conv2d_4_1x1_128/BatchNorm/batchnorm/mul_1", "op": "Conv2D"}, {"input": ["FeatureExtractor/MobilenetV2/layer_19_2_Conv2d_3_3x3_s2_256/Relu6"], "attr": {"out_type": {"type": "DT_INT32"}, "T": {"type": "DT_FLOAT"}}, "name": "BoxPredictor_3/Shape", "op": "Shape"}, {"input": ["FeatureExtractor/MobilenetV2/layer_19_2_Conv2d_3_3x3_s2_256/Relu6", "BoxPredictor_3/ClassPredictor_depthwise/depthwise_weights"], "attr": {"padding": {"s": "U0FNRQ=="}, "strides": {"list": {"i": ["1", "1", "1", "1"]}}, "dilations": {"list": {"i": ["1", "1", "1", "1"]}}, "T": {"type": "DT_FLOAT"}, "data_format": {"s": "TkhXQw=="}}, "name": "BoxPredictor_3/ClassPredictor_depthwise/depthwise", "op": "DepthwiseConv2dNative"}, {"input": ["FeatureExtractor/MobilenetV2/layer_19_2_Conv2d_3_3x3_s2_256/Relu6", "BoxPredictor_3/BoxEncodingPredictor_depthwise/depthwise_weights"], "attr": {"padding": {"s": "U0FNRQ=="}, "strides": {"list": {"i": ["1", "1", "1", "1"]}}, "dilations": {"list": {"i": ["1", "1", "1", "1"]}}, "T": {"type": "DT_FLOAT"}, "data_format": {"s": "TkhXQw=="}}, "name": "BoxPredictor_3/BoxEncodingPredictor_depthwise/depthwise", "op": "DepthwiseConv2dNative"}, {"input": ["FeatureExtractor/MobilenetV2/layer_19_1_Conv2d_4_1x1_128/BatchNorm/batchnorm/mul_1", "FeatureExtractor/MobilenetV2/layer_19_1_Conv2d_4_1x1_128/BatchNorm/batchnorm/sub"], "attr": {"T": {"type": "DT_FLOAT"}}, "name": "FeatureExtractor/MobilenetV2/layer_19_1_Conv2d_4_1x1_128/BatchNorm/batchnorm/add_1", "op": "Add"}, {"input": ["BoxPredictor_3/Shape", "Postprocessor/strided_slice/stack", "Postprocessor/strided_slice/stack_1", "Postprocessor/strided_slice/stack_1"], "attr": {"new_axis_mask": {"i": "0"}, "Index": {"type": "DT_INT32"}, "begin_mask": {"i": "0"}, "ellipsis_mask": {"i": "0"}, "end_mask": {"i": "0"}, "T": {"type": "DT_INT32"}, "shrink_axis_mask": {"i": "1"}}, "name": "BoxPredictor_3/strided_slice", "op": "StridedSlice"}, {"input": ["BoxPredictor_3/ClassPredictor_depthwise/depthwise", "BoxPredictor_3/ClassPredictor_depthwise/BatchNorm/FusedBatchNorm/Scaled"], "attr": {"T": {"type": "DT_FLOAT"}}, "name": "BoxPredictor_3/ClassPredictor_depthwise/BatchNorm/FusedBatchNorm/Mul", "op": "Mul"}, {"input": ["BoxPredictor_3/BoxEncodingPredictor_depthwise/depthwise", "BoxPredictor_3/BoxEncodingPredictor_depthwise/BatchNorm/FusedBatchNorm/Scaled"], "attr": {"T": {"type": "DT_FLOAT"}}, "name": "BoxPredictor_3/BoxEncodingPredictor_depthwise/BatchNorm/FusedBatchNorm/Mul", "op": "Mul"}, {"input": ["FeatureExtractor/MobilenetV2/layer_19_1_Conv2d_4_1x1_128/BatchNorm/batchnorm/add_1"], "attr": {"T": {"type": "DT_FLOAT"}}, "name": "FeatureExtractor/MobilenetV2/layer_19_1_Conv2d_4_1x1_128/Relu6", "op": "Relu6"}, {"input": ["BoxPredictor_3/strided_slice", "BoxPredictor_3/stack/1", "BoxPredictor_0/sta…
lice/size", "quantization": {"dtype": "uint8", "scale": 1.0, "min": -1.0}}, {"dtype": "int32", "shape": [3], "name": "Postprocessor/Slice/begin", "quantization": {"dtype": "uint8", "scale": 0.00392156862745098, "min": -0.0}}, {"dtype": "int32", "shape": [], "name": "Postprocessor/Tile/multiples/1", "quantization": {"dtype": "uint8", "scale": 1.0, "min": 1.0}}, {"dtype": "int32", "shape": [], "name": "BoxPredictor_0/stack_1/2", "quantization": {"dtype": "uint8", "scale": 1.0, "min": 91.0}}, {"dtype": "int32", "shape": [], "name": "BoxPredictor_5/stack/1", "quantization": {"dtype": "uint8", "scale": 1.0, "min": 6.0}}, {"dtype": "int32", "shape": [1], "name": "Postprocessor/strided_slice/stack_1", "quantization": {"dtype": "uint8", "scale": 1.0, "min": 1.0}}, {"dtype": "int32", "shape": [1], "name": "Postprocessor/strided_slice/stack", "quantization": {"dtype": "uint8", "scale": 1.0, "min": 0.0}}, {"dtype": "float32", "shape": [128], "name": "FeatureExtractor/MobilenetV2/layer_19_2_Conv2d_5_3x3_s2_128/BatchNorm/batchnorm/sub", "quantization": {"dtype": "uint8", "scale": 0.039666482514026116, "min": -5.156642726823395}}, {"dtype": "float32", "shape": [1, 1, 64, 128], "name": "FeatureExtractor/MobilenetV2/layer_19_2_Conv2d_5_3x3_s2_128/Conv2D/merged_input", "quantization": {"dtype": "uint8", "scale": 0.018315718220729454, "min": -2.490937678019206}}, {"dtype": "float32", "shape": [64], "name": "FeatureExtractor/MobilenetV2/layer_19_2_Conv2d_5_3x3_s2_128_depthwise/BatchNorm/batchnorm/sub", "quantization": {"dtype": "uint8", "scale": 0.038201214285457835, "min": -6.494206428527832}}, {"dtype": "float32", "shape": [64], "name": "FeatureExtractor/MobilenetV2/layer_19_2_Conv2d_5_3x3_s2_128_depthwise/BatchNorm/batchnorm/mul", "quantization": {"dtype": "uint8", "scale": 0.09729762170829025, "min": 6.361341953277588}}, {"dtype": "float32", "shape": [3, 3, 64, 1], "name": "FeatureExtractor/MobilenetV2/layer_19_2_Conv2d_5_3x3_s2_128_depthwise/depthwise_weights", "quantization": {"dtype": "uint8", "scale": 0.0016437985733443615, "min": -0.21862521025480008}}, {"dtype": "float32", "shape": [64], "name": "FeatureExtractor/MobilenetV2/layer_19_1_Conv2d_5_1x1_64/BatchNorm/batchnorm/sub", "quantization": {"dtype": "uint8", "scale": 0.006218650002105563, "min": -0.012437300004211126}}, {"dtype": "float32", "shape": [1, 1, 256, 64], "name": "FeatureExtractor/MobilenetV2/layer_19_1_Conv2d_5_1x1_64/Conv2D/merged_input", "quantization": {"dtype": "uint8", "scale": 0.003780406947229423, "min": -0.5557198212427252}}, {"dtype": "float32", "shape": [256], "name": "FeatureExtractor/MobilenetV2/layer_19_2_Conv2d_4_3x3_s2_256/BatchNorm/batchnorm/sub", "quantization": {"dtype": "uint8", "scale": 0.028117425768983132, "min": -3.7396176272747566}}, {"dtype": "float32", "shape": [1, 1, 128, 256], "name": "FeatureExtractor/MobilenetV2/layer_19_2_Conv2d_4_3x3_s2_256/Conv2D/merged_input", "quantization": {"dtype": "uint8", "scale": 0.014293771631577436, "min": -1.5437273362103632}}, {"dtype": "float32", "shape": [128], "name": "FeatureExtractor/MobilenetV2/layer_19_2_Conv2d_4_3x3_s2_256_depthwise/BatchNorm/batchnorm/sub", "quantization": {"dtype": "uint8", "scale": 0.015596278041016822, "min": -1.32568363348643}}, {"dtype": "float32", "shape": [128], "name": "FeatureExtractor/MobilenetV2/layer_19_2_Conv2d_4_3x3_s2_256_depthwise/BatchNorm/batchnorm/mul", "quantization": {"dtype": "uint8", "scale": 0.17780498523338167, "min": 2.9081037044525146}}, {"dtype": "float32", "shape": [3, 3, 128, 1], "name": "FeatureExtractor/MobilenetV2/layer_19_2_Conv2d_4_3x3_s2_256_depthwise/depthwise_weights", "quantization": {"dtype": "uint8", "scale": 0.0020350336444144154, "min": -0.23199383546324334}}, {"dtype": "float32", "shape": [128], "name": "FeatureExtractor/MobilenetV2/layer_19_1_Conv2d_4_1x1_128/BatchNorm/batchnorm/sub", "quantization": {"dtype": "uint8", "scale": 0.011886402204924939, "min": -1.1054354050580193}}, {"dtype": "float32", "shape": [1, 1, 256, 128], "name": "FeatureExtractor/MobilenetV2/layer_19_1_Conv2d_4_1x1_128/Conv2D/merged_input", "quantization": {"dtype": "uint8", "scale": 0.005331007405823352, "min": -0.5331007405823351}}, {"dtype": "float32", "shape": [256], "name": "FeatureExtractor/MobilenetV2/layer_19_2_Conv2d_3_3x3_s2_256/BatchNorm/batchnorm/sub", "quantization": {"dtype": "uint8", "scale": 0.026693246878829655, "min": -3.229882872338388}}, {"dtype": "float32", "shape": [1, 1, 128, 256], "name": "FeatureExtractor/MobilenetV2/layer_19_2_Conv2d_3_3x3_s2_256/Conv2D/merged_input", "quantization": {"dtype": "uint8", "scale": 0.010693908672706753, "min": -1.7217192963057872}}, {"dtype": "float32", "shape": [128], "name": "FeatureExtractor/MobilenetV2/layer_19_2_Conv2d_3_3x3_s2_256_depthwise/BatchNorm/batchnorm/sub", "quantization": {"dtype": "uint8", "scale": 0.026517658607632506, "min": -2.7843541538014134}}, {"dtype": "float32", "shape": [128], "name": "FeatureExtractor/MobilenetV2/layer_19_2_Conv2d_3_3x3_s2_256_depthwise/BatchNorm/batchnorm/mul", "quantization": {"dtype": "uint8", "scale": 0.054354258612090464, "min": 1.8076814413070679}}, {"dtype": "float32", "shape": [3, 3, 128, 1], "name": "FeatureExtractor/MobilenetV2/layer_19_2_Conv2d_3_3x3_s2_256_depthwise/depthwise_weights", "quantization": {"dtype": "uint8", "scale": 0.002662632745854995, "min": -0.38341911540311924}}, {"dtype": "float32", "shape": [128], "name": "FeatureExtractor/MobilenetV2/layer_19_1_Conv2d_3_1x1_128/BatchNorm/batchnorm/sub", "quantization": {"dtype": "uint8", "scale": 0.011534475345237582, "min": -1.1534475345237583}}, {"dtype": "float32", "shape": [1, 1, 512, 128], "name": "FeatureExtractor/MobilenetV2/layer_19_1_Conv2d_3_1x1_128/Conv2D/merged_input", "quantization": {"dtype": "uint8", "scale": 0.004153893975650563, "min": -0.4776978071998147}}, {"dtype": "float32", "shape": [512], "name": "FeatureExtractor/MobilenetV2/layer_19_2_Conv2d_2_3x3_s2_512/BatchNorm/batchnorm/sub", "quantization": {"dtype": "uint8", "scale": 0.03694259980145623, "min": -3.6573173803441663}}, {"dtype": "float32", "shape": [1, 1, 256, 512], "name": "FeatureExtractor/MobilenetV2/layer_19_2_Conv2d_2_3x3_s2_512/Conv2D/merged_input", "quantization": {"dtype": "uint8", "scale": 0.009767465497933182, "min": -1.2990729112251131}}, {"dtype": "float32", "shape": [256], "name": "FeatureExtractor/MobilenetV2/layer_19_2_Conv2d_2_3x3_s2_512_depthwise/BatchNorm/batchnorm/sub", "quantization": {"dtype": "uint8", "scale": 0.05040246552112056, "min": -5.947490931492226}}, {"dtype": "float32", "shape": [256], "name": "FeatureExtractor/MobilenetV2/layer_19_2_Conv2d_2_3x3_s2_512_depthwise/BatchNorm/batchnorm/mul", "quantization": {"dtype": "uint8", "scale": 0.14879856810850256, "min": 1.2284919023513794}}, {"dtype": "float32", "shape": [3, 3, 256, 1], "name": "FeatureExtractor/MobilenetV2/layer_19_2_Conv2d_2_3x3_s2_512_depthwise/depthwise_weights", "quantization": {"dtype": "uint8", "scale": 0.0024103398416556563, "min": -0.3302165583068249}}, {"dtype": "float32", "shape": [256], "name": "FeatureExtractor/MobilenetV2/layer_19_1_Conv2d_2_1x1_256/BatchNorm/batchnorm/sub", "quantization": {"dtype": "uint8", "scale": 0.013987280107011982, "min": -0.9091732069557789}}, {"dtype": "float32", "shape": [1, 1, 1280, 256], "name": "FeatureExtractor/MobilenetV2/layer_19_1_Conv2d_2_1x1_256/Conv2D/merged_input", "quantization": {"dtype": "uint8", "scale": 0.009123141157860849, "min": -1.1677620682061887}}, {"dtype": "float32", "shape": [1280], "name": "FeatureExtractor/MobilenetV2/Conv_1/BatchNorm/batchnorm/sub", "quantization": {"dtype": "uint8", "scale": 0.020190849958681593, "min": -3.2507268433477363}}, {"dtype": "float32", "shape": [1, 1, 320, 1280], "name": "FeatureExtractor/MobilenetV2/Conv_1/Conv2D/merged_input", "quantization": {"dtype": "uint8", "scale": 0.002240005135536194, "min": -0.32704074978828435}}, {"dtype": "float32", "shape": [320], "name": "FeatureExtractor/MobilenetV2/expanded_conv_16/project/BatchNorm/batchnorm/sub", "quantization": {"dtype": "uint8", "scale": 0.03882683585671817, "min": -5.202796004800235}}, {"dtype": "float32", "shape": [1, 1, 960, 320], "name": "FeatureExtractor/MobilenetV2/expanded_conv_16/project/Conv2D/merged_input", "quantization": {"dtype": "uint8", "scale": 0.010882694580975702, "min": -1.197096403907327}}, {"dtype": "float32", "shape": [960], "name": "FeatureExtractor/MobilenetV2/expanded_conv_16/depthwise/BatchNorm/batchnorm/sub", "quantization": {"dtype": "uint8", "scale": 0.030444755741194183, "min": -4.201376292284797}}, {"dtype": "float32", "shape": [960], "name": "FeatureExtractor/MobilenetV2/expanded_conv_16/depthwise/BatchNorm/batchnorm/mul", "quantization": {"dtype": "uint8", "scale": 0.15617151318811903, "min": 0.21542200446128845}}, {"dtype": "float32", "shape": [3, 3, 960, 1], "name": "FeatureExtractor/MobilenetV2/expanded_conv_16/depthwise/depthwise_weights", "quantization": {"dtype": "uint8", "scale": 0.013405783036175897, "min": -1.7561575777390424}}, {"dtype": "float32", "shape": [960], "name": "FeatureExtractor/MobilenetV2/expanded_conv_16/expand/BatchNorm/batchnorm/sub", "quantization": {"dtype": "uint8", "scale": 0.015467012162302054, "min": -2.103513654073079}}, {"dtype": "float32", "shape": [1, 1, 160, 960], "name": "FeatureExtractor/MobilenetV2/expanded_conv_16/expand/Conv2D/merged_input", "quantization": {"dtype": "uint8", "scale": 0.002270168007588854, "min": -0.3586865451990389}}, {"dtype": "float32", "shape": [160], "name": "FeatureExtractor/MobilenetV2/expanded_conv_13/project/BatchNorm/batchnorm/sub", "quantization": {"dtype": "uint8", "scale": 0.036323865254720054, "min": -4.903721809387207}}, {"dtype": "float32", "shape": [1, 1, 576, 160], "name": "FeatureExtractor/MobilenetV2/expanded_conv_13/project/Conv2D/merged_input", "quantization": {"dtype": "uint8", "scale": 0.0036173662718604594, "min": -0.5389875745072085}}, {"dtype": "float32", "shape": [576], "name": "FeatureExtractor/MobilenetV2/expanded_conv_13/depthwise/BatchNorm/batchnorm/sub", "quantization": {"dtype": "uint8", "scale": 0.06828262852687461, "min": -6.896545481214336}}, {"dtype": "float32", "shape": [576], "name": "FeatureExtractor/MobilenetV2/expanded_conv_13/depthwise/BatchNorm/batchnorm/mul", "quantization": {"dtype": "uint8", "scale": 0.12688469302420521, "min": 0.14679890871047974}}, {"dtype": "float32", "shape": [3, 3, 576, 1], "name": "FeatureExtractor/MobilenetV2/expanded_conv_13/depthwise/depthwise_weights", "quantization": {"dtype": "uint8", "scale": 0.012627948031705968, "min": -1.6668891401851877}}, {"dtype": "float32", "shape": [576], "name": "FeatureExtractor/MobilenetV2/expanded_conv_13/expand/BatchNorm/batchnorm/sub", "quantization": {"dtype": "uint8", "scale": 0.022430098290536916, "min": -3.229934153837316}}, {"dtype": "float32", "shape": [1, 1, 96, 576], "name": "FeatureExtractor/MobilenetV2/expanded_conv_13/expand/Conv2D/merged_input", "quantization": {"dtype": "uint8", "scale": 0.0027116964845096364, "min": -0.30371000626507927}}, {"dtype": "float32", "shape": [96], "name": "FeatureExtractor/MobilenetV2/expanded_conv_10/project/BatchNorm/batchnorm/sub", "quantization": {"dtype": "uint8", "scale": 0.0429168140186983, "min": -5.622102636449477}}, {"dtype": "float32", "shape": [1, 1, 384, 96], "name": "FeatureExtractor/MobilenetV2/expanded_conv_10/project/Conv2D/merged_input", "quantization": {"dtype": "uint8", "scale": 0.007968016231761259, "min": -0.8685137692619772}}, {"dtype": "float32", "shape": [384], "name": "FeatureExtractor/MobilenetV2/expanded_conv_10/depthwise/BatchNorm/batchnorm/sub", "quantization": {"dtype": "uint8", "scale": 0.05195879655725816, "min": -7.637943093916949}}, {"dtype": "float32", "shape": [384], "name": "FeatureExtractor/MobilenetV2/expanded_conv_10/depthwise/BatchNorm/batchnorm/mul", "quantization": {"dtype": "uint8", "scale": 0.08234534392169877, "min": 0.25065556168556213}}, {"dtype": "float32", "shape": [3, 3, 384, 1], "name": "FeatureExtractor/MobilenetV2/expanded_conv_10/depthwise/depthwise_weights", "quantization": {"dtype": "uint8", "scale": 0.025060278761620616, "min": -3.2327759602490596}}, {"dtype": "float32", "shape": [384], "name": "FeatureExtractor/MobilenetV2/expanded_conv_10/expand/BatchNorm/batchnorm/sub", "quantization": {"dtype": "uint8", "scale": 0.02530700459199793, "min": -3.7201296750236956}}, {"dtype": "float32", "shape": [1, 1, 64, 384], "name": "FeatureExtractor/MobilenetV2/expanded_conv_10/expand/Conv2D/merged_input", "quantization": {"dtype": "uint8", "scale": 0.0014210988493526683, "min": -0.16058416997685152}}, {"dtype": "float32", "shape": [64], "name": "FeatureExtractor/MobilenetV2/expanded_conv_6/project/BatchNorm/batchnorm/sub", "quantization": {"dtype": "uint8", "scale": 0.06694677016314338, "min": -8.502239810719209}}, {"dtype": "float32", "shape": [1, 1, 192, 64], "name": "FeatureExtractor/MobilenetV2/expanded_conv_6/project/Conv2D/merged_input", "quantization": {"dtype": "uint8", "scale": 0.007837060853546742, "min": -1.0658402760823569}}, {"dtype": "float32", "shape": [192], "name": "FeatureExtractor/MobilenetV2/expanded_conv_6/depthwise/BatchNorm/batchnorm/sub", "quantization": {"dtype": "uint8", "scale": 0.0392971861596201, "min": -3.065180520450368}}, {"dtype": "float32", "shape": [192], "name": "FeatureExtractor/MobilenetV2/expanded_conv_6/depthwise/BatchNorm/batchnorm/mul", "quantization": {"dtype": "uint8", "scale": 0.07181005320128273, "min": 0.1724051684141159}}, {"dtype": "float32", "shape": [3, 3, 192, 1], "name": "FeatureExtractor/MobilenetV2/expanded_conv_6/depthwise/depthwise_weights", "quantization": {"dtype": "uint8", "scale": 0.012122144418604234, "min": -1.551634485581342}}, {"dtype": "float32", "shape": [192], "name": "FeatureExtractor/MobilenetV2/expanded_conv_6/expand/BatchNorm/batchnorm/sub", "quantization": {"dtype": "uint8", "scale": 0.014020687926049326, "min": -1.6123791114956725}}, {"dtype": "float32", "shape": [1, 1, 32, 192], "name": "FeatureExtractor/MobilenetV2/expanded_conv_6/expand/Conv2D/merged_input", "quantization": {"dtype": "uint8", "scale": 0.002024982781971202, "min": -0.23084803714471702}}, {"dtype": "float32", "shape": [32], "name": "FeatureExtractor/MobilenetV2/expanded_conv_3/project/BatchNorm/batchnorm/sub", "quantization": {"dtype": "uint8", "scale": 0.0756802988987343, "min": -10.292520650227866}}, {"dtype": "float32", "shape": [1, 1, 144, 32], "name": "FeatureExtractor/MobilenetV2/expanded_conv_3/project/Conv2D/merged_input", "quantization": {"dtype": "uint8", "scale": 0.00827181245766434, "min": -1.191140993903665}}, {"dtype": "float32", "shape": [144], "name": "FeatureExtractor/MobilenetV2/expanded_conv_3/depthwise/BatchNorm/batchnorm/sub", "quantization": {"dtype": "uint8", "scale": 0.04598960034987506, "min": -2.483438418893253}}, {"dtype": "float32", "shape": [144], "name": "FeatureExtractor/MobilenetV2/expanded_conv_3/depthwise/BatchNorm/batchnorm/mul", "quantization": {"dtype": "uint8", "scale": 0.012420397061927645, "min": 0.13919976353645325}}, {"dtype": "float32", "shape": [3, 3, 144, 1], "name": "FeatureExtractor/MobilenetV2/expanded_conv_3/depthwise/depthwise_weights", "quantization": {"dtype": "uint8", "scale": 0.014241766929626466, "min": -2.0365726709365846}}, {"dtype": "float32", "shape": [144], "name": "FeatureExtractor/MobilenetV2/expanded_conv_3/expand/BatchNorm/batchnorm/sub", "quantization": {"dtype": "uint8", "scale": 0.020950781130323223, "min": -1.697013271556181}}, {"dtype": "float32", "shape": [1, 1, 24, 144], "name": "FeatureExtractor/MobilenetV2/expanded_conv_3/expand/Conv2D/merged_input", "quantization": {"dtype": "uint8", "scale": 0.0035431247131497254, "min": -0.43934746443056594}}, {"dtype": "float32", "shape": [24], "name": "FeatureExtractor/MobilenetV2/expanded_conv_1/project/BatchNorm/batchnorm/sub", "quantization": {"dtype": "uint8", "scale": 0.11907830331839767, "min": -9.526264265471813}}, {"dtype": "float32", "shape": [1, 1, 96, 24], "name": "FeatureExtractor/MobilenetV2/expanded_conv_1/project/Conv2D/merged_input", "quantization": {"dtype": "uint8", "scale": 0.0131425189036949, "min": -1.5113896739249135}}, {"dtype": "float32", "shape": [96], "name": "FeatureExtractor/MobilenetV2/expanded_conv_1/depthwise/BatchNorm/batchnorm/sub", "quantization": {"dtype": "uint8", "scale": 0.07686023338168275, "min": -13.834842008702896}}, {"dtype": "float32", "shape": [96], "name": "FeatureExtractor/MobilenetV2/expanded_conv_1/depthwise/BatchNorm/batchnorm/mul", "quantization": {"dtype": "uint8", "scale": 0.15805683656066072, "min": 0.059287652373313904}}, {"dtype": "float32", "shape": [3, 3, 96, 1], "name": "FeatureExtractor/MobilenetV2/expanded_conv_1/depthwise/depthwise_weights", "quantization": {"dtype": "uint8", "scale": 0.02521824930228439, "min": -3.1774994120878333}}, {"dtype": "float32", "shape": [96], "name": "FeatureExtractor/MobilenetV2/expanded_conv_1/expand/BatchNorm/batchnorm/sub", "quantization": {"dtype": "uint8", "scale": 0.021710650126139323, "min": -1.3026390075683594}}, {"dtype": "float32", "shape": [1, 1, 16, 96], "name": "FeatureExtractor/MobilenetV2/expanded_conv_1/expand/Conv2D/merged_input", "quantization": {"dtype": "uint8", "scale": 0.005177489682739856, "min": -0.792155921459198}}, {"dtype": "float32", "shape": [16], "name": "FeatureExtractor/MobilenetV2/expanded_conv/project/BatchNorm/batchnorm/sub", "quantization": {"dtype": "uint8", "scale": 0.0923878314448338, "min": -9.331170975928213}}, {"dtype": "float32", "shape": [1, 1, 32, 16], "name": "FeatureExtractor/MobilenetV2/expanded_conv/project/Conv2D/merged_input", "quantization": {"dtype": "uint8", "scale": 0.018397107778810987, "min": -2.4836095501394833}}, {"dtype": "float32", "shape": [32], "name": "FeatureExtractor/MobilenetV2/expanded_conv/depthwise/BatchNorm/batchnorm/sub", "quantization": {"dtype": "uint8", "scale": 0.03324333265715954, "min": -2.4267632839726465}}, {"dtype": "float32", "shape": [32], "name": "FeatureExtractor/MobilenetV2/expanded_conv/depthwise/BatchNorm/batchnorm/mul", "quantization": {"dtype": "uint8", "scale": 0.20234595922862783, "min": 0.25846603512763977}}, {"dtype": "float32", "shape": [3, 3, 32, 1], "name": "FeatureExtractor/MobilenetV2/expanded_conv/depthwise/depthwise_weights", "quantization": {"dtype": "uint8", "scale": 0.12413456112730736, "min": -14.275474529640347}}, {"dtype": "float32", "shape": [32], "name": "FeatureExtractor/MobilenetV2/Conv/BatchNorm/batchnorm/sub", "quantization": {"dtype": "uint8", "scale": 0.025315282859054267, "min": -3.3922479031132715}}, {"dtype": "float32", "shape": [3, 3, 3, 32], "name": "FeatureExtractor/MobilenetV2/Conv/Conv2D/merged_input", "quantization": {"dtype": "uint8", "scale": 0.021558253905352424, "min": -3.2337380858028637}}, {"dtype": "float32", "shape": [], "name": "Preprocessor/sub/y", "quantization": {"dtype": "uint8", "scale": 1.0, "min": 1.0}}, {"dtype": "int32", "shape": [], "name": "Preprocessor/map/TensorArrayStack/range/start", "quantization": {"dtype": "uint8", "scale": 1.0, "min": 0.0}}, {"dtype": "float32", "shape": [], "name": "Preprocessor/mul/x", "quantization": {"dtype": "uint8", "scale": 1.0, "min": 0.007843137718737125}}, {"dtype": "float32", "shape": [1, 1, 144, 24], "name": "FeatureExtractor/MobilenetV2/expanded_conv_2/project/Conv2D/merged_input", "quantization": {"dtype": "uint8", "scale": 0.01718284429288378, "min": -1.9588442493887508}}, {"dtype": "float32", "shape": [144], "name": "FeatureExtractor/MobilenetV2/expanded_conv_2/depthwise/BatchNorm/batchnorm/sub", "quantization": {"dtype": "uint8", "scale": 0.046221233816707834, "min": -7.626503579756792}}, {"dtype": "float32", "shape": [144], "name": "FeatureExtractor/MobilenetV2/expanded_conv_2/depthwise/BatchNorm/batchnorm/mul", "quantization": {"dtype": "uint8", "scale": 0.012368347831800873, "min": 0.2433221936225891}}, {"dtype": "float32", "shape": [3, 3, 144, 1], "name": "FeatureExtractor/MobilenetV2/expanded_conv_2/depthwise/depthwise_weights", "quantization": {"dtype": "uint8", "scale": 0.049632388470219634, "min": -6.501842889598772}}, {"dtype": "float32", "shape": [144], "name": "FeatureExtractor/MobilenetV2/expanded_conv_2/expand/BatchNorm/batchnorm/sub", "quantization": {"dtype": "uint8", "scale": 0.02438069044374952, "min": -1.267795903074975}}, {"dtype": "float32", "shape": [1, 1, 24, 144], "name": "FeatureExtractor/MobilenetV2/expanded_conv_2/expand/Conv2D/merged_input", "quantization": {"dtype": "uint8", "scale": 0.004564255475997925, "min": -0.4746825695037842}}, {"dtype": "float32", "shape": [24], "name": "FeatureExtractor/MobilenetV2/expanded_conv_2/project/BatchNorm/batchnorm/sub", "quantization": {"dtype": "uint8", "scale": 0.05325191909191655, "min": -9.745101193820728}}, {"dtype": "float32", "shape": [1, 1, 192, 32], "name": "FeatureExtractor/MobilenetV2/expanded_conv_4/project/Conv2D/merged_input", "quantization": {"dtype": "uint8", "scale": 0.013966673028235342, "min": -1.6061673982470643}}, {"dtype": "float32", "shape": [192], "name": "FeatureExtractor/MobilenetV2/expanded_conv_4/depthwise/BatchNorm/batchnorm/sub", "quantization": {"dtype": "uint8", "scale": 0.07836636561973422, "min": -15.751639489566577}}, {"dtype": "float32", "shape": [192], "name": "FeatureExtractor/MobilenetV2/expanded_conv_4/depthwise/BatchNorm/batchnorm/mul", "quantization": {"dtype": "uint8", "scale": 0.03299661337160597, "min": 0.3020291328430176}}, {"dtype": "float32", "shape": [3, 3, 192, 1], "name": "FeatureExtractor/MobilenetV2/expanded_conv_4/depthwise/depthwise_weights", "quantization": {"dtype": "uint8", "scale": 0.04120470869774912, "min": -3.9144473262861665}}, {"dtype": "float32", "shape": [192], "name": "FeatureExtractor/MobilenetV2/expanded_conv_4/expand/BatchNorm/batchnorm/sub", "quantization": {"dtype": "uint8", "scale": 0.016755223274230957, "min": -1.3404178619384766}}, {"dtype": "float32", "shape": [1, 1, 32, 192], "name": "FeatureExtractor/MobilenetV2/expanded_conv_4/expand/Conv2D/merged_input", "quantization": {"dtype": "uint8", "scale": 0.0020860695955800075, "min": -0.21486516834474076}}, {"dtype": "float32", "shape": [32], "name": "FeatureExtractor/MobilenetV2/expanded_conv_4/project/BatchNorm/batchnorm/sub", "quantization": {"dtype": "uint8", "scale": 0.060182653688916975, "min": -8.485754170137293}}, {"dtype": "float32", "shape": [1, 1, 192, 32], "name": "FeatureExtractor/MobilenetV2/expanded_conv_5/project/Conv2D/merged_input", "quantization": {"dtype": "uint8", "scale": 0.01989930003297095, "min": -2.5272111041873107}}, {"dtype": "float32", "shape": [192], "name": "FeatureExtractor/MobilenetV2/expanded_conv_5/depthwise/BatchNorm/batchnorm/sub", "quantization": {"dtype": "uint8", "scale": 0.041472874435724, "min": -6.2209311653586}}, {"dtype": "float32", "shape": [192], "name": "FeatureExtractor/MobilenetV2/expanded_conv_5/depthwise/BatchNorm/batchnorm/mul", "quantization": {"dtype": "uint8", "scale": 0.03313587693607106, "min": 0.3158895969390869}}, {"dtype": "float32", "shape": [3, 3, 192, 1], "name": "FeatureExtractor/MobilenetV2/expanded_conv_5/depthwise/depthwise_weights", "quantization": {"dtype": "uint8", "scale": 0.02245954158259373, "min": -2.8748213225719974}}, {"dtype": "float32", "shape": [192], "name": "FeatureExtractor/MobilenetV2/expanded_conv_5/expand/BatchNorm/batchnorm/sub", "quantization": {"dtype": "uint8", "scale": 0.01415558983297909, "min": -0.8634909798117245}}, {"dtype": "float32", "shape": [1, 1, 32, 192], "name": "FeatureExtractor/MobilenetV2/expanded_conv_5/expand/Conv2D/merged_input", "quantization": {"dtype": "uint8", "scale": 0.0018912847135581221, "min": -0.23641058919476526}}, {"dtype": "float32", "shape": [32], "name": "FeatureExtractor/MobilenetV2/expanded_conv_5/project/BatchNorm/batchnorm/sub", "quantization": {"dtype": "uint8", "scale": 0.049671014149983726, "min": -6.3082187970479335}}, {"dtype": "float32", "shape": [1, 1, 384, 64], "name": "FeatureExtractor/MobilenetV2/expanded_conv_7/project/Conv2D/merged_input", "quantization": {"dtype": "uint8", "scale": 0.008055961833280676, "min": -1.0553310001597684}}, {"dtype": "float32", "shape": [384], "name": "FeatureExtractor/MobilenetV2/expanded_conv_7/depthwise/BatchNorm/batchnorm/sub", "quantization": {"dtype": "uint8", "scale": 0.05206908431707644, "min": -7.7062244789273135}}, {"dtype": "float32", "shape": [384], "name": "FeatureExtractor/MobilenetV2/expanded_conv_7/depthwise/BatchNorm/batchnorm/mul", "quantization": {"dtype": "uint8", "scale": 0.07582734297303592, "min": 0.40599188208580017}}, {"dtype": "float32", "shape": [3, 3, 384, 1], "name": "FeatureExtractor/MobilenetV2/expanded_conv_7/depthwise/depthwise_weights", "quantization": {"dtype": "uint8", "scale": 0.02891092393912521, "min": -4.076440275416655}}, {"dtype": "float32", "shape": [384], "name": "FeatureExtractor/MobilenetV2/expanded_conv_7/expand/BatchNorm/batchnorm/sub", "quantization": {"dtype": "uint8", "scale": 0.016048929738063437, "min": -1.0913272221883137}}, {"dtype": "float32", "shape": [1, 1, 64, 384], "name": "FeatureExtractor/MobilenetV2/expanded_conv_7/expand/Conv2D/merged_input", "quantization": {"dtype": "uint8", "scale": 0.002821206812765084, "min": -0.4062537810381721}}, {"dtype": "float32", "shape": [64], "name": "FeatureExtractor/MobilenetV2/expanded_conv_7/project/BatchNorm/batchnorm/sub", "quantization": {"dtype": "uint8", "scale": 0.03505685843673407, "min": -4.872903322706035}}, {"dtype": "float32", "shape": [1, 1, 384, 64], "name": "FeatureExtractor/MobilenetV2/expanded_conv_8/project/Conv2D/merged_input", "quantization": {"dtype": "uint8", "scale": 0.010996367417129815, "min": -1.308567722638448}}, {"dtype": "float32", "shape": [384], "name": "FeatureExtractor/MobilenetV2/expanded_conv_8/depthwise/BatchNorm/batchnorm/sub", "quantization": {"dtype": "uint8", "scale": 0.035281676872103825, "min": -5.5745049457924045}}, {"dtype": "float32", "shape": [384], "name": "FeatureExtractor/MobilenetV2/expanded_conv_8/depthwise/BatchNorm/batchnorm/mul", "quantization": {"dtype": "uint8", "scale": 0.13794465158499924, "min": 0.2802867889404297}}, {"dtype": "float32", "shape": [3, 3, 384, 1], "name": "FeatureExtractor/MobilenetV2/expanded_conv_8/depthwise/depthwise_weights", "quantization": {"dtype": "uint8", "scale": 0.027844741297703163, "min": -3.8425742990830365}}, {"dtype": "float32", "shape": [384], "name": "FeatureExtractor/MobilenetV2/expanded_conv_8/expand/BatchNorm/batchnorm/sub", "quantization": {"dtype": "uint8", "scale": 0.014687063647251503, "min": -2.070875974262462}}, {"dtype": "float32", "shape": [1, 1, 64, 384], "name": "FeatureExtractor/MobilenetV2/expanded_conv_8/expand/Conv2D/merged_input", "quantization": {"dtype": "uint8", "scale": 0.002186881794649012, "min": -0.23180947023279524}}, {"dtype": "float32", "shape": [64], "name": "FeatureExtractor/MobilenetV2/expanded_conv_8/project/BatchNorm/batchnorm/sub", "quantization": {"dtype": "uint8", "scale": 0.05739924299950693, "min": -7.691498561933929}}, {"dtype": "float32", "shape": [1, 1, 384, 64], "name": "FeatureExtractor/MobilenetV2/expanded_conv_9/project/Conv2D/merged_input", "quantization": {"dtype": "uint8", "scale": 0.01937842275582108, "min": -2.5191949582567403}}, {"dtype": "float32", "shape": [384], "name": "FeatureExtractor/MobilenetV2/expanded_conv_9/depthwise/BatchNorm/batchnorm/sub", "quantization": {"dtype": "uint8", "scale": 0.029192543964759975, "min": -4.2329188748901965}}, {"dtype": "float32", "shape": [384], "name": "FeatureExtractor/MobilenetV2/expanded_conv_9/depthwise/BatchNorm/batchnorm/mul", "quantization": {"dtype": "uint8", "scale": 0.13513137885168486, "min": 0.2965986430644989}}, {"dtype": "float32", "shape": [3, 3, 384, 1], "name": "FeatureExtractor/MobilenetV2/expanded_conv_9/depthwise/depthwise_weights", "quantization": {"dtype": "uint8", "scale": 0.030628002391142002, "min": -4.226664329977596}}, {"dtype": "float32", "shape": [384], "name": "FeatureExtractor/MobilenetV2/expanded_conv_9/expand/BatchNorm/batchnorm/sub", "quantization": {"dtype": "uint8", "scale": 0.01753537935369155, "min": -1.788608694076538}}, {"dtype": "float32", "shape": [1, 1, 64, 384], "name": "FeatureExtractor/MobilenetV2/expanded_conv_9/expand/Conv2D/merged_input", "quantization": {"dtype": "uint8", "scale": 0.0037988345997006286, "min": -0.5166415055592855}}, {"dtype": "float32", "shape": [64], "name": "FeatureExtractor/MobilenetV2/expanded_conv_9/project/BatchNorm/batchnorm/sub", "quantization": {"dtype": "uint8", "scale": 0.07876623939065372, "min": -12.208767105551326}}, {"dtype": "float32", "shape": [1, 1, 576, 96], "name": "FeatureExtractor/MobilenetV2/expanded_conv_11/project/Conv2D/merged_input", "quantization": {"dtype": "uint8", "scale": 0.041841317625606764, "min": -9.330613830510309}}, {"dtype": "float32", "shape": [576], "name": "FeatureExtractor/MobilenetV2/expanded_conv_11/depthwise/BatchNorm/batchnorm/sub", "quantization": {"dtype": "uint8", "scale": 0.04570488181768679, "min": -8.455403136272055}}, {"dtype": "float32", "shape": [576], "name": "FeatureExtractor/MobilenetV2/expanded_conv_11/depthwise/BatchNorm/batchnorm/mul", "quantization": {"dtype": "uint8", "scale": 0.15459964246142144, "min": 0.2311515361070633}}, {"dtype": "float32", "shape": [3, 3, 576, 1], "name": "FeatureExtractor/MobilenetV2/expanded_conv_11/depthwise/depthwise_weights", "quantization": {"dtype": "uint8", "scale": 0.028195691576191024, "min": -3.6372442133286422}}, {"dtype": "float32", "shape": [576], "name": "FeatureExtractor/MobilenetV2/expanded_conv_11/expand/BatchNorm/batchnorm/sub", "quantization": {"dtype": "uint8", "scale": 0.020444342669318705, "min": -3.189317456413718}}, {"dtype": "float32", "shape": [1, 1, 96, 576], "name": "FeatureExtractor/MobilenetV2/expanded_conv_11/expand/Conv2D/merged_input", "quantization": {"dtype": "uint8", "scale": 0.004676374267129337, "min": -0.6453396488638485}}, {"dtype": "float32", "shape": [96], "name": "FeatureExtractor/MobilenetV2/expanded_conv_11/project/BatchNorm/batchnorm/sub", "quantization": {"dtype": "uint8", "scale": 0.0600765957551844, "min": -8.110340426949893}}, {"dtype": "float32", "shape": [1, 1, 576, 96], "name": "FeatureExtractor/MobilenetV2/expanded_conv_12/project/Conv2D/merged_input", "quantization": {"dtype": "uint8", "scale": 0.015830317665548887, "min": -1.3139163662405575}}, {"dtype": "float32", "shape": [576], "name": "FeatureExtractor/MobilenetV2/expanded_conv_12/depthwise/BatchNorm/batchnorm/sub", "quantization": {"dtype": "uint8", "scale": 0.046885259478699925, "min": -8.064264630336387}}, {"dtype": "float32", "shape": [576], "name": "FeatureExtractor/MobilenetV2/expanded_conv_12/depthwise/BatchNorm/batchnorm/mul", "quantization": {"dtype": "uint8", "scale": 0.1372115499833051, "min": 0.2734830379486084}}, {"dtype": "float32", "shape": [3, 3, 576, 1], "name": "FeatureExtractor/MobilenetV2/expanded_conv_12/depthwise/depthwise_weights", "quantization": {"dtype": "uint8", "scale": 0.02180953586802763, "min": -2.6171443041633156}}, {"dtype": "float32", "shape": [576], "name": "FeatureExtractor/MobilenetV2/expanded_conv_12/expand/BatchNorm/batchnorm/sub", "quantization": {"dtype": "uint8", "scale": 0.0174805575726079, "min": -2.6920058661816166}}, {"dtype": "float32", "shape": [1, 1, 96, 576], "name": "FeatureExtractor/MobilenetV2/expanded_conv_12/expand/Conv2D/merged_input", "quantization": {"dtype": "uint8", "scale": 0.001868721375278398, "min": -0.23172145053452137}}, {"dtype": "float32", "shape": [96], "name": "FeatureExtractor/MobilenetV2/expanded_conv_12/project/BatchNorm/batchnorm/sub", "quantization": {"dtype": "uint8", "scale": 0.08222194372438917, "min": -11.346628233965705}}, {"dtype": "float32", "shape": [1, 1, 960, 160], "name": "FeatureExtractor/MobilenetV2/expanded_conv_14/project/Conv2D/merged_input", "quantization": {"dtype": "uint8", "scale": 0.005379963154886283, "min": -0.5971759101923775}}, {"dtype": "float32", "shape": [960], "name": "FeatureExtractor/MobilenetV2/expanded_conv_14/depthwise/BatchNorm/batchnorm/sub", "quantization": {"dtype": "uint8", "scale": 0.026678025488759957, "min": -4.001703823313994}}, {"dtype": "float32", "shape": [960], "name": "FeatureExtractor/MobilenetV2/expanded_conv_14/depthwise/BatchNorm/batchnorm/mul", "quantization": {"dtype": "uint8", "scale": 0.049102678485945156, "min": 0.31960487365722656}}, {"dtype": "float32", "shape": [3, 3, 960, 1], "name": "FeatureExtractor/MobilenetV2/expanded_conv_14/depthwise/depthwise_weights", "quantization": {"dtype": "uint8", "scale": 0.01933330741583132, "min": -2.648663115968891}}, {"dtype": "float32", "shape": [960], "name": "FeatureExtractor/MobilenetV2/expanded_conv_14/expand/BatchNorm/batchnorm/sub", "quantization": {"dtype": "uint8", "scale": 0.01099247651941636, "min": -1.3520746118882123}}, {"dtype": "float32", "shape": [1, 1, 160, 960], "name": "FeatureExtractor/MobilenetV2/expanded_conv_14/expand/Conv2D/merged_input", "quantization": {"dtype": "uint8", "scale": 0.0033307435465793982, "min": -0.49295004489375094}}, {"dtype": "float32", "shape": [160], "name": "FeatureExtractor/MobilenetV2/expanded_conv_14/project/BatchNorm/batchnorm/sub", "quantization": {"dtype": "uint8", "scale": 0.028391934376136928, "min": -3.548991797017116}}, {"dtype": "float32", "shape": [1, 1, 960, 160], "name": "FeatureExtractor/MobilenetV2/expanded_conv_15/project/Conv2D/merged_input", "quantization": {"dtype": "uint8", "scale": 0.01049943718255735, "min": -1.6379122004789466}}, {"dtype": "float32", "shape": [960], "name": "FeatureExtractor/MobilenetV2/expanded_conv_15/depthwise/BatchNorm/batchnorm/sub", "quantization": {"dtype": "uint8", "scale": 0.05821374070410635, "min": -10.594900808147356}}, {"dtype": "float32", "shape": [960], "name": "FeatureExtractor/MobilenetV2/expanded_conv_15/depthwise/BatchNorm/batchnorm/mul", "quantization": {"dtype": "uint8", "scale": 0.07491580364750881, "min": 0.3271360397338867}}, {"dtype": "float32", "shape": [3, 3, 960, 1], "name": "FeatureExtractor/MobilenetV2/expanded_conv_15/depthwise/depthwise_weights", "quantization": {"dtype": "uint8", "scale": 0.015235196842866786, "min": -1.858694014829748}}, {"dtype": "float32", "shape": [960], "name": "FeatureExtractor/MobilenetV2/expanded_conv_15/expand/BatchNorm/batchnorm/sub", "quantization": {"dtype": "uint8", "scale": 0.014647211280523561, "min": -1.537957184454974}}, {"dtype": "float32", "shape": [1, 1, 160, 960], "name": "FeatureExtractor/MobilenetV2/expanded_conv_15/expand/Conv2D/merged_input", "quantization": {"dtype": "uint8", "scale": 0.003381578244414984, "min": -0.5139998931510775}}, {"dtype": "float32", "shape": [160], "name": "FeatureExtractor/MobilenetV2/expanded_conv_15/project/BatchNorm/batchnorm/sub", "quantization": {"dtype": "uint8", "scale": 0.062420439252666396, "min": -7.1783505140566355}}, {"dtype": "float32", "shape": [546], "name": "BoxPredictor_5/ClassPredictor/biases", "quantization": {"dtype": "uint8", "scale": 0.009587681994718664, "min": -1.0067066094454598}}, {"dtype": "float32", "shape": [1, 1, 128, 546], "name": "BoxPredictor_5/ClassPredictor/weights", "quantization": {"dtype": "uint8", "scale": 0.003258575762019438, "min": -0.39102909144233255}}, {"dtype": "float32", "shape": [128], "name": "BoxPredictor_5/ClassPredictor_depthwise/BatchNorm/FusedBatchNorm/Offset", "quantization": {"dtype": "uint8", "scale": 0.0691358627057543, "min": -1.175309665997823}}, {"dtype": "float32", "shape": [128], "name": "BoxPredictor_5/ClassPredictor_depthwise/BatchNorm/FusedBatchNorm/Scaled", "quantization": {"dtype": "uint8", "scale": 0.11780483769435508, "min": 16.284652709960938}}, {"dtype": "float32", "shape": [3, 3, 128, 1], "name": "BoxPredictor_5/ClassPredictor_depthwise/depthwise_weights", "quantization": {"dtype": "uint8", "scale": 0.0014399404034895055, "min": -0.2116712393129573}}, {"dtype": "int32", "shape": [], "name": "BoxPredictor_4/stack/1", "quantization": {"dtype": "uint8", "scale": 1.0, "min": 24.0}}, {"dtype": "float32", "shape": [546], "name": "BoxPredictor_4/ClassPredictor/biases", "quantization": {"dtype": "uint8", "scale": 0.006028690291386024, "min": -0.8259305699198853}}, {"dtype": "float32", "shape": [1, 1, 256, 546], "name": "BoxPredictor_4/ClassPredictor/weights", "quantization": {"dtype": "uint8", "scale": 0.002515141402973848, "min": -0.4401497455204234}}, {"dtype": "float32", "shape": [256], "name": "BoxPredictor_4/ClassPredictor_depthwise/BatchNorm/FusedBatchNorm/Offset", "quantization": {"dtype": "uint8", "scale": 0.042489302392099415, "min": -3.271676284191655}}, {"dtype": "float32", "shape": [256], "name": "BoxPredictor_4/ClassPredictor_depthwise/BatchNorm/FusedBatchNorm/Scaled", "quantization": {"dtype": "uint8", "scale": 0.16408986484303195, "min": 9.379076957702637}}, {"dtype": "float32", "shape": [3, 3, 256, 1], "name": "BoxPredictor_4/ClassPredictor_depthwise/depthwise_weights", "quantization": {"dtype": "uint8", "scale": 0.0015410065066580679, "min": -0.2249869499720779}}, {"dtype": "int32", "shape": [], "name": "BoxPredictor_3/stack/1", "quantization": {"dtype": "uint8", "scale": 1.0, "min": 54.0}}, {"dtype": "float32", "shape": [546], "name": "BoxPredictor_3/ClassPredictor/biases", "quantization": {"dtype": "uint8", "scale": 0.01148529333226821, "min": -1.4471469598657944}}, {"dtype": "float32", "shape": [1, 1, 256, 546], "name": "BoxPredictor_3/ClassPredictor/weights", "quantization": {"dtype": "uint8", "scale": 0.0038926852684394984, "min": -0.6422930692925173}}, {"dtype": "float32", "shape": [256], "name": "BoxPredictor_3/ClassPredictor_depthwise/BatchNorm/FusedBatchNorm/Offset", "quantization": {"dtype": "uint8", "scale": 0.059902648364796356, "min": -3.893672143711763}}, {"dtype": "float32", "shape": [256], "name": "BoxPredictor_3/ClassPredictor_depthwise/BatchNorm/FusedBatchNorm/Scaled", "quantization": {"dtype": "uint8", "scale": 0.1675030558717017, "min": 4.981686115264893}}, {"dtype": "float32", "shape": [3, 3, 256, 1], "name": "BoxPredictor_3/ClassPredictor_depthwise/depthwise_weights", "quantization": {"dtype": "uint8", "scale": 0.0028921263475044103, "min": -0.49166147907574975}}, {"dtype": "int32", "shape": [], "name": "BoxPredictor_2/stack/1", "quantization": {"dtype": "uint8", "scale": 1.0, "min": 150.0}}, {"dtype": "float32", "shape": [546], "name": "BoxPredictor_2/ClassPredictor/biases", "quantization": {"dtype": "uint8", "scale": 0.018220704209570792, "min": -2.4051329556633445}}, {"dtype": "float32", "shape": [1, 1, 512, 546], "name": "BoxPredictor_2/ClassPredictor/weights", "quantization": {"dtype": "uint8", "scale": 0.004271719034980325, "min": -0.5937689458622653}}, {"dtype": "float32", "shape": [512], "name": "BoxPredictor_2/ClassPredictor_depthwise/BatchNorm/FusedBatchNorm/Offset", "quantization": {"dtype": "uint8", "scale": 0.09609734030330883, "min": -7.6877872242647065}}, {"dtype": "float32", "shape": [512], "name": "BoxPredictor_2/ClassPredictor_depthwise/BatchNorm/FusedBatchNorm/Scaled", "quantization": {"dtype": "uint8", "scale": 0.20198918323890835, "min": 3.7582573890686035}}, {"dtype": "float32", "shape": [3, 3, 512, 1], "name": "BoxPredictor_2/ClassPredictor_depthwise/depthwise_weights", "quantization": {"dtype": "uint8", "scale": 0.002577115157071282, "min": -0.39172150387483484}}, {"dtype": "int32", "shape": [], "name": "BoxPredictor_1/stack/1", "quantization": {"dtype": "uint8", "scale": 1.0, "min": 600.0}}, {"dtype": "float32", "shape": [546], "name": "BoxPredictor_1/ClassPredictor/biases", "quantization": {"dtype": "uint8", "scale": 0.029268730387968175, "min": -5.29764020022224}}, {"dtype": "float32", "shape": [1, 1, 1280, 546], "name": "BoxPredictor_1/ClassPredictor/weights", "quantization": {"dtype": "uint8", "scale": 0.004982167832991656, "min": -0.6277531469569486}}, {"dtype": "float32", "shape": [1280], "name": "BoxPredictor_1/ClassPredictor_depthwise/BatchNorm/FusedBatchNorm/Offset", "quantization": {"dtype": "uint8", "scale": 0.1670063243192785, "min": -21.042796864229093}}, {"dtype": "float32", "shape": [1280], "name": "BoxPredictor_1/ClassPredictor_depthwise/BatchNorm/FusedBatchNorm/Scaled", "quantization": {"dtype": "uint8", "scale": 0.2654057603256375, "min": -0.7962172809769126}}, {"dtype": "float32", "shape": [3, 3, 1280, 1], "name": "BoxPredictor_1/ClassPredictor_depthwise/depthwise_weights", "quantization": {"dtype": "uint8", "scale": 0.0035057710666282506, "min": -0.49781949146121157}}, {"dtype": "int32", "shape": [], "name": "BoxPredictor_0/stack/1", "quantization": {"dtype": "uint8", "scale": 1.0, "min": 1083.0}}, {"dtype": "float32", "shape": [273], "name": "BoxPredictor_0/ClassPredictor/biases", "quantization": {"dtype": "uint8", "scale": 0.04112194472668217, "min": -8.594486447876575}}, {"dtype": "float32", "shape": [1, 1, 576, 273], "name": "BoxPredictor_0/ClassPredictor/weights", "quantization": {"dtype": "uint8", "scale": 0.009164938973445518, "min": -1.3839057849902732}}, {"dtype": "float32", "shape": [576], "name": "BoxPredictor_0/ClassPredictor_depthwise/BatchNorm/FusedBatchNorm/Offset", "quantization": {"dtype": "uint8", "scale": 0.08752754809809667, "min": -12.253856733733533}}, {"dtype": "float32", "shape": [576], "name": "BoxPredictor_0/ClassPredictor_depthwise/BatchNorm/FusedBatchNorm/Scaled", "quantization": {"dtype": "uint8", "scale": 0.33801369386560776, "min": -13.858561448489919}}, {"dtype": "float32", "shape": [3, 3, 576, 1], "name": "BoxPredictor_0/ClassPredictor_depthwise/depthwise_weights", "quantization": {"dtype": "uint8", "scale": 0.004484775720858107, "min": -0.6233838251992768}}, {"dtype": "int32", "shape": [], "name": "Postprocessor/ExpandDims_1/dim", "quantization": {"dtype": "uint8", "scale": 1.0, "min": 2.0}}, {"dtype": "int32", "shape": [], "name": "BoxPredictor_0/stack/3", "quantization": {"dtype": "uint8", "scale": 1.0, "min": 4.0}}, {"dtype": "int32", "shape": [], "name": "MultipleGridAnchorGenerator/assert_equal/x", "quantization": {"dtype": "uint8", "scale": 1.0, "min": 1917.0}}, {"dtype": "float32", "shape": [24], "name": "BoxPredictor_5/BoxEncodingPredictor/biases", "quantization": {"dtype": "uint8", "scale": 0.012032574765822467, "min": -1.7447233410442577}}, {"dtype": "float32", "shape": [1, 1, 128, 24], "name": "BoxPredictor_5/BoxEncodingPredictor/weights", "quantization": {"dtype": "uint8", "scale": 0.0018103692461462581, "min": -0.22810652501442852}}, {"dtype": "float32", "shape": [128], "name": "BoxPredictor_5/BoxEncodingPredictor_depthwise/BatchNorm/FusedBatchNorm/Offset", "quantization": {"dtype": "uint8", "scale": 0.038844602248247935, "min": -5.321710508009967}}, {"dtype": "float32", "shape": [128], "name": "BoxPredictor_5/BoxEncodingPredictor_depthwise/BatchNorm/FusedBatchNorm/Scaled", "quantization": {"dtype": "uint8", "scale": 0.055147492651845896, "min": 21.5479736328125}}, {"dtype": "float32", "shape": [3, 3, 128, 1], "name": "BoxPredictor_5/BoxEncodingPredictor_depthwise/depthwise_weights", "quantization": {"dtype": "uint8", "scale": 0.0010684445792553472, "min": -0.12607646035213096}}, {"dtype": "float32", "shape": [24], "name": "BoxPredictor_4/BoxEncodingPredictor/biases", "quantization": {"dtype": "uint8", "scale": 0.007651816162408567, "min": -1.538015048644122}}, {"dtype": "float32", "shape": [1, 1, 256, 24], "name": "BoxPredictor_4/BoxEncodingPredictor/weights", "quantization": {"dtype": "uint8", "scale": 0.0017520655603969798, "min": -0.21199993280803456}}, {"dtype": "float32", "shape": [256], "name": "BoxPredictor_4/BoxEncodingPredictor_depthwise/BatchNorm/FusedBatchNorm/Offset", "quantization": {"dtype": "uint8", "scale": 0.021744187672932944, "min": -2.4788373947143554}}, {"dtype": "float32", "shape": [256], "name": "BoxPredictor_4/BoxEncodingPredictor_depthwise/BatchNorm/FusedBatchNorm/Scaled", "quantization": {"dtype": "uint8", "scale": 0.1154502083273495, "min": 13.303376197814941}}, {"dtype": "float32", "shape": [3, 3, 256, 1], "name": "BoxPredictor_4/BoxEncodingPredictor_depthwise/depthwise_weights", "quantization": {"dtype": "uint8", "scale": 0.0008347125322211023, "min": -0.09682665373764787}}, {"dtype": "float32", "shape": [24], "name": "BoxPredictor_3/BoxEncodingPredictor/biases", "quantization": {"dtype": "uint8", "scale": 0.012218973683375938, "min": -1.5762476051554961}}, {"dtype": "float32", "shape": [1, 1, 256, 24], "name": "BoxPredictor_3/BoxEncodingPredictor/weights", "quantization": {"dtype": "uint8", "scale": 0.002559616168340047, "min": -0.34554818272590637}}, {"dtype": "float32", "shape": [256], "name": "BoxPredictor_3/BoxEncodingPredictor_depthwise/BatchNorm/FusedBatchNorm/Offset", "quantization": {"dtype": "uint8", "scale": 0.02195894718170166, "min": -1.5590852499008179}}, {"dtype": "float32", "shape": [256], "name": "BoxPredictor_3/BoxEncodingPredictor_depthwise/BatchNorm/FusedBatchNorm/Scaled", "quantization": {"dtype": "uint8", "scale": 0.09920761631984337, "min": 4.569199562072754}}, {"dtype": "float32", "shape": [3, 3, 256, 1], "name": "BoxPredictor_3/BoxEncodingPredictor_depthwise/depthwise_weights", "quantization": {"dtype": "uint8", "scale": 0.0019935672189675124, "min": -0.2870736795313218}}, {"dtype": "float32", "shape": [24], "name": "BoxPredictor_2/BoxEncodingPredictor/biases", "quantization": {"dtype": "uint8", "scale": 0.0109435146930171, "min": -1.3679393366271375}}, {"dtype": "float32", "shape": [1, 1, 512, 24], "name": "BoxPredictor_2/BoxEncodingPredictor/weights", "quantization": {"dtype": "uint8", "scale": 0.0034176190694173176, "min": -0.3827733357747396}}, {"dtype": "float32", "shape": [512], "name": "BoxPredictor_2/BoxEncodingPredictor_depthwise/BatchNorm/FusedBatchNorm/Offset", "quantization": {"dtype": "uint8", "scale": 0.031839826060276404, "min": -4.903333213282566}}, {"dtype": "float32", "shape": [512], "name": "BoxPredictor_2/BoxEncodingPredictor_depthwise/BatchNorm/FusedBatchNorm/Scaled", "quantization": {"dtype": "uint8", "scale": 0.17406245306426404, "min": 3.5750157833099365}}, {"dtype": "float32", "shape": [3, 3, 512, 1], "name": "BoxPredictor_2/BoxEncodingPredictor_depthwise/depthwise_weights", "quantization": {"dtype": "uint8", "scale": 0.0019533293504340977, "min": -0.2851860851633783}}, {"dtype": "float32", "shape": [24], "name": "BoxPredictor_1/BoxEncodingPredictor/biases", "quantization": {"dtype": "uint8", "scale": 0.013244043144525266, "min": -1.5627970910539812}}, {"dtype": "float32", "shape": [1, 1, 1280, 24], "name": "BoxPredictor_1/BoxEncodingPredictor/weights", "quantization": {"dtype": "uint8", "scale": 0.003472996809903313, "min": -0.40634062675868765}}, {"dtype": "float32", "shape": [1280], "name": "BoxPredictor_1/BoxEncodingPredictor_depthwise/BatchNorm/FusedBatchNorm/Offset", "quantization": {"dtype": "uint8", "scale": 0.0490964833427878, "min": -2.1111487837398752}}, {"dtype": "float32", "shape": [1280], "name": "BoxPredictor_1/BoxEncodingPredictor_depthwise/BatchNorm/FusedBatchNorm/Scaled", "quantization": {"dtype": "uint8", "scale": 0.1819913957633224, "min": 4.123112201690674}}, {"dtype": "float32", "shape": [3, 3, 1280, 1], "name": "BoxPredictor_1/BoxEncodingPredictor_depthwise/depthwise_weights", "quantization": {"dtype": "uint8", "scale": 0.0023363539985581942, "min": -0.29671695781689067}}, {"dtype": "float32", "shape": [12], "name": "BoxPredictor_0/BoxEncodingPredictor/biases", "quantization": {"dtype": "uint8", "scale": 0.010878538617900774, "min": -1.631780792685116}}, {"dtype": "float32", "shape": [1, 1, 576, 12], "name": "BoxPredictor_0/BoxEncodingPredictor/weights", "quantization": {"dtype": "uint8", "scale": 0.0064450413573021986, "min": -0.8636355418784946}}, {"dtype": "float32", "shape": [576], "name": "BoxPredictor_0/BoxEncodingPredictor_depthwise/BatchNorm/FusedBatchNorm/Offset", "quantization": {"dtype": "uint8", "scale": 0.16316476709702435, "min": -36.8752373639275}}, {"dtype": "float32", "shape": [576], "name": "BoxPredictor_0/BoxEncodingPredictor_depthwise/BatchNorm/FusedBatchNorm/Scaled", "quantization": {"dtype": "uint8", "scale": 0.12008316423378738, "min": 0.8989537954330444}}, {"dtype": "float32", "shape": [3, 3, 576, 1], "name": "BoxPredictor_0/BoxEncodingPredictor_depthwise/depthwise_weights", "quantization": {"dtype": "uint8", "scale": 0.0054410698367100135, "min": -0.6257230312216515}}, {"dtype": "float32", "shape": [], "name": "ConstantFolding/Postprocessor/Decode/div_2_recip", "quantization": {"dtype": "uint8", "scale": 1.0, "min": 0.20000000298023224}}, {"dtype": "int32", "shape": [2], "name": "Postprocessor/Reshape_1/shape", "quantization": {"dtype": "uint8", "scale": 0.0196078431372549, "min": -1.0}}, {"dtype": "float32", "shape": [1, 1917, 4], "name": "Postprocessor/ExpandDims", "quantization": {"dtype": "uint8", "scale": 0.007394940479128968, "min": -0.44369642874773807}}, {"dtype": "float32", "shape": [], "name": "ConstantFolding/Postprocessor/Decode/div_4_recip", "quantization": {"dtype": "uint8", "scale": 1.0, "min": 0.5}}, {"dtype": "float32", "shape": [], "name": "ConstantFolding/Postprocessor/Decode/div_recip", "quantization": {"dtype": "uint8", "scale": 1.0, "min": 0.10000000149011612}}, {"dtype": "int32", "shape": [], "name": "Preprocessor/map/while/add/y", "quantization": {"dtype": "uint8", "scale": 1.0, "min": 1.0}}, {"dtype": "int32", "shape": [2], "name": "Preprocessor/map/while/ResizeImage/stack", "quantization": {"dtype": "uint8", "scale": 1.0, "min": 300.0}}, {"dtype": "int32", "shape": [], "name": "Preprocessor/map/while/ResizeImage/ExpandDims/dim", "quantization": {"dtype": "uint8", "scale": 1.0, "min": 0.0}}, {"dtype": "int32", "shape": [2], "name": "Postprocessor/Decode/transpose/sub_1", "quantization": {"dtype": "uint8", "scale": 0.00392156862745098, "min": -0.0}}, {"dtype": "int32", "shape": [2], "name": "Postprocessor/Decode/get_center_coordinates_and_sizes/transpose/sub_1", "quantization": {"dtype": "uint8", "scale": 0.00392156862745098, "min": -0.0}}, {"dtype": "int32", "shape": [2], "name": "Postprocessor/Decode/transpose_1/sub_1", "quantization": {"dtype": "uint8", "scale": 0.00392156862745098, "min": -0.0}}]}]}